mo/TARGCN/model/model_para/PEMSD8/epoch_6.pth (torch, 597909 bytes, 48 tensors)

node_embeddings f4 [170, 2]
0	0x3d0625ce	0.032750897
1	0xbe595a60	-0.21225882
2	0x3ddb06a0	0.10694623
3	0xbe3230ac	-0.1740138
4	0x3e034c02	0.12821963
5	0xbd84c65f	-0.06483149
6	0x3cd21829	0.025646286
7	0xbe697d2a	-0.22801653
8	0x3dd2b41c	0.102882594
9	0xbe40f5f4	-0.18843824
10	0x3cdc5f40	0.026900887
11	0xbe4d30bc	-0.20038122
12	0x3db8873e	0.090101704
13	0xbe327364	-0.1742683
14	0x3dd8354e	0.10557042
15	0xbd54320d	-0.051805545
16	0x3df4009c	0.11914179
17	0xbc61a869	-0.013773062
18	0x3d73cbd4	0.059520558
19	0xbea6a91b	-0.32550892
20	0x3d41132a	0.047137417
21	0xbe4a76e4	-0.19771916
22	0x3e05208d	0.13000698
23	0xbd75151a	-0.059834577
24	0x3e36c159	0.17847194
25	0xbd92026b	-0.071293674
26	0x3e0680c1	0.13135053
27	0xbdce52c7	-0.10074382
28	0x3dc34ddb	0.09536334
29	0xbe1d83fa	-0.15382376
30	0x3d198d46	0.037488244
31	0xbe3c456d	-0.18385859
32	0x3e3a3895	0.18185647
33	0x3d3b0a2e	0.045664005
34	0x3d4b4cc6	0.049633764
35	0xbe3b4fce	-0.18292162
36	0x3e039d54	0.12852985
37	0xbdd55263	-0.10416105
38	0xbd6d118a	-0.057878055
39	0xbe8ce41a	-0.27517778
40	0x3e3230dc	0.17401451
41	0xbd324c5c	-0.043529853
42	0x3deadf65	0.114683904
43	0xbda7cca9	-0.08193333
44	0x3ddebc68	0.108757794
45	0xbe3118ea	-0.1729466
46	0x3e1cb029	0.15301575
47	0xbdd23c0c	-0.10265359
48	0x3e82adf5	0.25523344
49	0x3e0ba3a7	0.13636647
50	0x3e0fcc27	0.14042722
51	0xbd8372da	-0.064183906
52	0x3dcf25bb	0.101146184
53	0xbe096dec	-0.13420838
54	0x3dd02d0e	0.101648435
55	0xbe04af3f	-0.12957476
56	0x3d23b6a8	0.039969116
57	0xbe4b96fe	-0.19881818
58	0x3db78c03	0.08962252
59	0xbdbd318c	-0.09237966
60	0x3dda8755	0.10670344
61	0xbda0e5b5	-0.07856313
62	0x3db2cfd6	0.08731048
63	0xbda69e6f	-0.081356876
64	0x3e674cbb	0.22587864
65	0x3cbb61b6	0.02287374
66	0x3e302f80	0.1720562
67	0xbe86818d	-0.26270714
68	0x3e38cbc9	0.18046488
69	0x3ccb61a1	0.024826827
70	0xbd856e32	-0.06515159
71	0xbe95fee1	-0.2929602
72	0x3dfa3f8b	0.12219151
73	0xbdd25807	-0.10270696
74	0x3cfb79a7	0.030697657
75	0xbde0c5f6	-0.10975258
76	0x3e1e4680	0.15456581
77	0xbd74eb5e	-0.059794776
78	0x3e274620	0.16335344
79	0xbdaae014	-0.08343521
80	0x3cd2250f	0.025652437
81	0xbe16d314	-0.14728957
82	0x3dc8ad15	0.09798638
83	0xbe1c18a7	-0.15243779
84	0x3e477f1c	0.19482082
85	0x3a05fbdb	0.0005111077
86	0x3e0576de	0.13033625
87	0xbe04c7e3	-0.12966876
88	0x3e16522b	0.14679782
89	0xbd204ac4	-0.039133802
90	0x3e10f9a3	0.14157729
91	0xbe088722	-0.13332799
92	0x3d5603a3	0.052249562
93	0xbe4aacda	-0.197925
94	0x3dddc1e1	0.10827995
95	0xbded84ce	-0.11597596
96	0x3b836db6	0.0040108813
97	0xbe97bc02	-0.29635626
98	0x3c844f85	0.0161512
99	0xbdec3fd3	-0.11535611
100	0x3e3d22fd	0.18470378
101	0xbc91bf4d	-0.017791415
102	0x3d8f3a6b	0.06993564
103	0xbdfb278c	-0.12263402
104	0x3d8cff49	0.06884629
105	0xbe60b242	-0.21943
106	0x3da9d0ee	0.08291803
107	0xbdf7d19c	-0.12100527
108	0x3e101e87	0.14074145
109	0xbd45c942	-0.048287638
110	0x3dd3cbcd	0.10341606
111	0xbe162168	-0.14661181
112	0x3dc169e6	0.09444027
113	0xbdacf5c4	-0.084453136
114	0x3e58e272	0.21180132
115	0x3ce37f1d	0.027770573
116	0x3da459dd	0.080249526
117	0xbd9856cd	-0.07438431
118	0x3db484e8	0.08814412
119	0xbda00142	-0.0781274
120	0x3d20bcdf	0.03924262
121	0xbdf5bbfe	-0.11998747
122	0x3cb540cc	0.022125624
123	0xbe8d9625	-0.27653614
124	0xba97f41b	-0.0011593135
125	0xbe1f7916	-0.15573534
126	0xbdd4f4d0	-0.10398257
127	0xbeb65b3a	-0.35616475
128	0x3e443648	0.19161332
129	0xbda4a4f9	-0.080392785
130	0x3db4c8e2	0.08827378
131	0xbdbb24c7	-0.09137874
132	0x3d83a221	0.06427408
133	0xbdd8e2c2	-0.105901256
134	0x3d487055	0.048935253
135	0xbde5ada3	-0.11214759
136	0x3e0c6b02	0.13712695
137	0x3c0518b4	0.008123565
138	0x3e030eec	0.12798661
139	0xbdadadd7	-0.08480423
140	0x3d843ab5	0.0645651
141	0xbe3b7ab6	-0.1830853
142	0xbce61250	-0.028084904
143	0xbe5c7706	-0.21529779
144	0x3dba8fca	0.09109457
145	0xbda79d28	-0.08184272
146	0x3dbcb221	0.09213663
147	0xbe20916b	-0.15680473
148	0x3e38eea6	0.18059787
149	0xbcaed774	-0.02134297
150	0x3e13c8c3	0.14432053
151	0xbd555efb	-0.052092534
152	0x3db23bf2	0.0870284
153	0xbdea4e95	-0.114407696
154	0xbc6dcb69	-0.014513829
155	0xbe4176c0	-0.18892956
156	0x3dcf3b05	0.10118679
157	0xbdaee9cc	-0.08540687
158	0x3d7a4bc0	0.061107397
159	0xbd02b211	-0.0319081
160	0xb905813d	-0.00012732013
161	0xbe9a2a52	-0.30110413
162	0x3e2000a7	0.15625249
163	0xbdcf0389	-0.10108096
164	0xbd5db149	-0.05412415
165	0xbe6c4f93	-0.2307723
166	0x3df30a19	0.1186716
167	0xbe084b95	-0.13310082
168	0x3daff6b4	0.08591977
169	0xbe26a515	-0.16273911
170	0x3e0b343f	0.13594149
171	0xbce01ff0	-0.027358979
172	0xbcd62492	-0.026140485
173	0xbe53042b	-0.20607059
174	0x3d50a2e8	0.05093661
175	0xbd84f5db	-0.06492206
176	0x3cf32b70	0.029683799
177	0xbdf5e9c6	-0.12007479
178	0x3db8963e	0.090130314
179	0xbdb86b74	-0.0900487
180	0x3de05300	0.10953331
181	0xbdac3d15	-0.08410088
182	0x3e336b16	0.17521319
183	0xbcd2bbd0	-0.025724322
184	0x3e0891e1	0.13336898
185	0xbdd461c8	-0.10370213
186	0x3e0f000d	0.13964863
187	0xbde3267d	-0.110913254
188	0x3e3729d7	0.17887054
189	0x3abe683c	0.0014526914
190	0x3d6dbd83	0.05804206
191	0xbde21ef8	-0.11041063
192	0xbd7bf9c7	-0.061517503
193	0xbe4ed268	-0.20197451
194	0x3e064479	0.13112058
195	0xbd43ce5f	-0.047804233
196	0x3c1d470d	0.009599459
197	0xbe0af1a3	-0.1356874
198	0xbcfa96a7	-0.030589415
199	0xbe3924ac	-0.18080395
200	0x3d391a93	0.04519136
201	0xbdbe80b4	-0.09301892
202	0x3e2e07c7	0.16995154
203	0xbcde17dc	-0.027110986
204	0x3e7ebe5c	0.24877304
205	0x3e06eae8	0.13175547
206	0x3e81188c	0.2521404
207	0x3e05c89a	0.13064805
208	0x3dc32e8b	0.09530362
209	0xbdb773a5	-0.08957604
210	0x3dd05e1e	0.101742014
211	0xbc8cf180	-0.017205
212	0x3d616a6b	0.05503313
213	0xbe16cb16	-0.14725909
214	0x3d92acaf	0.07161843
215	0xbdad9ac2	-0.08476783
216	0x3e19f9b0	0.15036654
217	0xbde28bbe	-0.1106181
218	0x3d0a585b	0.03377567
219	0xbdfa5843	-0.12223866
220	0xbd0c8e08	-0.03431514
221	0xbe1f27d7	-0.15542541
222	0x3de30bf2	0.11086263
223	0xbdebd135	-0.115145124
224	0x3e0b7e15	0.13622315
225	0x3bcf1735	0.006319905
226	0x3dd39d9a	0.103327945
227	0xbc8340ad	-0.01602205
228	0x3d6b1a03	0.057397854
229	0xbcd5f067	-0.02611561
230	0x3e2d09ee	0.16898319
231	0xbcfa47e3	-0.030551856
232	0x3e310df5	0.1729048
233	0x3c7db5f7	0.015485278
234	0x3d8f1544	0.06986478
235	0xbdef2545	-0.116770305
236	0x3d2f4d9e	0.04279863
237	0xbde4a27d	-0.11163805
238	0x3e1d5cf9	0.15367498
239	0xbd7836e8	-0.060599238
240	0x3dfb5bd7	0.122733764
241	0xbd8f907e	-0.070099816
242	0x3d468bef	0.048473295
243	0xbe7e99c7	-0.24863349
244	0x3c8fbe9c	0.017546944
245	0xbe902514	-0.28153288
246	0x3b7c9d77	0.0038546005
247	0xbe97d34b	-0.2965339
248	0x3dd8fe40	0.10595369
249	0xbe1a5794	-0.15072471
250	0x3d1ad273	0.037798356
251	0xbe8357d3	-0.25652942
252	0x3d807f89	0.062743254
253	0xbe4fb9d5	-0.20285733
254	0xbc145c30	-0.009055182
255	0xbe79fc11	-0.24412562

encoder.dcrnn_cells.0.gate.weights_pool f4 [2, 65, 128]
0	0xbe89b04a	-0.2689231
1	0xbdd65034	-0.10464516
2	0x3e6dc4dc	0.23219627
3	0x3d9ec739	0.077528425
4	0x3cfc5e17	0.030806584
5	0x3c1472cf	0.009060576
6	0x3e235d44	0.15953547
7	0xbec65148	-0.38733888
8	0x3da71fd2	0.08160366
9	0x3d399fe4	0.0453185
10	0xbd8a7096	-0.06759755
11	0xbd93ad50	-0.07210791
12	0x3de2c67f	0.110730164
13	0xbdcd6b6b	-0.10030254
14	0x3ea34168	0.31885839
15	0xba610166	-0.0008583277
16	0x3d117fe6	0.035522364
17	0x3cfde7df	0.030994354
18	0x3dc3690f	0.09541523
19	0x3d5b5b77	0.053554025
20	0x3e013624	0.1261831
21	0xbe54a2dc	-0.20765251
22	0xbe2590f1	-0.16168572
23	0xbe57f514	-0.21089584
24	0x3e0808e0	0.13284636
25	0xbc53e3ca	-0.012932727
26	0x3d8a4a75	0.06752483
27	0x3dbd1550	0.09232581
28	0xbec3eb1c	-0.38265312
29	0xbc9be5dc	-0.019030504
30	0xbe0d4402	-0.13795474
31	0xbe8254aa	-0.2545522
32	0xbe959839	-0.292177
33	0xbdc23a53	-0.09483781
34	0xba879b20	-0.0010345913
35	0x3dffc09d	0.1248791
36	0x3db1b99a	0.08677979
37	0xbcd2f36f	-0.025750844
38	0x3cc3a981	0.023884537
39	0x3e354e09	0.1770555
40	0xbe58c56a	-0.21169057
41	0x3c4a0ae9	0.012331703
42	0x3e79be75	0.2438906
43	0xbe05ded7	-0.13073288
44	0x3db7dec2	0.089780346
45	0x3dcdccee	0.10048853
46	0xbd0ed0f3	-0.03486724
47	0xbdc05b44	-0.093924075
48	0xbd424e0c	-0.047437713
49	0x3c0c1891	0.008550779
50	0x3e113f25	0.14184244
51	0x3d7300d1	0.05932695
52	0xbdf2718d	-0.11838064
53	0xbe6ec6d6	-0.23318037
54	0xbdceb62c	-0.1009334
55	0x3d23d1f8	0.039995164
56	0xbc9950b8	-0.018715248
57	0xbd3c887c	-0.0460286
58	0xbda320e5	-0.079652585
59	0xbe0eae12	-0.1393359
60	0x3e43b9a5	0.19113787
61	0xb8fb1348	-0.00011972204
62	0xbdb31c62	-0.08745648
63	0xbe1b9a29	-0.15195526
64	0xbe1e9914	-0.15488082
65	0x3d8c6a49	0.0685621
66	0xbe13ad4d	-0.14421578
67	0xbe770d29	-0.24126114
68	0x3e829e58	0.25511432
69	0xbe548d2c	-0.20756978
70	0xbe970c78	-0.295017
71	0x3e95c3cc	0.29250944
72	0xbe1de9f9	-0.15421285
73	0xbe8f8e9e	-0.28038496
74	0xbd62b76b	-0.055350702
75	0xbde282c5	-0.110600986
76	0x3c787c04	0.015166286
77	0x3dc50f34	0.096220404
78	0xbdad7936	-0.08470385
79	0xbe8ed6ad	-0.2789816
80	0xbe10e8f7	-0.14151369
81	0xbe03fac5	-0.1288863
82	0xbe66eedb	-0.22552054
83	0xbeac376f	-0.33636042
84	0x3ba3792c	0.00498881
85	0x3de6fffe	0.112792954
86	0x3e1ac7f3	0.15115337
87	0x3de06404	0.109565765
88	0xbd93781b	-0.07200643
89	0xbe814d15	-0.2525412
90	0xbe0a1d3f	-0.13487719
91	0xbe410246	-0.18848523
92	0x3eb680c4	0.35645115
93	0xbec78c01	-0.38974002
94	0x3e51a8d3	0.20474558
95	0xbe001e02	-0.12511447
96	0xbde8585c	-0.11344978
97	0x3ae7e8e0	0.0017693304
98	0x3dd131fc	0.10214612
99	0xbe81943a	-0.253084
100	0x3d0cb742	0.034354456
101	0xbe8f2ee0	-0.2796545
102	0xbe76990c	-0.2408182
103	0x3ca91f36	0.020644765
104	0xbdcf87f2	-0.101333514
105	0xbeb0179e	-0.34393018
106	0xbdb64f9c	-0.08901903
107	0x3e5c8616	0.21535525
108	0xbbcf2a8b	-0.00632221
109	0xbe91d1e9	-0.2848046
110	0xbe5facd2	-0.2184327
111	0x3e4931a8	0.19647849
112	0x3e21ded7	0.15807663
113	0xbe24809f	-0.1606469
114	0xbe17a32b	-0.14808337
115	0x3e2997cf	0.16561817
116	0x3dd591c9	0.10428197
117	0xbcacfbf0	-0.021116227
118	0xbd7eef1a	-0.062239744
119	0xbe01107e	-0.12603948
120	0x3ca1028f	0.01965454
121	0xbd8279ff	-0.06370925
122	0x3e4bf6ce	0.19918367
123	0x3dc8d8a9	0.0980695
124	0x3e3d4c27	0.18486081
125	0xbe00f1cb	-0.12592237
126	0x3e8f40f9	0.27979258
127	0x3e5347b3	0.2063282
128	0x3e327da6	0.17430744
129	0xbe94a9b8	-0.29035735
130	0xbba6cd0a	-0.0050903605
131	0xbeb5faa8	-0.35542798
132	0xbd1f611b	-0.038910966
133	0xbaed6831	-0.0018112716
134	0xbdc3b27b	-0.09555527
135	0x3d681b9f	0.056666967
136	0xbdd29726	-0.102827355
137	0xbd9c396d	-0.076281406
138	0xbd6e2526	-0.058140896
139	0xbe1273fb	-0.14302056
140	0xbeb605c0	-0.35551262
141	0x3e053fc8	0.13012612
142	0xbea0ffc1	-0.31445125
143	0x39fa7b8f	0.00047775774
144	0xbca4a3ef	-0.0200977
145	0xbe94a152	-0.29029328
146	0xbda058a7	-0.07829409
147	0xbd6673d6	-0.056262814
148	0xbe97f755	-0.29680887
149	0x3d15ce32	0.036573596
150	0xbdb18200	-0.08667374
151	0xbe3aca7a	-0.18241301
152	0xbeb4fa67	-0.35347292
153	0xbd96d9d8	-0.07365769
154	0xbd70ed1f	-0.058819886
155	0xbd08fc9b	-0.03344403
156	0xbe4df0a7	-0.20111333
157	0xbded045f	-0.11573099
158	0xbe63581d	-0.22201581
159	0x3bb5cb2f	0.005547903
160	0x3d52da6c	0.051477835
161	0xbe9239db	-0.28559765
162	0x3e44f2e0	0.19233274
163	0xbe6affff	-0.22949217
164	0xbe4afb70	-0.19822478
165	0xbde3190d	-0.110887624
166	0xbd42f692	-0.04759843
167	0x3d3d950d	0.046284724
168	0xbea44d4e	-0.3209023
169	0xbdd54072	-0.104126826
170	0xbd35ed81	-0.044415955
171	0xbeca6302	-0.39528662
172	0xbd08f255	-0.03343423
173	0xbbe9f09d	-0.007139279
174	0xbec2eb98	-0.3807037
175	0x3b0bdd65	0.0021341678
176	0x3d0f9e6f	0.035063203
177	0x3a57e8d7	0.0008236295
178	0x3cd24ecb	0.025672337
179	0xbd8339f1	-0.06407536
180	0x3d2f2da8	0.04276815
181	0x3cc65f18	0.024215266
182	0xbe15a354	-0.14613086
183	0xbecd1562	-0.40055376
184	0xbe31d454	-0.17366153
185	0xbe19b9c4	-0.1501227
186	0xbd01aeff	-0.03166103
187	0x3d8e7194	0.06955257
188	0xbea129c9	-0.31477192
189	0xbcdd0537	-0.026980026
190	0xbded3529	-0.11582405
191	0x3d8b93b7	0.06815284
192	0x3acaa528	0.0015460597
193	0x3d8b6af2	0.068075076
194	0xbc975099	-0.01847105
195	0xbd27e1c3	-0.040986788
196	0xbe1cf265	-0.15326841
197	0x3db3c313	0.08777442
198	0xbc55b3ba	-0.013043338
199	0xbd68a1c6	-0.056794904
200	0x3dd6cc2c	0.104881614
201	0xbd00047f	-0.031254288
202	0x3dfc408c	0.12316999
203	0xbc5b6d09	-0.013392695
204	0xbd257fc5	-0.040405054
205	0xbd517c5c	-0.05114399
206	0x3d6ed54d	0.05830889
207	0x3d8e44ba	0.06946702
208	0x3dd5cffd	0.10440061
209	0xbdca6dce	-0.09884225
210	0x3dc91b17	0.0981962
211	0x3d8422ff	0.064519875
212	0x3d481a07	0.048852947
213	0xbcedfe20	-0.02905184
214	0xbd53aa3b	-0.051676016
215	0xbe59a80d	-0.21255513
216	0x3d047b02	0.032343872
217	0x3d24cb55	0.040232975
218	0x3df20630	0.118175864
219	0x3dcdfa3a	0.100574926
220	0xbd298cf3	-0.041394185
221	0x3dc77172	0.09738435
222	0xbd953a5a	-0.0728652
223	0xbd8d5a3f	-0.06901979
224	0xbd521b3d	-0.051295508
225	0x3d8a7ccb	0.067620836
226	0xbc8e9c16	-0.017408412
227	0xbd74ba85	-0.05974819
228	0x3c8292ca	0.015939135
229	0x3d83033c	0.06397101
230	0x3da79162	0.081820264
231	0xbca449ac	-0.02005466
232	0xbe160567	-0.14650498
233	0xbceb1347	-0.028695716
234	0xbe052455	-0.13002141
235	0x3d4fdfb8	0.050750464
236	0xbd70b170	-0.058762968
237	0x3cb97e09	0.022643106
238	0xbd0d3fb8	-0.034484595
239	0x3c807186	0.015679132
240	0xbce0d3b4	-0.027444698
241	0xbce4439f	-0.027864276
242	0xbca705bb	-0.020388475
243	0xbd705094	-0.058670595
244	0x3c5d7fd1	0.013519243
245	0xbe031327	-0.12800275
246	0xbd59fe0f	-0.053220805
247	0xbcbad96c	-0.022808753
248	0x3d693ae1	0.056940917
249	0x3d12633e	0.035739176
250	0xbd4722df	-0.04861724
251	0x3c3cfd66	0.011535024
252	0x3d7f409d	0.06231748
253	0x3b662016	0.003511434
254	0xbc4505ad	-0.012025279
255	0xbcc3f101	-0.02391863

encoder.dcrnn_cells.0.gate.bias_pool f4 [2, 128]
0	0x3eb560b6	0.35425347
1	0xbf165058	-0.58716345
2	0x3e2f17a6	0.17098865
3	0xbe155c24	-0.1458593
4	0x3ebfdc2d	0.37472668
5	0x3da10d7c	0.078639
6	0xbd075928	-0.03304401
7	0xbda7e388	-0.08197695
8	0x3d1e9e5b	0.03872524
9	0xbdcd6ccd	-0.10030518
10	0x3de9c597	0.114146404
11	0xbe15fee2	-0.14648011
12	0xbec620ed	-0.38696995
13	0x3d95b8a9	0.07310612
14	0xbd8ac4ec	-0.06775841
15	0xbc9c91ed	-0.019112552
16	0xbd592044	-0.053009287
17	0xbe30ba09	-0.17258467
18	0x3d749329	0.059710655
19	0xbe17425e	-0.14771411
20	0xbd0df7e3	-0.03466023
21	0xbd471c72	-0.048611112
22	0x3db45967	0.08806115
23	0xbe87fc9b	-0.2655991
24	0xbd72a1dc	-0.059236392
25	0xbd8773cc	-0.066138834
26	0xbda23413	-0.079200886
27	0x3e185569	0.14876331
28	0x3da6b392	0.08139719
29	0xbd713640	-0.058889627
30	0xbd920c6d	-0.07131276
31	0x3efcfbbf	0.49410817
32	0x3d921965	0.0713375
33	0xbe2c9d0f	-0.16856788
34	0x3e264655	0.16237767
35	0xbe65a61e	-0.2242665
36	0xbeb095a5	-0.3448917
37	0xbe85938a	-0.26089126
38	0xbd69f3dd	-0.05711733
39	0xbdf0ca2b	-0.117573105
40	0xbd166ac5	-0.036722917
41	0x3e3234fd	0.17403026
42	0xbdc9f458	-0.09861058
43	0xbc173d13	-0.00923087
44	0x3dd4e9a0	0.10396123
45	0x3de1960f	0.110149495
46	0xbecb85b1	-0.39750436
47	0x3e02ed3e	0.12785813
48	0x3e360c0a	0.1777803
49	0x3e82326c	0.25429094
50	0x3e4298d6	0.19003615
51	0x3db7a7bf	0.08967542
52	0x3e60f7e6	0.21969566
53	0x3dbb5fcd	0.09149132
54	0xbe4f97d9	-0.20272769
55	0xbe928f0c	-0.2862476
56	0xbe62059e	-0.22072455
57	0x3e4706e2	0.1943622
58	0x3c5fe1a5	0.013664638
59	0x3e4599bb	0.19296925
60	0xbd4e4e7f	-0.05036783
61	0x3d441678	0.04787299
62	0xbc86a95f	-0.016438184
63	0x3ca02bef	0.0195522
64	0x3dce3c4e	0.10070096
65	0x3d5b33a7	0.053516056
66	0x3dad8605	0.08472828
67	0xbe737af9	-0.23777379
68	0xbe9a1303	-0.3009263
69	0x3e2af8ed	0.1669652
70	0xbe230033	-0.15918045
71	0xbeac404c	-0.33642805
72	0x3e3e2f2e	0.18572685
73	0xbe2da50e	-0.16957495
74	0x3df8ef59	0.12155027
75	0xbcf0824d	-0.029359007
76	0x3d882db4	0.06649342
77	0x3d3964a3	0.04526199
78	0x3e197f8f	0.14990066
79	0x3d39355d	0.045216907
80	0xbd219f22	-0.0394584
81	0xbdfe8c05	-0.1242905
82	0xbd4c9451	-0.049946133
83	0xbddf6b93	-0.1090919
84	0xbd218e0a	-0.0394421
85	0xbe4dd1b3	-0.20099525
86	0xbd727ebf	-0.059202906
87	0xbd07bd95	-0.033139784
88	0x3db7785a	0.08958502
89	0x3cd747d1	0.026279362
90	0x3e4001b9	0.18750657
91	0x3d6aa223	0.057283532
92	0xbe10a956	-0.14127097
93	0xbd502286	-0.050814174
94	0x3e569ef5	0.20959075
95	0x3b565308	0.00327033
96	0x3d29a4c0	0.041416883
97	0xbd022fc0	-0.03178382
98	0xbd1e64ea	-0.038670458
99	0xbe64e644	-0.22353464
100	0xbdae1d33	-0.08501663
101	0xbd8d70be	-0.069062695
102	0x3df35325	0.11881093
103	0xbe2c8049	-0.16845812
104	0xbd63e55e	-0.055638663
105	0xbe913c9f	-0.28366563
106	0xbdfe7c33	-0.12426033
107	0xbdfe6898	-0.124222934
108	0xbe878953	-0.26471958
109	0xbe30353c	-0.17207807
110	0xbe74b68d	-0.23897763
111	0x3e24728b	0.1605932
112	0xbdead7ae	-0.11466919
113	0xbe769ca9	-0.24083199
114	0xbe60897a	-0.21927443
115	0x3d5b6e81	0.05357218
116	0xbe5d194a	-0.21591678
117	0xbdeb098f	-0.114764325
118	0x3e0ea209	0.13928999
119	0x3d28a522	0.041173108
120	0x3e4222c3	0.18958573
121	0xbde8a558	-0.11359662
122	0x3c8573f4	0.016290642
123	0xbe084a0d	-0.13309498
124	0xbd4bb550	-0.04973346
125	0x3e3c9b51	0.18418624
126	0xbe5cab36	-0.21549687
127	0x3e02a0e7	0.12756692
128	0xbe89c16b	-0.2690538
129	0x3edf6db5	0.43638387
130	0xbd979eaa	-0.0740331
131	0x3eb441af	0.35206363
132	0xbe70c0fa	-0.23511115
133	0x3dc5a4e7	0.09650593
134	0xbc25aecf	-0.010112478
135	0x3eded9cb	0.43525538
136	0x3e1fb593	0.15596609
137	0xbe3da3e3	-0.18519549
138	0xbe80e16b	-0.2517198
139	0x3ea96f82	0.33092886
140	0x3ea58c78	0.32333732
141	0x3c4e8e11	0.012607113
142	0x3ec53dfc	0.38523853
143	0xbdda3501	-0.10654641
144	0xbdac983b	-0.08427473
145	0x3da01815	0.07817093
146	0xbe2c8329	-0.16846909
147	0xbe11fce4	-0.14256626
148	0xbd0fa48c	-0.035069034
149	0xbd3d7810	-0.04625708
150	0x3c8aab83	0.016927486
151	0x3e6d5bf4	0.23179609
152	0x3eb1ea8d	0.3474926
153	0x3da66b38	0.08125919
154	0xbe4b1cf7	-0.19835268
155	0x3da69269	0.08133394
156	0x3e1f5177	0.1555842
157	0xbdac8c8d	-0.084252454
158	0x3d95998a	0.07304676
159	0x3e4e8251	0.201669
160	0xbe435967	-0.19077073
161	0x3e6a3031	0.22869946
162	0xbe1df04b	-0.15423696
163	0x3e9ab888	0.3021891
164	0x3e9398ac	0.28827417
165	0x3ddf230a	0.10895355
166	0xbe793e8f	-0.2434027
167	0xbd3a484d	-0.045479108
168	0x3e3de813	0.1854556
169	0xbdf74c9d	-0.1207516
170	0x3d676f02	0.05650235
171	0x3ca8e4f3	0.020616984
172	0xbdc384b2	-0.09546794
173	0x3dce4a9e	0.10072826
174	0xbd238d13	-0.03992946
175	0xbe8130d3	-0.25232562
176	0xbe0e9164	-0.1392265
177	0xbd7e3a9c	-0.062067613
178	0xbe2b047e	-0.16700932
179	0x3de1fe27	0.11034804
180	0xbb60030f	-0.003418151
181	0xbe4f31ae	-0.20233795
182	0x3e5bb446	0.21455488
183	0x3dd93811	0.10606397
184	0xbcc0f48b	-0.023554107
185	0xbd8db386	-0.06919007
186	0xbd1ded92	-0.038556643
187	0xbe854abd	-0.26033583
188	0x3df2f33f	0.11862802
189	0x3d21c174	0.039491132
190	0x3e2d40e0	0.16919279
191	0x3e1ef31f	0.15522431
192	0xbaa90544	-0.0012895246
193	0xbe40bbf8	-0.18821704
194	0xbdf0c6b2	-0.11756648
195	0xbe65db62	-0.22446969
196	0x3de03fc4	0.10949662
197	0x3d5be11b	0.053681474
198	0x3e0269d5	0.12735684
199	0x3dcc15ae	0.099650726
200	0x3bb9fdff	0.0056760306
201	0x3e1a2770	0.15054107
202	0xbe8109f6	-0.25202912
203	0x3c97118d	0.018440986
204	0xbe4a4642	-0.19753364
205	0x3e60284a	0.21890369
206	0x3d4fa43a	0.050693728
207	0xbe09ab00	-0.13444138
208	0xbe5eec17	-0.21769749
209	0x3e82aa23	0.2552043
210	0x3e8219d2	0.25410324
211	0xbe113c6e	-0.14183208
212	0x3df31ea4	0.118710786
213	0x3eb7ebef	0.3592219
214	0xbe02805e	-0.1274428
215	0x3ea7ff10	0.32811785
216	0xbe35fbaa	-0.17771783
217	0x3bc85205	0.006113293
218	0x3ba58507	0.0050512585
219	0x3d8c448a	0.0684901
220	0xbd93e284	-0.07220939
221	0xbd4003ab	-0.046878498
222	0xbbf1eb55	-0.00738279
223	0xbe49460c	-0.19655627
224	0x3e953041	0.29138377
225	0xbd5e7eb3	-0.05432005
226	0x3e8051d7	0.2506244
227	0x3e3d8e85	0.18511398
228	0xbe1b6a78	-0.15177333
229	0xbcb44ff1	-0.022010775
230	0xbd2099b1	-0.03920907
231	0xbd052983	-0.03251029
232	0x3dd6e50e	0.104929075
233	0xbc728580	-0.014802337
234	0xbe62bbb5	-0.22141917
235	0xbe6e2937	-0.2325791
236	0x3d3ae313	0.04562671
237	0x3e67fdcd	0.22655411
238	0x3dd799ef	0.105274074
239	0x3dbe6499	0.09296531
240	0x3e816484	0.25272
241	0x3eced221	0.4039469
242	0x3c46d42d	0.012135548
243	0xbdf3126d	-0.11868749
244	0x3e8aa713	0.27080593
245	0x3de8d521	0.11368776
246	0xbdb87332	-0.09006347
247	0x3d0260ab	0.03183047
248	0x3d8d23cf	0.068915956
249	0xba31623c	-0.0006766652
250	0x3e6bff30	0.23046565
251	0x3c00084b	0.007814477
252	0xbdd9b16d	-0.106295444
253	0xbde9fb6e	-0.114249095
254	0xbda1e74a	-0.07905443
255	0x3dda57d8	0.10661286

encoder.dcrnn_cells.0.gate.linear.weight f4 [128, 65]
0	0xbe3d096c	-0.18460625
1	0x3dee28b5	0.11628858
2	0x3d899e4c	0.06719646
3	0x3cd79a47	0.026318682
4	0x3e132e0b	0.14373033
5	0x3de82598	0.113352954
6	0x3e743fdd	0.23852487
7	0x3ed620bb	0.41821846
8	0xbc17813b	-0.00924712
9	0x3db6bb95	0.08922497
10	0x3ecaa4bb	0.39578804
11	0x3d3e4c36	0.0464594
12	0x3d5eb1da	0.05436883
13	0x3ea7ab6b	0.3274797
14	0xbc9e3224	-0.019311018
15	0xbc2d3be5	-0.010573362
16	0x3de6df13	0.11273017
17	0xbf2cc9e5	-0.67495567
18	0xbda045fb	-0.07825848
19	0xbe5db739	-0.21651925
20	0xbcf1f90b	-0.029537698
21	0x3d9e79bb	0.07738062
22	0x3e68a5f5	0.22719558
23	0x3e2ae285	0.16687973
24	0x3e348e7a	0.17632475
25	0x3da14593	0.07874598
26	0x3e45bcb5	0.19310267
27	0x3e07d971	0.13266541
28	0xbde7ad86	-0.11312394
29	0x3d870328	0.06592399
30	0x3ed8f16c	0.4237169
31	0x3e1a57f0	0.15072608
32	0xbe3a9aaf	-0.1822307
33	0xbc90bee9	-0.017669158
34	0x3e5b7129	0.21429886
35	0xbd70567f	-0.05867624
36	0xbe2f5971	-0.17123963
37	0x3dc08efc	0.09402272
38	0x3cea4e56	0.028601807
39	0x3e72adb6	0.23699078
40	0x3e6accdd	0.22929712
41	0x3e33f769	0.17574848
42	0xbe2be786	-0.16787538
43	0x3d63d1b1	0.0556199
44	0x3e3aa104	0.18225485
45	0x3ca40d5e	0.020025905
46	0x3de4f26b	0.1117905
47	0x3db0ba1d	0.08629248
48	0xbdc95514	-0.098306805
49	0x3d84d9e6	0.06486873
50	0x3e1833ff	0.14863585
51	0x3eba5acc	0.36397398
52	0xbd739b74	-0.059474424
53	0x3e6ee1b8	0.23328292
54	0x3e379239	0.17926873
55	0x3e6b0742	0.22951987
56	0x3e8cc4bc	0.27493846
57	0xbe71577f	-0.23568533
58	0xbe29910b	-0.16559236
59	0x3e1a4ffb	0.15069573
60	0x3e773900	0.24142838
61	0x3dba4f4e	0.090971574
62	0xbd802414	-0.06256881
63	0x3e50448d	0.2033865
64	0x3d092a99	0.03348789
65	0xbcd3206a	-0.025772292
66	0xbd6cd8b4	-0.05782385
67	0x3e5f3a89	0.21799673
68	0xbe5ef12e	-0.2177169
69	0xbdc1ff34	-0.09472504
70	0xbd932650	-0.07185042
71	0xbe0d335b	-0.13789122
72	0xbe80bc28	-0.25143552
73	0xbe111898	-0.14169538
74	0x3e02244b	0.12709157
75	0xbe456dc1	-0.19280149
76	0x3e8f868c	0.2803234
77	0x3dd029ec	0.10164246
78	0xbd734197	-0.059388723
79	0xbca384ef	-0.019960849
80	0x3d33c6ab	0.043890636
81	0xbe600d72	-0.21880129
82	0xbc93a55b	-0.018023184
83	0x3de63fa8	0.1124261
84	0x3b1a9cfe	0.002359211
85	0x3d09e3c6	0.033664487
86	0xbd527d0d	-0.05138879
87	0x3d85456b	0.06507381
88	0xbe40295f	-0.18765782
89	0xbe133686	-0.14376268
90	0xbb818fcc	-0.0039539095
91	0xbe3d920a	-0.1851274
92	0x3b60e20c	0.0034314422
93	0x3bcc06b1	0.0062263836
94	0xbe4486aa	-0.19191995
95	0xbe15fdbb	-0.14647572
96	0xbe41e8ff	-0.18936537
97	0xbd1c09f3	-0.038095426
98	0x3d953f22	0.07287432
99	0xbcfcde05	-0.030867586
100	0x3da8953f	0.082315914
101	0x3ceb006e	0.028686728
102	0xbe2cdc39	-0.16880883
103	0x3e90a77f	0.2825279
104	0xbdb99136	-0.090609
105	0xbd010cd1	-0.031506363
106	0xbe46021c	-0.19336742
107	0x3d99088a	0.07472332
108	0x3d9b4af1	0.07582653
109	0xbdf5ba50	-0.11998427
110	0xbd9407d3	-0.07228055
111	0xbdfc164a	-0.12308939
112	0xbe4bc5bd	-0.1989965
113	0xbc13b9d2	-0.009016471
114	0x3e0e7fd6	0.13915953
115	0xbdcbafa4	-0.0994561
116	0xbe16781c	-0.14694256
117	0xbdadf657	-0.08494251
118	0x3d8a0226	0.06738691
119	0xbd81e728	-0.06342918
120	0xbdf1b486	-0.1180201
121	0x3d8edfcb	0.06976279
122	0x3e55ea31	0.20890118
123	0xbe12a917	-0.14322315
124	0xbe80e24d	-0.25172654
125	0xbe1eb7a7	-0.15499745
126	0xbd157a8d	-0.036493827
127	0x3e5c0901	0.2148781
128	0x3d8cb1a9	0.068698235
129	0xbe595aeb	-0.21226089
130	0x3e9539d3	0.2914568
131	0xbe0b9907	-0.13632594
132	0xbcbd8df8	-0.023138985
133	0xbe18602c	-0.14880437
134	0x3e566aff	0.20939253
135	0xbdbb2c09	-0.091392584
136	0xbd9bdc6d	-0.07610402
137	0xbde74fbc	-0.11294505
138	0x3e4b66f6	0.19863495
139	0x3d3b1ca5	0.045681614
140	0xbd4876b9	-0.048941348
141	0x3d705791	0.05867726
142	0xbbe4c4ed	-0.006981483
143	0x3c537375	0.012905945
144	0x3e7081d0	0.2348702
145	0x3d931cf2	0.07183255
146	0xbdf7d3bb	-0.12100931
147	0x3d235739	0.039878104
148	0x3d6829a9	0.056680355
149	0x3d5d58c7	0.054039743
150	0x3e6abaef	0.22922872
151	0x3da9057c	0.08252999
152	0xbd8f10e1	-0.06985641
153	0xbdc8e38a	-0.09809025
154	0x3e1ffaf5	0.15623076
155	0xbe0f39fa	-0.1398696
156	0xbdd1f08f	-0.10250961
157	0xbce4fda6	-0.02795298
158	0xbe83d85c	-0.25751007
159	0xbdc1e438	-0.094673574
160	0xbe682fdd	-0.22674508
161	0x3e02898f	0.12747787
162	0x3d88580f	0.06657421
163	0xbe02687f	-0.12735175
164	0xbd4294a0	-0.04750502
165	0x3ea1203f	0.31469914
166	0x3e8aedba	0.27134496
167	0x3da747fb	0.08168026
168	0x3e694373	0.22779636
169	0x3e46e174	0.19421941
170	0x3e362b2b	0.17789905
171	0xbbf8a3b8	-0.007587876
172	0xbde8f2d1	-0.113744386
173	0xbdaf95b6	-0.08573477
174	0x3df122f3	0.11774244
175	0xbb125f63	-0.0022334687
176	0x3e0d48f4	0.1379736
177	0xbd2d8774	-0.042365506
178	0x3ddaa814	0.106765896
179	0x3d376166	0.04477062
180	0x3e10ed23	0.1415296
181	0xbd7194b1	-0.058979694
182	0xbe3a944b	-0.18220632
183	0xbe09138b	-0.13386361
184	0xbdef6a1c	-0.11690161
185	0xbd9ba9af	-0.07600724
186	0x3de49bc8	0.111625254
187	0x3ddbb55f	0.10727953
188	0xbe184c73	-0.14872913
189	0xbe584373	-0.2111948
190	0xbe078c23	-0.13237052
191	0xbe992b4a	-0.2991584
192	0xbe47356b	-0.19453971
193	0x3d3fa0f3	0.046784353
194	0x3dd51313	0.10404029
195	0xbd889c28	-0.066704094
196	0xbe7e9165	-0.24860151
197	0x3d82bf29	0.06384117
198	0xbd51ccb9	-0.05122063
199	0x3d5d9cdc	0.05410467
200	0xbe64a4cb	-0.22328489
201	0xbe1b043e	-0.15138337
202	0xbdb3281d	-0.087478854
203	0xbc0e6f32	-0.008693503
204	0x3e7a3017	0.24432407
205	0xbe8d58c5	-0.27606788
206	0xbdcf4fb0	-0.10122621
207	0x3d1a7931	0.037713233
208	0x3d908b53	0.07057824
209	0xbe38f379	-0.18061627
210	0x3e395a7f	0.18100928
211	0xbe449a8a	-0.19199577
212	0x3d9ed268	0.077549756
213	0x3df6d467	0.12052231
214	0x3eb7b68d	0.35881463
215	0x3ea3c5a4	0.31986725
216	0x3d6c6490	0.05771309
217	0x3df0f04f	0.11764585
218	0x3e26ccfa	0.1628913
219	0xbca18042	-0.019714478
220	0xbd9169fc	-0.07100293
221	0xbde6b980	-0.1126585
222	0xbe50ff59	-0.20409907
223	0xbe252448	-0.16127121
224	0xbe2c6518	-0.16835439
225	0xbe159217	-0.1460651
226	0x3e55bf9d	0.20873876
227	0x3eead1fd	0.45863333
228	0xbe9a2249	-0.30104282
229	0x3e508298	0.20362318
230	0xbdc8621d	-0.097843386
231	0x3e52b2f2	0.20576075
232	0xbc282697	-0.010263107
233	0x3e8f09c2	0.27937132
234	0xbe27338f	-0.16328262
235	0xbd5b9a4f	-0.053613957
236	0x3d0e6b71	0.034770433
237	0x3e7cf713	0.24703626
238	0x3e22d18f	0.15900253
239	0xbc8e9eeb	-0.017409762
240	0xbc2f1831	-0.01068692
241	0xbe9827d7	-0.29717895
242	0x3e670051	0.22558714
243	0xbe44f072	-0.19232348
244	0xbdca4c12	-0.098777905
245	0xbe5a02de	-0.21290156
246	0xbe3341a7	-0.17505513
247	0x3d2a9bb7	0.041652407
248	0xbe88ba0c	-0.26704443
249	0x3dc84c22	0.09780146
250	0xbd0d5c17	-0.03451165
251	0x3dd2f551	0.10300697
252	0x3eb6263b	0.35576043
253	0xbd79f237	-0.06102201
254	0xbe1a0b92	-0.15043476
255	0xbe6dad59	-0.23210658

encoder.dcrnn_cells.0.gate.linear.bias f4 [128]
0	0x3f01febb	0.5077931
1	0x3d1887cc	0.03723888
2	0x3e21285f	0.15738057
3	0xbd82a2c7	-0.063787036
4	0x3f6f4bfc	0.9347532
5	0x3f090925	0.5352958
6	0x3ee40b73	0.44539985
7	0x3ed5a1f2	0.41725117
8	0x3f4f1c1c	0.80902267
9	0x3e5d9dc4	0.21642214
10	0x3f43bac6	0.7645687
11	0x3f057b46	0.52141225
12	0x3e3a1adf	0.18174313
13	0x3f005b5f	0.5013942
14	0x3f149d45	0.58052474
15	0x3f7ba069	0.9829164
16	0x3f535cfb	0.8256375
17	0x3ebd9820	0.37030125
18	0x3e3e08dd	0.18558069
19	0x3f2bd359	0.67119366
20	0x3ea95c86	0.33078402
21	0x3f0def4a	0.5544325
22	0x3f64d3e4	0.8938582
23	0x3eb95ca5	0.36203495
24	0xbd126095	-0.03573664
25	0x3ef2b0e9	0.47400597
26	0x3f49b9c7	0.787991
27	0x3f52b682	0.82309735
28	0x3edcfb9e	0.4316072
29	0x3ee235b5	0.441816
30	0x3f522d45	0.82100326
31	0xbe0c98f2	-0.13730219
32	0x3eab5322	0.33461863
33	0x3ee2d29a	0.443013
34	0x3e6e00c1	0.23242475
35	0x3f1e2f15	0.6179059
36	0x3edb965c	0.42888153
37	0x3d26c205	0.040712375
38	0x3ecad038	0.39611983
39	0x3f0c1650	0.54721546
40	0x3bfd5bac	0.0077318754
41	0x3c47899b	0.012178804
42	0x3e74097c	0.23831743
43	0x3e803da4	0.25047028
44	0x3f5c72ec	0.86112857
45	0x3f1f9be0	0.6234722
46	0x3ed6228d	0.41823235
47	0x3f7ec777	0.9952311
48	0x3f5ff7b4	0.8748734
49	0x3f51ca8e	0.819497
50	0x3f00ea44	0.5035746
51	0x3efaa8cb	0.48956904
52	0x3ed1bf55	0.40966287
53	0x3f84e928	1.0383654
54	0x3ebea4e1	0.37235168
55	0x3ef0d16a	0.4703477
56	0x3f17dec8	0.5932431
57	0x3f291882	0.6605302
58	0x3e4e7fa2	0.20165876
59	0x3f66e45d	0.90192205
60	0x3f3639c6	0.71181905
61	0x3e86ffda	0.26367074
62	0x3dfe584a	0.124191836
63	0x3f77a90f	0.9674234
64	0x3ec6bd2e	0.38816208
65	0x3e90547b	0.28189453
66	0x3f153fc9	0.58300453
67	0x3ea46f0c	0.32115972
68	0x3f19af05	0.60032684
69	0x3f868a0a	1.0510876
70	0x3f5c479e	0.8604678
71	0x3f2a9aa4	0.6664221
72	0x3eef0c13	0.466889
73	0x3f4871ed	0.78298837
74	0x3f945299	1.1587707
75	0x3db25e16	0.08709352
76	0x3e4a8b56	0.19779715
77	0x3efa9174	0.48939097
78	0xbcb8514b	-0.022499701
79	0x3f0669ba	0.52505076
80	0x3f1f6a35	0.62271434
81	0x3f2f7fee	0.6855458
82	0x3f5e2742	0.8677865
83	0x3f243996	0.6415037
84	0x3d11aec3	0.035567056
85	0xbd4f8c22	-0.05067075
86	0x3f27a660	0.65488243
87	0x3e44c9d8	0.19217622
88	0x3db65a77	0.089039735
89	0x3ebc0abd	0.36726943
90	0x3f44ce32	0.7687713
91	0x3f05e9ef	0.5231008
92	0xbe3e763e	-0.18599793
93	0x3f5c6d1d	0.86103994
94	0x3f2b077f	0.66808313
95	0x3f2c51db	0.673124
96	0x3f66f226	0.9021324
97	0x3f186383	0.5952684
98	0x3df0b14f	0.11752569
99	0x3f176ad7	0.591474
100	0x3ecbee40	0.39830208
101	0x3e971cdb	0.29514202
102	0x3f1414a6	0.57844007
103	0x3ea1144a	0.31460792
104	0x3f6a348f	0.9148645
105	0x3e5e93b8	0.21736038
106	0x3f5a3fda	0.8525368
107	0x3d8846ce	0.0665413
108	0x3edf8b03	0.43660745
109	0x3e2fd488	0.17170918
110	0x3f060519	0.5235153
111	0x3f8344a7	1.0255326
112	0x3f1a5229	0.60281616
113	0x3dd426b1	0.10358942
114	0x3db4472a	0.08802636
115	0x3e77121c	0.24128002
116	0x3f18bdd7	0.5966467
117	0x3efbc850	0.49176264
118	0x3f2aebf3	0.6676628
119	0x3e01d0ea	0.1267735
120	0x3f5b3494	0.856271
121	0x3f4c8dcf	0.7990388
122	0x3dae42ae	0.08508812
123	0x3f1a58ca	0.6029173
124	0x3eb1799a	0.34663087
125	0x3ef0b594	0.47013533
126	0xbd09555f	-0.03352868
127	0x3f1e0d37	0.61738914

encoder.dcrnn_cells.0.update.weights_pool f4 [2, 65, 64]
0	0x3e8112f1	0.25209764
1	0xbebd17fe	-0.36932367
2	0x3e6e924e	0.23297998
3	0x3e54cc90	0.2078116
4	0xbe09e350	-0.13465619
5	0xbe1e64e9	-0.15468182
6	0xbe4dce92	-0.20098332
7	0x3e4a5d4a	0.1976215
8	0x3e4409d2	0.19144371
9	0xbe21d45f	-0.1580367
10	0x3e4327a4	0.1905809
11	0x3db90b6f	0.09035384
12	0x3e4bbd16	0.1989635
13	0xbd578ff2	-0.05262751
14	0xbe9eb365	-0.30996242
15	0xbe14cc82	-0.14531139
16	0x3e017381	0.12641717
17	0x3e675a33	0.22593002
18	0x3d620515	0.055180628
19	0x3d527151	0.0513776
20	0xbe8fa2cb	-0.2805389
21	0x3e34e234	0.17664415
22	0x3d9b66ac	0.075879425
23	0x3e7a6b2b	0.24454944
24	0xbe5504c4	-0.20802599
25	0xbe29a7c5	-0.16567905
26	0xbe4c5461	-0.19954063
27	0x3dbb5b4d	0.091482736
28	0x3eadfc43	0.33981523
29	0xbe525a18	-0.2054218
30	0x3e6a8900	0.22903824
31	0xbe373e2b	-0.17894809
32	0x3e947e7a	0.29002744
33	0x3ea6bd16	0.32566136
34	0xbd7a14e6	-0.061055087
35	0x3e3b7818	0.18307531
36	0x3e318a5d	0.17337938
37	0x3e3ca265	0.18421324
38	0xbd88d32e	-0.06680904
39	0xbd1b1253	-0.037859272
40	0x3e7f59a6	0.24936542
41	0x3ddba775	0.10725299
42	0x3e21171c	0.15731472
43	0x3e8a043d	0.2695636
44	0xbde6c02c	-0.112671226
45	0xbe2e71b4	-0.17035562
46	0x3e9a63f0	0.3015437
47	0x3c07e32a	0.008293906
48	0xbeb5cb61	-0.35506728
49	0xbe22894e	-0.1587269
50	0xbe335128	-0.17511427
51	0xbea1a04e	-0.31567615
52	0xbb48596c	-0.0030570878
53	0x3e1ea7df	0.15493725
54	0x3eb046f1	0.34429124
55	0xbee5cc91	-0.44882634
56	0x3e285ece	0.16442415
57	0x3e506366	0.20350417
58	0xbe33456c	-0.17506951
59	0x3da7377e	0.08164881
60	0xbf00de11	-0.50338846
61	0x3e0f8de9	0.14018978
62	0x3e868b25	0.26278034
63	0xbd4a080a	-0.049324073
64	0xbd2015c5	-0.03908326
65	0xbdc582d1	-0.09644092
66	0xbdc40700	-0.09571648
67	0xbd6b475c	-0.0574411
68	0xbd015d62	-0.031583197
69	0x3c04db1e	0.008108882
70	0x3d9ce4cc	0.07660827
71	0x3d994bba	0.07485147
72	0xbd142a4c	-0.03617315
73	0x3d1b6d35	0.037945945
74	0xbdb80697	-0.08985632
75	0x3c267456	0.010159573
76	0xbd73e338	-0.059542865
77	0xbca9f832	-0.020748232
78	0xbdb57117	-0.08859461
79	0x3c9cf5b2	0.019160125
80	0xbd12386b	-0.035698336
81	0xbd9a7788	-0.0754233
82	0xbbaf68dc	-0.0053530764
83	0xbcea35c6	-0.028590094
84	0xbcb383f0	-0.021913499
85	0xbd65d13a	-0.056107737
86	0xbe0621b5	-0.13098796
87	0xbcee6a45	-0.029103408
88	0xbd622e66	-0.05522003
89	0x3ca9c165	0.0207221
90	0xbcb2c794	-0.021823682
91	0xbd75f3e2	-0.060047038
92	0xbd885bb6	-0.066581175
93	0x3d2f3015	0.042770464
94	0xbd29993e	-0.04140591
95	0x3d18d79d	0.037315
96	0xbc9441ba	-0.018097747
97	0xbd33305d	-0.043747295
98	0xb8c8c1cc	-9.572841e-05
99	0xbdec900b	-0.115509115
100	0xbd9d181f	-0.07670616
101	0xbdaa6b84	-0.08321288
102	0x3c7aacb6	0.015299967
103	0xbce6e9c4	-0.02818764
104	0xbdb1e2fc	-0.08685872
105	0xbd88bd00	-0.06676674
106	0xbdcc3ce7	-0.09972554
107	0xbd99ce27	-0.075100236
108	0xbd56c3cf	-0.05243283
109	0x3d3ca51e	0.046055906
110	0xbd7c2f00	-0.06156826
111	0xbd0de08c	-0.034637973
112	0xbda82ff3	-0.082122706
113	0x3dc2846f	0.09497916
114	0xbca42403	-0.020036703
115	0xbd769e5a	-0.06020961
116	0xbc79f905	-0.015257125
117	0xbd28ebd6	-0.041240536
118	0xbd6b6e7e	-0.05747842
119	0xbda4bd16	-0.08043878
120	0xbba5de69	-0.0050619137
121	0xbd7dc812	-0.06195838
122	0xbd9595fd	-0.073039986
123	0xbcc6e6f4	-0.024280049
124	0xbd9b59a5	-0.07585458
125	0xbd58360c	-0.052785918
126	0xbd153489	-0.036427055
127	0xbc9b26fa	-0.018939484
128	0xbe751d5c	-0.23936981
129	0xbd7de8e3	-0.061989676
130	0x3d79576b	0.060874384
131	0x3e2c900d	0.16851826
132	0x3c2a0dc9	0.010379263
133	0xbdd752d4	-0.10513845
134	0xbdaa2194	-0.08307186
135	0xbd2bec3c	-0.041973338
136	0x3ddf6c76	0.10909359
137	0xbe12a0c9	-0.14319147
138	0xbe38d66e	-0.18050548
139	0x3d62f2c0	0.055407286
140	0x3e35ff9e	0.17773291
141	0x3e0fde59	0.14049663
142	0xbd59d237	-0.053178992
143	0xbd5a2c1c	-0.053264722
144	0x3ccead9b	0.025229266
145	0x3e166492	0.14686802
146	0x3c470554	0.012147266
147	0x3d0b708f	0.03404289
148	0xbdd0182f	-0.10160863
149	0x3cdf4756	0.027255695
150	0x3e04a0c1	0.12951948
151	0x3dfa340b	0.12216958
152	0xbdcfb4d0	-0.10141909
153	0xbd9cba21	-0.07652689
154	0xbd0f6a0b	-0.03501324
155	0x3daccafe	0.08437155
156	0x3dc788a6	0.097428605
157	0xbce8c482	-0.028414015
158	0x3d8a19f7	0.06743234
159	0x3d9a3219	0.075290866
160	0xbf180bb5	-0.59392864
161	0x3e043254	0.12909824
162	0xbaa32825	-0.0012447877
163	0x3da68c16	0.08132188
164	0x3de465b4	0.11152211
165	0x3d68830f	0.056765612
166	0x3c24b0e6	0.0100519415
167	0x3e5c554a	0.2151691
168	0x3dd700c4	0.10498193
169	0x3da5a0ae	0.08087288
170	0x3e04bc4b	0.12962453
171	0x3de8afe2	0.11361672
172	0xbc9c83b9	-0.019105779
173	0xbdca9a87	-0.09892755
174	0x3e067825	0.13131769
175	0x3e2bd440	0.16780186
176	0x3e8d98a4	0.27655518
177	0x3c7a4def	0.01527737
178	0xbd57bca4	-0.052670136
179	0xbbd26253	-0.0064204126
180	0xba3fcfcc	-0.0007317036
181	0xbd81b1b6	-0.06332724
182	0x3d3b4075	0.045715768
183	0x3d38bc5e	0.045101516
184	0x3de73255	0.11288897
185	0x3d45ceeb	0.048293035
186	0xbdcb151e	-0.09916137
187	0x3e655358	0.22395074
188	0xbe1900b0	-0.14941669
189	0xbdb1c5bd	-0.08680294
190	0x3db30256	0.0874068
191	0x3e18ad71	0.14909913
192	0x3c352dbf	0.01105827
193	0xbdc2adf2	-0.09505834
194	0xbc18857c	-0.009309169
195	0x3df481bc	0.11938807
196	0xbdf1319f	-0.117770426
197	0x3d74ff7d	0.059813965
198	0xbd851145	-0.064974345
199	0x3d89fd04	0.06737712
200	0x3e173f49	0.14770235
201	0xbdb03172	-0.08603181
202	0x3e00792a	0.1254622
203	0x3d548fd3	0.051894974
204	0xbca7a4fd	-0.020464415
205	0xbd41db2e	-0.047328167
206	0x3e22f8b8	0.15915191
207	0x3d8ade24	0.06780651
208	0xbd81eb63	-0.063437246
209	0x3e0eebc5	0.13957126
210	0x3e401fa4	0.1876207
211	0xbbc4bb81	-0.0060037975
212	0xbd5972fb	-0.05308817
213	0xbd1b1313	-0.037859987
214	0x3d74782a	0.05968491
215	0xbc317cf2	-0.010833012
216	0x3cda2a40	0.026631474
217	0x3d5043a8	0.050845772
218	0xbb78fd67	-0.0037992836
219	0xbd08a437	-0.033359732
220	0x3db9f198	0.090792835
221	0x3d8104c5	0.06299738
222	0x3d378f62	0.044814475
223	0xbdc6c635	-0.09705774
224	0xbd9572e4	-0.07297304
225	0x3e787ae1	0.24265625
226	0xbdfbcd4c	-0.12295017
227	0x3d58d931	0.052941505
228	0x3de4e039	0.111755796
229	0xbb2e4eb2	-0.00265972
230	0x3dd7c062	0.10534741
231	0xbc93916a	-0.018013675
232	0x3cedc757	0.029025717
233	0x3d78756e	0.060658865
234	0x3cbf303d	0.023338431
235	0x3dc12f52	0.09432854
236	0xbe073238	-0.1320275
237	0x3d2ac96c	0.041695997
238	0x3e51c61e	0.20485732
239	0xbd26a801	-0.040687565
240	0x3b22ccf5	0.0024841402
241	0x3db1f08e	0.0868846
242	0x3d88f63f	0.06687593
243	0xbe1ab976	-0.1510981
244	0x3b76193b	0.003755166
245	0x3df5dc05	0.12004856
246	0x3cffea7f	0.031239746
247	0x3d6d1343	0.057879698
248	0x3e1b711b	0.15179865
249	0x3e33c10a	0.17554107
250	0xbdad51c7	-0.084628634
251	0x3b3be8cb	0.002867269
252	0xbe1a7373	-0.15083103
253	0x3d509dca	0.05093173
254	0x3d49d1be	0.04927229
255	0x3d899125	0.06717137

encoder.dcrnn_cells.0.update.bias_pool f4 [2, 64]
0	0x3db703d2	0.089362755
1	0xbdc10d06	-0.09426312
2	0x3e5367b0	0.20645022
3	0x3e933460	0.28750896
4	0x3e258301	0.16163255
5	0x3e112e74	0.14177877
6	0xbd777e20	-0.060423017
7	0x3dbdfd46	0.09276824
8	0xbdb8ea7e	-0.09029101
9	0xbe7dd085	-0.24786575
10	0xbe2b55eb	-0.16731994
11	0x3d861bcc	0.065482706
12	0xbe561adf	-0.20908688
13	0x3a39b44a	0.0007084055
14	0x3d799309	0.06093124
15	0xbe61b101	-0.22040178
16	0x3e2258d0	0.15854192
17	0x3e0c9a37	0.13730703
18	0x3e656420	0.22401476
19	0xbe5f2c04	-0.21794134
20	0xbe1643a7	-0.14674245
21	0xbe148d27	-0.1450697
22	0xbd689016	-0.056778036
23	0x3e816bde	0.2527761
24	0x3c451149	0.012028047
25	0x3e8f2f74	0.2796589
26	0xbeb28849	-0.34869602
27	0x3e5bea0c	0.21476
28	0xbeba3e73	-0.3637577
29	0x3e67ff4f	0.22655986
30	0xbe9867fe	-0.2976684
31	0xbe6e1ead	-0.2325389
32	0xbecec562	-0.40384966
33	0xbdfe25f1	-0.124095805
34	0xbe8cc381	-0.27492908
35	0x3e0593b3	0.13044624
36	0x3e8a2393	0.26980266
37	0xbe90472c	-0.281793
38	0x3e564982	0.20926479
39	0xbe25aab4	-0.161784
40	0x3e475239	0.19464959
41	0xbdf4dbe7	-0.119560055
42	0xbd933cd3	-0.07189336
43	0xbe0cf459	-0.13765086
44	0x3ddb9cb8	0.10723251
45	0xbe79a07a	-0.24377623
46	0xbce479b4	-0.027890064
47	0x3dcce4c5	0.10004572
48	0xbbe93623	-0.0071170493
49	0xbe94d5b8	-0.29069304
50	0x3d58e80f	0.052955683
51	0xbcbd11d6	-0.023079794
52	0xbe70b18f	-0.23505233
53	0xbdd9fd91	-0.10644067
54	0x3e48b89a	0.1960167
55	0xbe80aee3	-0.25133428
56	0x3ea70039	0.32617357
57	0xbe019b2c	-0.1265685
58	0xba7e04ad	-0.0009690028
59	0x3dae7357	0.08518093
60	0xbea19e9b	-0.3156632
61	0xbe81244c	-0.25223005
62	0x3e1bf11c	0.15228695
63	0xbd8ef19d	-0.06979678
64	0x3e0571f0	0.13031745
65	0xbc06277f	-0.008188128
66	0xbea6d4a9	-0.32584122
67	0x3dee0fc2	0.11624099
68	0x3e8f7e65	0.2802612
69	0x3d68671d	0.05673896
70	0xbe10133e	-0.1406984
71	0x3e93c741	0.28862956
72	0xbe674449	-0.22584642
73	0x3e81d6ad	0.25359097
74	0x3e4df9d3	0.20114832
75	0x3cc72d7f	0.024313686
76	0xbdbdc6ac	-0.09266409
77	0xbe0df82e	-0.13864204
78	0xbdd6f5b4	-0.10496083
79	0xbe5e9c54	-0.21739322
80	0xbe509632	-0.20369795
81	0xbe59a46f	-0.21254133
82	0xbdf8e026	-0.12152128
83	0xbe89bada	-0.2690037
84	0xbe406833	-0.18789749
85	0xbe344892	-0.17605808
86	0x3d5caced	0.053875852
87	0xbe0f15fb	-0.13973229
88	0xbd51135d	-0.051043857
89	0xbe251d63	-0.16124491
90	0x3e164aad	0.14676924
91	0xbdf1bd2b	-0.11803659
92	0x3e3bf657	0.1835569
93	0xbdb21f50	-0.08697379
94	0x3e753276	0.2394503
95	0xbe526444	-0.20546061
96	0xbcc9ff3d	-0.02465784
97	0x3e1d0e2a	0.15337434
98	0x3eab6f65	0.33483425
99	0xbe0d8656	-0.13820776
100	0xbd35e2ef	-0.044405874
101	0xbd625328	-0.055255085
102	0x3de0f866	0.10984878
103	0x3e799eec	0.2437703
104	0x3e30b7f3	0.17257671
105	0x3cf9042b	0.030397495
106	0x3e222d41	0.15837575
107	0x3d0cff82	0.03442336
108	0x3dffbecb	0.12487563
109	0xbc82e383	-0.015977627
110	0xbe09bedf	-0.13451718
111	0xbeab919d	-0.33509532
112	0xbe046bbc	-0.12931722
113	0xbe1bc22a	-0.15210786
114	0x3e32950d	0.17439671
115	0x3e8ce89d	0.2752122
116	0x3e82ff57	0.25585434
117	0x3ea01987	0.31269476
118	0x3e1f7a24	0.15573937
119	0x3eabccdd	0.33554736
120	0x3e281322	0.16413549
121	0x3e7b0312	0.2451289
122	0x3e895ad3	0.26827106
123	0xbd733ccb	-0.05938415
124	0xbd38206e	-0.044952802
125	0x3e6248b3	0.22098045
126	0x3e81832d	0.25295392
127	0x3e442fde	0.19158885

encoder.dcrnn_cells.0.update.linear.weight f4 [64, 65]
0	0x3e24d950	0.16098523
1	0x3d59da1b	0.053186517
2	0xbd94fcde	-0.07274793
3	0xbd9f0833	-0.07765236
4	0x3d092a0c	0.033487365
5	0xbe2601aa	-0.16211572
6	0x3cae4dbc	0.021277301
7	0xbe29f5e5	-0.16597708
8	0xbe4afc4c	-0.19822806
9	0xbd063a8c	-0.03277068
10	0xbea13027	-0.3148205
11	0xbc389151	-0.011265115
12	0xbde9b0b3	-0.11410656
13	0x3e2c7858	0.16842782
14	0x3da659db	0.08122607
15	0x3ca7dbba	0.020490516
16	0x3d511154	0.051041916
17	0x3de5600d	0.11199961
18	0xbb4322fb	-0.0029775489
19	0x3dfc928f	0.12332641
20	0x3dbb126f	0.09134375
21	0xbe56eb65	-0.20988233
22	0x3e0de6cb	0.13857572
23	0xbe3f8e26	-0.18706569
24	0x3dd17299	0.10226936
25	0xbe9d7291	-0.3075147
26	0xbe1af897	-0.15133892
27	0xbd0f9c67	-0.035061266
28	0x3d42345d	0.04741322
29	0x3df3f69d	0.11912272
30	0x3ce2c2d3	0.02768079
31	0xbcecf935	-0.028927425
32	0x3e3566f1	0.1771505
33	0xbe3b5d49	-0.18297304
34	0xbdedf93e	-0.11619805
35	0xbc579dab	-0.01316015
36	0x3e0c1746	0.13680753
37	0x3d3d4385	0.04620697
38	0x3e6c0ab6	0.23050961
39	0x3df0fe8c	0.11767301
40	0x3b8ef4d0	0.00436268
41	0xbddd4bd0	-0.10805476
42	0x3e7b5ee0	0.2454791
43	0xbe8278fa	-0.25482923
44	0xbe7259cf	-0.23667072
45	0xbdf6eca3	-0.120568536
46	0x3e138cfe	0.14409253
47	0x3e275496	0.1634086
48	0x3dc38c16	0.09548204
49	0xbd7be799	-0.061500166
50	0xbd2f7ac7	-0.0428417
51	0xbea931d8	-0.3304584
52	0x3d99a849	0.07502801
53	0xbd2dea4b	-0.042459767
54	0x3cfceae3	0.030873721
55	0xbdfd84e6	-0.12378864
56	0xbe721184	-0.23639494
57	0xbd8ca11e	-0.06866668
58	0x3e53216b	0.20618217
59	0xbe805aac	-0.25069177
60	0xbdb57e1f	-0.08861946
61	0xbe84184e	-0.25799793
62	0x3e1c4224	0.15259606
63	0x3d5b5aa1	0.053553227
64	0xbe2db1ae	-0.1696231
65	0xbe8dd8b0	-0.27704382
66	0xbe5ae842	-0.21377662
67	0xbe2d7154	-0.16937762
68	0x3e2c42bc	0.16822332
69	0xbc1fe74c	-0.009759735
70	0xbdd8e588	-0.105906546
71	0xbd755dbe	-0.059903853
72	0xbc84319b	-0.016136935
73	0xbead49e6	-0.33845443
74	0x3da68be9	0.081321545
75	0xbdc289f4	-0.09498969
76	0x3e09b45f	0.13447712
77	0xbe3031cf	-0.172065
78	0x3e1bb88d	0.1520712
79	0x3ce320aa	0.027725536
80	0xbe49817d	-0.19678302
81	0x3cab7330	0.02092895
82	0x3e006eb0	0.12542224
83	0xb8462085	-4.7237165e-05
84	0x3c91a58f	0.01777914
85	0x3e9f0d15	0.31064668
86	0x3e100598	0.14064634
87	0xbd9ff3d5	-0.07810179
88	0xbe4f5f0d	-0.20251103
89	0xbe196d87	-0.14983188
90	0xbd74bb31	-0.059748832
91	0x3e1cb254	0.15302402
92	0xbd581c6e	-0.052761488
93	0xbd584ca1	-0.052807454
94	0x3d301668	0.04299012
95	0x3c4281c0	0.011871755
96	0x3da0521e	0.078281626
97	0x3e37adc7	0.17937385
98	0xbde54a6a	-0.11195834
99	0x3d95d507	0.07316022
100	0xbdbab666	-0.09116821
101	0x3b3518e9	0.0027633256
102	0xbe45ec18	-0.19328344
103	0x3db379bf	0.087634556
104	0xbdc97d9a	-0.0983841
105	0xbe2e5e25	-0.17028101
106	0xbbe52a16	-0.0069935424
107	0x3e0f451b	0.13991205
108	0x3e2c5881	0.16830637
109	0x3a51b364	0.00079994486
110	0xbe888f54	-0.2667185
111	0x3df9fa40	0.122059345
112	0x3e11ed93	0.14250784
113	0x3dc5d41b	0.096595965
114	0xbe054269	-0.13013615
115	0xbe287e18	-0.16454351
116	0x3d5ae6b5	0.053442676
117	0xbe97192f	-0.295114
118	0xbe5fc85b	-0.21853773
119	0x3e11f96f	0.14255308
120	0x3dda15d8	0.106486976
121	0xbe38d77b	-0.1805095
122	0x3d75bf00	0.059996605
123	0x3c8deab2	0.017323826
124	0x3d4b22bd	0.049593676
125	0xbe6957da	-0.22787419
126	0xbe1b676b	-0.1517617
127	0x3e2586b7	0.16164671
128	0x3ddb44f1	0.10706509
129	0x3dbdfd64	0.09276846
130	0x3e048b3c	0.12943739
131	0xbe803dad	-0.25047055
132	0xbdc8ced0	-0.09805071
133	0xbe806321	-0.2507563
134	0x3da7aebd	0.081876256
135	0x3db29833	0.08720436
136	0x3d3386a0	0.04382956
137	0xbb9d13ab	-0.0047936044
138	0xbe494be8	-0.19657862
139	0x3e5e34dd	0.21699853
140	0x3d6e2686	0.058142208
141	0xbe38a733	-0.18032531
142	0xbde62c38	-0.11238903
143	0xbd781d0d	-0.06057458
144	0x3d1bdc1e	0.038051717
145	0xbe503824	-0.20333916
146	0xbe663c29	-0.22483887
147	0x3da222d9	0.07916803
148	0x3e65e3cf	0.22450183
149	0x3e3e929d	0.18610616
150	0x3db3f7ab	0.08787473
151	0xbab14a0d	-0.0013526097
152	0xbd720c3e	-0.059093706
153	0x3d6187ba	0.05506108
154	0x3d4015b6	0.046895705
155	0xbe7fd1d7	-0.24982391
156	0xbca629e2	-0.020283643
157	0xbd94f2e0	-0.07272887
158	0xbe23d58a	-0.15999427
159	0xbe1d0c7b	-0.15336792
160	0xbe4d4088	-0.20044148
161	0x3e3605ae	0.17775604
162	0x3e382515	0.17982896
163	0xbd166e44	-0.03672625
164	0xbb10dbb1	-0.0022103603
165	0x3e372931	0.17886807
166	0x3e472ebe	0.19451424
167	0x3e17000f	0.14746116
168	0x3d876366	0.066107556
169	0xbd0428be	-0.032265417
170	0xbdca81b0	-0.09888017
171	0x3cd158a0	0.025554955
172	0x3da67c66	0.08129196
173	0xbe48c2c7	-0.19605552
174	0x3dc51028	0.09622222
175	0xbe8f8f93	-0.28039226
176	0x3d64ac52	0.0558284
177	0x3e1aa311	0.15101267
178	0xbdbff842	-0.09373523
179	0xbdcb326f	-0.09921729
180	0xbe7a0eeb	-0.24419753
181	0xbd8dd666	-0.06925659
182	0xbd11c477	-0.035587754
183	0x3d3354ef	0.04378217
184	0x3da734f7	0.08164399
185	0x3dd0198f	0.10161125
186	0xbdcfae08	-0.10140616
187	0x3e6f3b67	0.23362504
188	0xbe1a8cc0	-0.15092754
189	0xbe3e4ee1	-0.18584777
190	0x3c8f12e4	0.017465062
191	0xbe316e29	-0.17327179
192	0xbc1814b0	-0.009282276
193	0xbe13facf	-0.14451145
194	0xbe5f3650	-0.21798062
195	0x3ec06229	0.3757489
196	0x3d85e553	0.06537881
197	0xbda0eb79	-0.07857413
198	0xbd4d6a16	-0.05015
199	0xbc825b6e	-0.015912738
200	0x3e3dfb59	0.18552913
201	0xbe2292a0	-0.15876245
202	0x3d6da32e	0.05801695
203	0x3e6282b6	0.22120175
204	0x3e2ba1ee	0.1676099
205	0xbe7a4685	-0.24440964
206	0x3b67c5c9	0.0035365692
207	0xbdc4db66	-0.096121594
208	0x3df63e0e	0.12023555
209	0x3cbcbb96	0.023038667
210	0x3da6acf8	0.0813846
211	0xbd680c0f	-0.056652125
212	0x3d89ba26	0.06724958
213	0x3d98eca1	0.074670084
214	0x3d09a778	0.033606976
215	0x3e805261	0.2506285
216	0xbcd5ff01	-0.026122572
217	0xbe3c6754	-0.18398792
218	0x3d2ead97	0.042646017
219	0xbc8f06ce	-0.0174593
220	0x3e14e6be	0.14541146
221	0x3d52d7f2	0.051475473
222	0xbe34f558	-0.17671716
223	0xbd59e854	-0.05320008
224	0xbe38df06	-0.18053827
225	0xbe5f3c2a	-0.21800295
226	0x3e0ca888	0.13736165
227	0xbde0f4b8	-0.109841764
228	0x3e270682	0.16311076
229	0x3e410077	0.18847834
230	0xbdd2c376	-0.102911875
231	0x3d803066	0.06259231
232	0x3e4108e5	0.18851049
233	0x3e58da76	0.21177086
234	0x3df77880	0.120835304
235	0x3e79194c	0.24326056
236	0x3e263789	0.16232122
237	0x3e3c5b02	0.18394092
238	0x3e4acb76	0.19804177
239	0xbd8501a5	-0.06494454
240	0x3e4a4711	0.19753672
241	0xbe344b54	-0.1760686
242	0xbd805606	-0.06266408
243	0xbd0ad947	-0.033898618
244	0x3e43b574	0.19112188
245	0xbd09396b	-0.033502024
246	0xbdaa1680	-0.08305073
247	0xbe0a040b	-0.13478105
248	0xbd97c8cd	-0.074113466
249	0xbe371fa6	-0.17883167
250	0xbdfe71f1	-0.12424076
251	0x3e2df9fd	0.16989894
252	0x3e98e79e	0.2986421
253	0xbe5589b5	-0.20853312
254	0x3e0aeb2d	0.13566275
255	0x3b48c232	0.0030633328

encoder.dcrnn_cells.0.update.linear.bias f4 [64]
0	0x3eefeba8	0.4685948
1	0x3ebd9276	0.37025803
2	0x3f0da4ee	0.5532979
3	0x3f3d460f	0.73935026
4	0x3f10c120	0.56544685
5	0x3dc53789	0.09629733
6	0x3cb4eea2	0.022086445
7	0x3f0f60d1	0.56007105
8	0x3e722563	0.23647074
9	0x3e533c7b	0.2062854
10	0x3ee30877	0.44342396
11	0x3f1d913a	0.61549723
12	0x3f3fd9ac	0.74941516
13	0x3eee701e	0.46569914
14	0x3f69ec44	0.9137614
15	0x3f27c244	0.655308
16	0x3db30626	0.08741407
17	0x3e65f3b1	0.22456242
18	0x3e763e01	0.2404709
19	0x3e582ae6	0.21110114
20	0x3f59abe1	0.8502789
21	0x3f0365bb	0.51327103
22	0x3ebee5a9	0.37284592
23	0x3f572114	0.8403485
24	0x3ec05bd6	0.37570065
25	0x3d985ca1	0.074395426
26	0x3f04d2b9	0.5188404
27	0x3e8b6a20	0.27229404
28	0x3f479f0d	0.7797707
29	0x3d83b5f0	0.06431186
30	0x3efe8529	0.49710968
31	0x3e11e3ab	0.14247005
32	0x3e8bdfc6	0.27319163
33	0x3e88451e	0.26615232
34	0x3e780d46	0.24223813
35	0x3ea10d63	0.31455526
36	0x3f0d66f6	0.5523523
37	0x3ece2350	0.40261316
38	0x3ead1f13	0.3381277
39	0x3f185ab4	0.595134
40	0x3f4031f6	0.75076234
41	0x3eaed704	0.3414842
42	0x3f3ea0ae	0.7446393
43	0x3f0813be	0.53155124
44	0x3f4042f2	0.7510215
45	0x3ddebaee	0.10875498
46	0x3f6e0251	0.92972285
47	0x3f148c84	0.5802691
48	0x3dfccfb7	0.12344306
49	0x3f329ea2	0.69773304
50	0x3f6bdfe1	0.9213849
51	0x3ed26591	0.41093114
52	0x3eba59d3	0.36396655
53	0x3f5c08a5	0.8595069
54	0x3f185216	0.59500253
55	0x3f4c5ae7	0.79826206
56	0x3ea20e8c	0.31651723
57	0x3ecc4147	0.39893553
58	0x3e2c2c9c	0.16813892
59	0x3f5f4498	0.8721404
60	0x3e8f4408	0.2798159
61	0x3e7bd5a8	0.24593222
62	0x3f34a80f	0.7056894
63	0x3f5c6b59	0.861013
