mo/TARGCN/model/model_para/PEMSD8/epoch_14.pth (torch, 598407 bytes, 48 tensors)

node_embeddings f4 [170, 2]
00000000: 4790 473d c187 8abe 60a6 123e c4fa 54be
00000010: 2a27 203e 46eb c7bd 0adf 0c3d fdca 99be
00000020: 7be0 ec3d bbd9 8abe 943d 143d 9804 88be
00000030: c1d1 103e b597 51be b667 293e c40e 36bd
00000040: e615 623e f217 023d 23e5 0d3e 0556 c9be
00000050: 5417 a73c 6fa6 acbe 4148 393e 128c 8abd
00000060: 10ee 7b3e 0538 cfbd 7033 783e 5261 2dbe
00000070: d3aa 473e 4276 59be f7d6 11bb 5943 8abe
00000080: 31a4 983e 98d7 a43d 2064 4c3d f3a6 85be
00000090: d37f 7b3e b7d5 f7bd e272 03bc 4dd5 8fbe
000000a0: 1ffd 793e d307 bebd d61c 343e e356 a2bd
000000b0: cb30 0b3e 3b16 82be e279 343e c64e 06be
000000c0: e19a a93e 3818 213e b486 c93d 75d4 3fbe
000000d0: 1a88 ea3d 3ced 30be 5498 d23d 2746 4dbe
000000e0: c980 533d 59d5 87be a15b b13d 4a7a 06be
000000f0: 60ea bd3d 628f fabd 111d 0a3e d934 a1bd
00000100: d4b5 7b3e c386 8abc a346 403e 98f5 81be
00000110: 6f6a 603e 784e 013d e0b7 f8bd efee c2be
00000120: 51e8 283e f5ff 00be 5abe 0d3e ca07 33bd
00000130: 8587 383e 4449 c4bd c56a 613e 119b f5bd
00000140: 44c2 593d 3977 2abe 6d3c 323e b7cd 40be
00000150: ff4d 773e 5d7b afbc 21e8 e43d df8a 5ebe
00000160: 10f4 593e feab 5cbd bd9a a93d 8708 6dbe
00000170: 5398 a2bd b1f2 c7be d94c 083e e269 18be
00000180: 2dbb 9f3c 5264 bfbe ffce 213e 5537 9abc
00000190: 8a83 723e 6294 eabc 6576 723e 0023 eabc
000001a0: 6061 68bd a282 edbe 4464 9a3c f856 8dbe
000001b0: de6b 4a3e fcaf 89bd 61c9 693e 8bd9 f7bd
000001c0: 6631 753e 1bf0 7fbd b340 893e 5b31 babc
000001d0: fb97 043e 0ad5 62bd fc51 cd3d 2d18 c2bd
000001e0: dd47 0f3a 7bd4 6cbe 3852 9f3c d167 bfbe
000001f0: b83f 5f3d 6743 53be 4d4a 5ebe 607d 02bf
00000200: 6f6d 463d 05ea 96be 94a6 bf3d 42d5 ecbd
00000210: 5d23 a23d c3f3 03be fe3e cf3d 3016 b1bd
00000220: 3f50 143e 143e a4bb fd60 333e 8189 bcbd
00000230: ded5 873d f0c6 86be 3b42 1ebe 16bd aebe
00000240: 17e6 ab3d 71f5 e3bd 64c7 693e 76dc f7bd
00000250: 2977 723e 9d01 eabc f281 723e 392a eabc
00000260: 11aa 983d ac53 1dbe 3edf 43bd 1602 80be
00000270: a634 133d c900 4cbe b816 c53d 1826 393b
00000280: 7ddf 9f3c 6166 bfbe 46c8 693e d0da f7bd
00000290: 3cc3 5c3c 9112 82be c8d0 693e ece1 f7bd
000002a0: 53d9 693e a2e2 f7bd d693 753e cf14 d63b
000002b0: 0906 6b3b d5de 67be fe71 843a 0900 26be
000002c0: 9f3b 193d 4a25 29be 15b7 843e 35be 3c39
000002d0: 7b75 723e 3ce8 e9bc 3b72 723e 3cfc e9bc
000002e0: c07f da3d f358 67be 88cd 043e c578 2dbe
000002f0: 9360 6b3e 83e3 14bc ca6f 433e 346d 05bd
00000300: 766a a43c f6d5 41be 7737 833e f88d e8bc
00000310: fc4f 8a3d efb1 31be 2c3f 2fbc 2895 61be
00000320: 89a2 f73d 4951 5cbd 1888 883e cfd6 20bd
00000330: 725b a73e 36c5 293e 2206 a93e 5afb 1e3e
00000340: eb91 563e 4f81 6abd f2dd 123e 43fa 5a39
00000350: 10ec 613d 2034 43be b778 d03d a143 adbd
00000360: dc29 0e3e a4ed 5cbe 72a6 5e3d 523b 53be
00000370: 7c76 a5bc 6362 78be 3599 b13d a291 59be
00000380: fe8f 533e 4603 c63c 8946 583e 025d 683d
00000390: a3fa e93d 912c ec3c 7177 723e e23b eabc
000003a0: 5f23 4f3e 454f 52bc b481 8b3c 00f9 5cbe
000003b0: 2752 6a3d 8448 01be aa1f 4b3e d94c a6bd
000003c0: 532f 4d3e 470f 72bd ec32 9f3c 026c bfbe
000003d0: e674 9f3c 9b68 bfbe c189 9f3c e466 bfbe
000003e0: 0bab 653e 37a8 08be 4165 453d deb4 a4be
000003f0: 5e19 0a3d ab16 a7be 6247 2f3d 7e0d 94be
0.048721578 -0.27056697 0.1432128 -0.20798784 0.1563994 -0.09761672 0.034392394 -0.3003768
0.11566254 -0.2711924 0.036191538 -0.26566005 0.14142515 -0.20468028 0.16543469 -0.044447675
0.22078666 0.031761117 0.1385694 -0.3932344 0.020396866 -0.3372073 0.18093969 -0.067649975
0.24602532 -0.10118107 0.24238372 -0.16931656 0.19498758 -0.21236518 -0.0022253373 -0.27004507
0.29812768 0.08048934 0.049900174 -0.26103935 0.2456048 -0.1210131 -0.008022996 -0.28092423
0.24412964 -0.09278836 0.17589125 -0.079267286 0.13592832 -0.25407586 0.1762462 -0.13115987
0.33125976 0.15731895 0.09840146 -0.1873339 0.114517406 -0.17277998 0.102829605 -0.20046292
0.05163649 -0.2652996 0.08660055 -0.13132587 0.09273219 -0.12234379 0.1348765 -0.07871408
0.2458108 -0.016909963 0.18776946 -0.25382686 0.21915601 0.031568974 -0.121444464 -0.38072917
0.16494872 -0.1259764 0.13842145 -0.0437086 0.18020447 -0.09584287 0.22013386 -0.11992467
0.05316378 -0.16647042 0.17405863 -0.18828474 0.24150847 -0.021421129 0.111770876 -0.21732663
0.21284509 -0.053874962 0.08281467 -0.23147784 -0.0793921 -0.39052346 0.13310565 -0.14884141
0.019498432 -0.37381226 0.15801619 -0.018825212 0.2368299 -0.028635208 0.23677976 -0.028581142
-0.05673349 -0.46388727 0.018846639 -0.27605414 0.1976771 -0.067230195 0.22830726 -0.1210204
0.23944625 -0.06248484 0.26807174 -0.022728613 0.12948601 -0.05537895 0.10025403 -0.094772674
0.00054657256 -0.2312793 0.019448385 -0.37383893 0.054504126 -0.2063118 -0.21708031 -0.5097256
0.048444208 -0.29475418 0.09357944 -0.11564113 0.07916901 -0.12885956 0.10119437 -0.0864681
0.14483736 -0.005012283 0.17517467 -0.09205914 0.06632589 -0.26323652 -0.15454952 -0.34128636
0.083934955 -0.111307986 0.22829968 -0.121025965 0.23678268 -0.028565222 0.23682383 -0.028584586
0.074543126 -0.1536395 -0.047820322 -0.2500159 0.03593888 -0.19922175 0.09623474 0.0028251465
0.019515747 -0.37382796 0.22830305 -0.12102282 0.013474282 -0.2540479 0.2283355 -0.12103638
0.22836809 -0.12103774 0.23982176 0.0065332423 0.0035861752 -0.22643597 0.0010104773 -0.16210951
0.037410375 -0.16518131 0.2592093 0.00017999935 0.23677628 -0.02855312 0.23676388 -0.028562658
0.10668898 -0.22592525 0.12969029 -0.16940601 0.22986059 -0.009087446 0.19085613 -0.032574847
0.020070296 -0.18929276 0.25628254 -0.028388008 0.06753537 -0.17353033 -0.010696214 -0.22029555
0.12091548 -0.053788457 0.2666633 -0.039267357 0.32686955 0.16579136 0.3301249 0.1552557
0.20954101 -0.057252225 0.14342478 0.0002088333 0.055156767 -0.19062853 0.101792745 -0.08460165
0.13883156 -0.21575028 0.054357953 -0.20628098 -0.0201981 -0.24256282 0.086718 -0.21246961
0.20660397 0.024171483 0.21120657 0.056729324 0.11424758 0.028829845 0.23678376 -0.028593007
0.20228337 -0.012836282 0.01702962 -0.21579361 0.057207253 -0.12625319 0.19836298 -0.08120126
0.20037584 -0.0590966 0.019433461 -0.3738709 0.019464921 -0.37384495 0.019474866 -0.37383187
0.22428529 -0.13345419 0.048192266 -0.3216924 0.0337156 -0.32634482 0.042792685 -0.28916544

encoder.dcrnn_cells.0.gate.weights_pool f4 [2, 65, 128]
00000000: 1d95 93be 04bc 29be 9d26 833e 3b33 da3d
00000010: b576 d63d 2463 9fbc 3a74 323e b640 2ebf
00000020: 2447 883d f705 513d 02d7 a6bd dc30 b9be
00000030: 88ac 473e 117e 9dbd 1e83 903e 7b8d 11bd
00000040: f8a2 64bc 2a7d 833d 807c 973d a297 ee3c
00000050: ebbd 9e3d 7303 42be 8218 95bd e887 0bbe
00000060: 3958 043d 282f 20bd e0d0 a23d 3e71 a83d
00000070: 8860 e6be 45a5 49bd 03ca fbbd 56d7 90be
00000080: 8089 9ebe 2c12 9abd a193 21bd 573f 283e
00000090: f580 ab3d 4495 bfbd e6de 3b3c bb29 513e
000000a0: aa4a 2fbe 3734 54ba d66d bb3e bcab f9bd
000000b0: 7773 d23d a167 863d 721e ab3d bf1f a0bd
000000c0: 96cc acbd 72e0 f2bc c9db 253e 4230 cf3d
000000d0: dcaf b7bd a4ca 5ebe fa67 05bd d064 0bbd
000000e0: 48b3 6fbc ff94 46bd 58b9 acbd 36fb 1cbe
000000f0: 01e8 5e3e 886b a2bc 577c 36be 470a d7bd
00000100: 4c44 0fbe 0e2e 833d abd7 3ebe 6a49 aebe
00000110: 2497 8f3e bf12 56be 9f2f adbe f34c aa3e
00000120: 3387 04be f1d9 aebe 4c7a 5ebd a44c 23be
00000130: 45d8 20be 6185 db3d 1677 f2bc 0ad3 91be
00000140: effe 08be 593f 11be 74d0 5cbe dbbd a8be
00000150: c038 bc3d 91da 003e 074d 2d3e 8fa9 f7bc
00000160: 4dcf ffbc d552 83be 3399 04be 7892 39be
00000170: 07cc 043f 13e0 bdbe 837e 543e 409c 15be
00000180: 81f1 b7bd 988c 83bc fea0 e93d 7954 a7be
00000190: 1c21 203d 177d 85be 89e4 4cbe cf37 e73c
000001a0: ca89 0bbe dde4 ccbe 9312 5cbe c761 563e
000001b0: ec67 223e 4295 9abe 06ea 97be d763 5c3e
000001c0: a153 413e 5819 97bd 74f5 10be a675 363e
000001d0: 294a 6f3e b13b 10bd c9b7 74be cec9 ba3d
000001e0: f599 14bc 25b9 23bd 1321 673e e073 243e
000001f0: a968 513e a9e8 cdbd d25c 993e dc28 853e
00000200: 9b65 313e 4a5c a7be ebee 393d d559 c8be
00000210: 300e 63bd 8a1f 1a3d 512a 15bd b7b1 963c
00000220: fc90 fabd f198 d9bc d8fa 34bd 65a2 bebe
00000230: 597e 8dbe 3d36 1e3e a6d9 a5be c9ff 843d
00000240: b8c2 d5bb bff7 95be 60cd f3bd cfcc 42bd
00000250: 2ab5 8ebe 86a8 8a3d e03d 41bd 7cca 4cbe
00000260: 5d9b 2dbe dcda 54bc 935b 0abd 2e62 b9bb
00000270: 868b 9fbd 7866 d8bd d9de 34be cf25 093d
00000280: 5cf2 353d a4f6 92be 4167 7b3e ec01 4cbe
00000290: 502c 30be da89 cabd 087e 963c 4bb5 4f3d
000002a0: b98d abbe c1c4 b4bd 6df1 ac3d 9dc8 dcbe
000002b0: 26e5 5abd 98ec 273d 6ff3 cfbe 2ad4 d53d
000002c0: a693 5bbb ffb1 7e3d b6c0 223d 3b61 fbbc
000002d0: f340 c93d b635 c63d 1640 e8bd 6555 98be
000002e0: 59e0 1abe 2090 0cbe 1cf2 cdbd 6d4a 943d
000002f0: 44ae 91be 4125 283d ac5d 7dbe ed36 df3d
00000300: ac75 d73c b44f 9d3d a328 a7bc c69e c6bd
00000310: c1ae 0bbe 7f50 d03d 110f 3ebc 4fe5 b3bc
00000320: d361 143e 9e5b f6bc 9152 003e 6826 9dbb
00000330: 820b 09be e820 09bd 8d1d b13d a538 923d
00000340: 2256 f93d 61cc c9bd 54cf 063e 8d78 9d3d
00000350: 39f0 983d c11f 8dbc 3731 6dbd b6be 86be
00000360: 10d0 6f3d 1c10 4c3d c301 123e 9f22 d53d
00000370: d376 173d cacd ef3d c213 68bd ccd9 99bd
00000380: a41c 2ebc ef2a 8c3d 8d03 aabd cf51 a2bd
00000390: 13df b43c c897 ef3d 2b17 b03d 84f5 adbb
000003a0: 7a73 1cbe 701e 0dbd b959 26be be68 7f3d
000003b0: 358a 14bd b7fb d03c eee3 5dbd deaf 053d
000003c0: 9f9f 043d 36c5 23bd 4d16 0ebd cb36 39bd
000003d0: 9aad 8b3c df04 fcbd 31c9 ccbd a917 223d
000003e0: b7cf 943d fa97 813d cb27 7ebb 7890 d8bb
000003f0: e6c8 b13d 3de0 c63c 9719 ef3c 4aa4 ffbb
-0.28824702 -0.16575629 0.25615397 0.10654303 0.1047186 -0.019456454 0.1742715 -0.6806749
0.06654194 0.05103108 -0.08146478 -0.3617009 0.19499409 -0.07690061 0.28225034 -0.035535317
-0.01395487 0.064203575 0.07396793 0.029125039 0.07751068 -0.18946628 -0.07280065 -0.13626063
0.0323107 -0.03910747 0.07949996 0.08224724 -0.44995522 -0.04922988 -0.1229439 -0.28289288
-0.3096428 -0.07522997 -0.03944743 0.16430412 0.08374206 -0.09354642 0.011466717 0.20426075
-0.17118326 -0.0008094939 0.36607236 -0.12190959 0.102759294 0.065627344 0.08355416 -0.07818555
-0.08437459 -0.02964804 0.16197123 0.10116626 -0.089690894 -0.21756989 -0.032569863 -0.03403169
-0.014630146 -0.048481937 -0.08433789 -0.15330204 0.2176819 -0.019826666 -0.1782087 -0.10500007
-0.13990897 0.064052686 -0.18636958 -0.34040385 0.28045 -0.20905589 -0.33825395 0.33261833
-0.129422 -0.3415065 -0.05431585 -0.15947205 -0.157075 0.107187994 -0.0295978 -0.28481323
-0.133785 -0.14184321 -0.21563894 -0.32957348 0.09190512 0.12583376 0.16923915 -0.030232219
-0.031226778 -0.25649133 -0.12949066 -0.1812228 0.5187382 -0.37085018 0.20751385 -0.14610386
-0.0898161 -0.016058251 0.1140766 -0.32681635 0.039094076 -0.26071998 -0.20009054 0.028224854
-0.13626781 -0.4001836 -0.2149146 0.20935737 0.15859956 -0.30192 -0.29670733 0.21522461
0.18879558 -0.07377881 -0.14156133 0.17818317 0.23368134 -0.035213176 -0.23898233 0.091205224
-0.009069909 -0.03997149 0.2257121 0.16059828 0.20450081 -0.10054142 0.2995363 0.26007736
0.17323916 -0.32687598 0.045393866 -0.39131036 -0.055433452 0.037627734 -0.03641731 0.018395288
-0.12234685 -0.026562186 -0.044184536 -0.37233272 -0.27635458 0.15450378 -0.32392615 0.064941
-0.0065234564 -0.29290578 -0.119044065 -0.047558602 -0.27872592 0.067704245 -0.04717815 -0.19999117
-0.16953798 -0.012991633 -0.03377874 -0.005657456 -0.07790284 -0.10566419 -0.17663135 0.033483323
0.044420585 -0.28703797 0.24551107 -0.19922608 -0.17204404 -0.09889574 0.018370643 0.050710004
-0.33506563 -0.0882659 0.08444486 -0.43121806 -0.05344119 0.040997118 -0.40615413 0.10440858
-0.0033504753 0.06218147 0.039734565 -0.030686012 0.09826841 0.09678213 -0.113403484 -0.2975265
-0.15124644 -0.13726854 -0.10055944 0.07240758 -0.28453267 0.041051153 -0.24742764 0.10899148
0.026301228 0.07681218 -0.02040512 -0.096982524 -0.13640882 0.101716034 -0.011600272 -0.021959929
0.14490442 -0.030072983 0.12531497 -0.004795838 -0.13383296 -0.033478647 0.086482145 0.0713971
0.12174632 -0.09853435 0.13165027 0.07689009 0.07467694 -0.017227056 -0.057908263 -0.26317376
0.058548033 0.04982005 0.14258485 0.10406994 0.036978554 0.11709173 -0.056659468 -0.075122446
-0.010626946 0.068441264 -0.083014585 -0.0792576 0.022079026 0.11698872 0.08598169 -0.0053088088
-0.15278426 -0.034452856 -0.16245164 0.06235575 -0.036264617 0.025510652 -0.05417245 0.032638423
0.03237879 -0.039982997 -0.034689236 -0.04521827 0.017050553 -0.123056166 -0.09999312 0.039573345
0.07266181 0.06327815 -0.0038781043 -0.006609019 0.086808965 0.024276847 0.029187007 -0.007801567

encoder.dcrnn_cells.0.gate.bias_pool f4 [2, 128]
00000000: 43d4 c33e 23c8 3ebf 4a34 123e b5c1 81be
00000010: 59ca c13e 8f1f a23d ab5a 48bd 837f b3bd
00000020: b500 e93a ea49 debd 30aa f83d 643b a7bd
00000030: e121 c3be f746 ae3d 23b0 e3bd 8501 ddbb
00000040: 6880 a3bd 9def 56be 2c65 fa3c 29ae 2bbe
00000050: 0925 36bd 416d 66bd 00c8 d43d 40aa aebe
00000060: fac8 b43b 3f2f 88bd 8cec fabd 1402 0d3e
00000070: 319e 8f3d 388a 93bd 6e9f d6bd 1dd8 f93e
00000080: a74b ca3d 71b6 49be e7c8 583e 7101 93be
00000090: 249b dbbe 3c3d bdbe 94fe 16bd c8f3 f2bd
000000a0: 97fa bcbd c237 183e 11a7 40bd f07c b6bd
000000b0: 6fb1 b63d c2c9 c83d 6f11 f6be 4dfc 003e
000000c0: 9cc5 0c3e 4ec8 7d3e 795b 353e 26f1 9a3d
000000d0: 460f 3f3e f3fa 003e 83f9 a1be 257d b4be
000000e0: 3a6c 77be 276d 443e b7d7 42bd 701c 433e
000000f0: a8bd abbd b4bf 7a3d 5aed 22be 14fc 883c
00000100: 695a fb3d 00f7 cf3c c55a bb3d d346 8abe
00000110: 5c23 97be cb58 3e3e 4880 36be 7bf9 c5be
00000120: f4ab 503e 347f 42be b0c7 153e 2714 4fbd
00000130: 0023 27bd dca7 803d 5e95 093e 7468 b13c
00000140: cd96 82bc 1171 fdbd db95 35bd ca21 e4bd
00000150: 688c 70bd 7990 42be 81da 4fbd 5a26 40bd
00000160: 1c77 a13d fed6 db3c 8769 703e 3888 9a3d
00000170: d9af b5bd 4384 75bd d4ce 5d3e 7af1 6b3c
00000180: b098 893d 5842 03bd bc03 0abe ae77 76be
00000190: 482b 9fbd b19f c2bb 1979 da3d be9e 1ebe
000001a0: f2f0 8bbd 10fb 95be 10b5 09be ca86 e6bd
000001b0: 1b70 90be f109 44be b24d 81be 0a4e 383e
000001c0: d619 7bbd 0746 d5be 8edc 7abe 0e45 8a3d
000001d0: 333d 9ebe e82f edbd 9479 f03d f107 493d
000001e0: b598 603e 7352 d1bd ec78 c83c 0cee 19be
000001f0: 116b 1dbd a9d6 413e aab9 49be 0d6a 113e
00000200: 44da 9fbe d5a2 f93e 6c1d ddbc 5c85 c33e
00000210: ec1c 98be c350 a93d d936 a7bc 546b 013f
00000220: c6e7 223e 3607 4cbe 6e93 80be 6bed 873e
00000230: 01cf ba3e 750c dcbb 0a29 d13e 4e8c 18be
00000240: 492a c8bd 7efc c83d 99fd 45be aba3 0fbe
00000250: ed8f 4cbd f9ca 3dbd b34d 8c3b 63c9 983e
00000260: 883d ae3e ab66 4e3d bcdc 4cbe 5c5b b43d
00000270: 9deb d73d 4a83 cbbd eb66 a73d 18f2 693e
00000280: b5c4 85be 9ad1 7d3e b562 e1bd b63c a93e
00000290: 2aea 9e3e 233f c83d e151 8dbe c551 7ebd
000002a0: 1a69 4a3e 8c46 f1bd 320e 543e 04dc 313d
000002b0: 95e5 0bbe 72e8 893d bdd1 0e3b 3d47 87be
000002c0: ed10 46be d8fe 1bbe 4676 2dbe 61bc e03d
000002d0: f041 23bd e4a9 5bbe 9033 7c3e 482c 243e
000002e0: dcb4 91bc 63a5 97bd d5db 8fbd e269 94be
000002f0: 7d0e 103e df29 fd3c 1aca 343e 88bd 123e
00000300: 2282 c53c ed00 21be 94a4 febd 5626 45be
00000310: 021c 0c3e 6c57 503d 6f86 0d3e a3a4 ce3d
00000320: 0c75 5e3c cf55 283e 9b37 82be e370 fd3d
00000330: e400 2cbe 64e4 6c3e d0e8 403d 92c9 04be
00000340: 6768 65be e21f 813e 8de4 923e fd79 0ebe
00000350: 683b 2d3e fa0b be3e 0434 a1bd af65 ac3e
00000360: 6691 33be a224 483c baa5 0d3d cc73 7e3d
00000370: 2e04 84bd 6829 32bd 1100 283d c1e0 41be
00000380: ba56 a53e 580c 5dbd 0897 a43e 6809 493e
00000390: 2cf5 0cbe b24e 2cbc a7b0 25bd f76b 08bd
000003a0: 176a 1e3e ebbe 46bc 9256 39be 3067 69be
000003b0: 8c87 9f3d a2b2 7f3e 8453 f43d c71b c63d
000003c0: 190b 8d3e 7220 0a3f 0a78 1c3d 9758 dbbd
000003d0: 8d7c b03e ddbd 033e c81f adbd b2fd 063c
000003e0: b3bd 9a3d 709a d23b b3fd 8a3e 2b0c 243d
000003f0: 8d9f b7bd 556f bcbd 272d 96bd 8e5d 023e
0.3824788 -0.74524134 0.14277759 -0.253431 0.37849692 0.079161756 -0.048914593 -0.08764555
0.00177767 -0.10853942 0.12141836 -0.08165625 -0.38111785 0.08509629 -0.1111758 -0.006744566
-0.07983476 -0.20989843 0.03056582 -0.16765656 -0.044468913 -0.056256536 0.103897095 -0.34114265
0.0055171223 -0.066496365 -0.12252149 0.13770324 0.070125945 -0.072040975 -0.104796275 0.48797694
0.09877711 -0.19698502 0.21170388 -0.28712037 -0.428918 -0.3696078 -0.03686388 -0.11862904
-0.09227484 0.1486502 -0.047034327 -0.08910549 0.089205615 0.09804107 -0.48060176 0.12596245
0.13747257 0.24783441 0.17710675 0.07565527 0.1865817 0.1259573 -0.31635675 -0.35251728
-0.24162379 0.19182263 -0.047569003 0.19053817 -0.083857834 0.06121798 -0.15910855 0.016721763
0.12273104 0.025386333 0.09148172 -0.2700716 -0.29519165 0.1858856 -0.17822373 -0.386669
0.20378095 -0.18993837 0.14626956 -0.05055633 -0.040804863 0.06282017 0.13435885 0.021656252
-0.015941048 -0.12375081 -0.044332366 -0.11139257 -0.05872765 -0.19000424 -0.05074549 -0.046911575
0.078840464 0.026835915 0.23477755 0.07545513 -0.08871431 -0.059940588 0.2166093 0.014400834
0.06718576 -0.032045692 -0.13477987 -0.24069092 -0.07771927 -0.005939447 0.10667629 -0.15490243
-0.06833066 -0.29293108 -0.13447976 -0.11256178 -0.2821053 -0.19144417 -0.2525459 0.1799852
-0.061303936 -0.4165499 -0.24498197 0.067514524 -0.30906066 -0.11581403 0.11741939 0.04907984
0.21933253 -0.10220804 0.024471723 -0.15032214 -0.038432185 0.18929543 -0.19699731 0.14200611
-0.3122121 0.48757043 -0.026991569 0.38187683 -0.29709566 0.08267357 -0.020411896 0.50554395
0.15908727 -0.19924626 -0.2511248 0.26548323 0.36486056 -0.006715352 0.40851623 -0.14897272
-0.0977369 0.09813784 -0.19335021 -0.14027278 -0.049941946 -0.046336148 0.0042817234 0.29841146
0.3403132 0.05039088 -0.20006078 0.08806488 0.105429865 -0.09937151 0.08173927 0.22846258
-0.26126638 0.24786988 -0.11005155 0.3305413 0.31038028 0.097776674 -0.2760153 -0.0620897
0.19766656 -0.11781034 0.2070854 0.043422714 -0.13661797 0.067337885 0.0021792494 -0.26421538
-0.19342394 -0.15233934 -0.16939649 0.109734304 -0.039857805 -0.21451527 0.24629045 0.16032517
-0.017786436 -0.07404592 -0.070243515 -0.28987032 0.14068027 0.030903755 0.1765522 0.14330113
0.024109904 -0.1572301 -0.124337345 -0.19252905 0.13682559 0.050864622 0.13820814 0.10089996
0.013577711 0.16438983 -0.2543305 0.12375047 -0.16797215 0.23133999 0.047097027 -0.12967518
-0.22403108 0.25219637 0.28689995 -0.13913722 0.16917193 0.37118512 -0.07871249 0.33671328
-0.17535934 0.012215765 0.034581877 0.06212215 -0.0644611 -0.04349652 0.04101569 -0.18933393
0.3229273 -0.05396685 0.32146478 0.19632494 -0.137654 -0.010516809 -0.040451672 -0.03330609
0.15470158 -0.012130479 -0.1809943 -0.22793269 0.077895254 0.24970487 0.11929992 0.09673267
0.2754753 0.5395576 0.038200416 -0.107102565 0.34470025 0.12865396 -0.084533274 0.008239197
0.075557135 0.006427102 0.27146682 0.040050667 -0.08965979 -0.092009224 -0.07332831 0.12731001

encoder.dcrnn_cells.0.gate.linear.weight f4 [128, 65]
00000000: 81a1 40be 354c 073e 86b7 a03d 1c29 0d3d
00000010: 367c 2a3e b2e7 033e a37d 893e 1920 db3e
00000020: d6c8 c7bb b964 c13d e142 d33e a283 1b3d
00000030: e058 633d 10f6 b33e f521 42ba ffac 883c
00000040: fbb1 213e fe7a 39bf 1c1c 77bd 8f4e 54be
00000050: e5f6 15bd e18f c63d 28ff 7c3e b1cd 3e3e
00000060: c7e3 4c3e 8caa be3d 55fb 663e fa92 103e
00000070: 7203 c2bd 781d a73d f517 ea3e 0668 2a3e
00000080: 3246 21be 0543 05bd bfa9 693e 4e47 70bd
00000090: 2a28 21be b5ed e93d 8f28 243d bff7 8e3e
000000a0: 4416 6e3e 36f1 473e 4e1b 20be 679c 853d
000000b0: aec7 453e 1fea 0d3d ddf2 133e 603b e63d
000000c0: b697 86bd e533 8f3d a0a9 383e 13fc c83e
000000d0: ed6a 57bd b65a 903e cadc 593e 6803 7c3e
000000e0: 6a7f 963e 9e19 5fbe 8eae 32be a83b 203e
000000f0: 39b8 8e3e 7933 c33d 0b55 8ebd 5504 5e3e
00000100: ab06 993d 4180 83bd 45e5 43bd 7d41 283e
00000110: c226 58be f9ed c9bd def9 47bd fc7d 26be
00000120: 7219 89be 8669 a2bd 0389 c73d b5f7 55be
00000130: 385d 873e 0de3 453e cdd9 20bd fa8a c53c
00000140: 8574 1c3d f519 75be 7189 0e3d e03c a23d
00000150: 7c49 1c3c ff08 803d e501 14bd c009 753d
00000160: 65ec 41be 7f7e 0fbe dd36 c3bc b4c3 58be
00000170: 8989 073c 54f2 273d a5fa 16be b50c 34be
00000180: 902e 3cbe 4fb9 5ebd cdad a63d cb7d 8bbd
00000190: 5e1a e23d c068 f13c c024 12be ee1e 9b3e
000001a0: d75b f1bd a0c6 783c 4ca7 3bbe 46d9 943d
000001b0: 8612 0a3e ca9a d9bd 8219 29bd a1bb 1ebe
000001c0: deca 57be 2c61 1e3c ea5b 2f3e cfba e6bd
000001d0: c7e0 0bbe b341 4bbd 89c8 833d 9ad2 a0bd
000001e0: b65b f3bd 5cd4 9a3d 6395 433e ff7c 11be
000001f0: 9500 7abe 317c 08be 88b0 8dbc d95a 473e
00000200: 1249 033e 0935 42be 99dd a43e c772 efbd
00000210: f2c8 89bd 6635 0ebe 5f40 6c3e dde4 b4bd
00000220: 639f b2bc 881e e2bd 5d22 663e 4f32 8d3d
00000230: 0543 19bd 683e b63d c812 923b 88f1 e03c
00000240: e1d6 513e 1fa3 953d e7df d4bd 7efe 3a3c
00000250: 9a68 8d3d 0fb4 913d 744f 553e 6018 ad3d
00000260: 2121 55bd 9843 c6bd c2e8 2d3e 542b f8bd
00000270: ee85 33bd e38c a4bc 216d 88be 273b c5bd
00000280: 8bc8 53be 6ac5 0e3e eb54 283d fcc0 e6bd
00000290: f48d 00bd 74a0 a93e 6c4d 933e 5c36 d13d
000002a0: b88e 753e 4194 663e 3b43 243e 03f0 da3b
000002b0: e0f4 d1bd db97 b5bd 8a4c 073e 0b6f a03b
000002c0: d5f4 2f3e ee45 c3bc a266 b63d c3b8 153d
000002d0: 57a5 183e dc84 16bd 2ce6 4bbe b017 eebd
000002e0: fbee bfbd 9e68 86bd 38e0 1a3e 2535 f73d
000002f0: 2da7 f4bd 5914 5fbe 12a0 0abe 1603 9dbe
00000300: 499a 30be 1fd1 853d 77d8 b03d 8dd5 53bc
00000310: 89bd 99be 8574 133e 9f5a ebbd dfd3 223d
00000320: 9a4f 5dbe e42a fcbd cf15 59bd d388 3cbd
00000330: 2bc8 5e3e 668c 81be b155 e7bd c545 e9bc
00000340: 120d 223d 931e 36be e8f8 543e 8c3b 37be
00000350: 2dd3 973d c092 c73d 8386 b63e 8c8f a33e
00000360: b06a b83d 2e58 c63d 26b8 0b3e ddfd 42bd
00000370: f8ec 9bbc 5849 c5bd e210 21be d92b 24be
00000380: 775c 5ebe 6146 0dbe 97bd 443e 821e d33e
00000390: f6a7 b3be ef34 4c3e 5ebc 25be b339 463e
000003a0: 3a54 08bd dbbf 823e 98a3 2ebe dfdd 28bd
000003b0: 0da5 4e3c 1a70 6e3e 0470 133e 6208 0dbd
000003c0: f40f 193c f2c8 97be 8013 4c3e 5d77 43be
000003d0: 2219 83bd 2a63 65be a1a6 31be e927 7b3d
000003e0: a287 b1be ff7e 763d 5db1 89bd d947 303e
000003f0: f615 b33e 5e1c c4bd d246 debd 8a24 81be
-0.18811609 0.13212664 0.07847504 0.034463033 0.16648945 0.12881353 0.26853666 0.42797926
-0.0060969396 0.094430394 0.41261962 0.03796733 0.05550468 0.35148668 -0.00074055727 0.016684053
0.1579055 -0.72453296 -0.06032954 -0.20733093 -0.03661241 0.096954115 0.2470671 0.18633153
0.20008765 0.09309873 0.22556813 0.14118567 -0.094733134 0.081599176 0.45721403 0.16641244
-0.15749434 -0.032534618 0.22818659 -0.05866175 -0.15737978 0.11422292 0.040077742 0.2792339
0.23250681 0.19525608 -0.15635416 0.06523972 0.19314453 0.034647103 0.14448114 0.11241794
-0.06571905 0.0699232 0.18033457 0.39254817 -0.052592207 0.28194207 0.2127563 0.24610674
0.29394084 -0.21787116 -0.174494 0.15647757 0.27874926 0.09531302 -0.069498144 0.2168134
0.07471975 -0.06420947 -0.04782607 0.16431232 -0.21108535 -0.09859843 -0.048822276 -0.16258997
-0.26777226 -0.07930283 0.0974293 -0.20895274 0.26438308 0.19324894 -0.03927021 0.02411412
0.03819706 -0.23935683 0.034799043 0.07921767 0.009539004 0.06251716 -0.03613462 0.05982375
-0.18937834 -0.14013098 -0.023829872 -0.21168405 0.008272537 0.041002586 -0.14744051 -0.17582972
-0.18377137 -0.054375943 0.081386186 -0.068111025 0.110401854 0.029468894 -0.14271832 0.30297035
-0.11785095 0.015184075 -0.18325537 0.07268004 0.13483629 -0.10625227 -0.04128409 -0.15501262
-0.21073481 0.009666722 0.17124906 -0.112661 -0.13659965 -0.049623203 0.064347334 -0.07852669
-0.11882727 0.075600356 0.19099955 -0.14207838 -0.24414285 -0.13328625 -0.01729609 0.1946825
0.12820843 -0.18965544 0.32200316 -0.11691814 -0.067277804 -0.13887557 0.2307143 -0.08832715
-0.021804517 -0.110409796 0.22474046 0.06894361 -0.03741743 0.08898622 0.0044578053 0.027458921
0.20492126 0.073065035 -0.103942685 0.011413215 0.06904717 0.071144216 0.2083109 0.08451915
-0.052033547 -0.09680861 0.16983321 -0.12117639 -0.043828897 -0.020086711 -0.2664576 -0.09630423
-0.2068197 0.13942495 0.04109661 -0.112672776 -0.031385377 0.3313023 0.28770006 0.10215446
0.23980224 0.22517492 0.16041271 0.0066814437 -0.10251784 -0.08866855 0.13212791 0.00489605
0.1718324 -0.023837056 0.089062944 0.036553156 0.14906822 -0.0367478 -0.19912022 -0.11625612
-0.09371754 -0.06562923 0.15124595 0.120706834 -0.11945949 -0.21785106 -0.13537624 -0.30666417
-0.17246355 0.06534027 0.086350374 -0.012929332 -0.30027416 0.14399917 -0.11491894 0.039752837
-0.21612397 -0.12312868 -0.052999314 -0.046028923 0.21756046 -0.25302428 -0.11295641 -0.028475652
0.039563246 -0.177851 0.20798075 -0.17893809 0.074133255 0.09744787 0.356495 0.31945455
0.09004724 0.09684788 0.13644466 -0.047605384 -0.019033894 -0.0963313 -0.15729097 -0.16032352
-0.2171496 -0.13796379 0.19212948 0.41234213 -0.35089082 0.19942068 -0.16185138 0.19357948
-0.03328345 0.25537 -0.17054594 -0.041227218 0.012612593 0.23284951 0.143982 -0.034431823
0.009342182 -0.29645497 0.19929314 -0.19088502 -0.06401278 -0.2240111 -0.1734872 0.06131736
-0.34673792 0.060179707 -0.067232825 0.17214908 0.34977692 -0.09575723 -0.10853352 -0.2522319

encoder.dcrnn_cells.0.gate.linear.bias f4 [128]
00000000: 871a 0b3f b9d6 27bd a9fa 0e3e ad33 2dbe
00000010: b804 7d3f 51f3 093f 91ad de3e 2f81 cc3e
00000020: 5629 463f 1f9a 543e 0a9e 493f d550 183f
00000030: 9e06 2a3e d7da 043f f211 0b3f a747 813f
00000040: d99d 523f 8940 ca3e 3040 3d3e e1ea 293f
00000050: 99ac b23e 3b31 0f3f acb4 6e3f 2fb1 ab3e
00000060: 7fad 213d 761e f73e bb18 493f c948 543f
00000070: e8fc f13e 9a1c e43e 3d9c 4f3f 7602 13be
00000080: 7676 bc3e 471f df3e 3296 833e 43c6 123f
00000090: 0de8 c63e 6c5c 233d b2a6 d73e 072e 103f
000000a0: 98d1 ccbc f68b 18bc 45d6 3c3e 1bc4 713e
000000b0: 6ce8 5e3f 3632 253f ed3a cc3e ab0f 803f
000000c0: 5ec9 613f 9989 553f 9b8c 023f 9872 f93e
000000d0: df8b d43e bdce 883f 49a4 bc3e cc0a f13e
000000e0: 1098 0a3f 1df0 2a3f f2ef 6a3e e090 6d3f
000000f0: 9339 393f 72ec 873e 7ab6 983d c4d7 7c3f
00000100: ad9e be3e 7987 943e a37e 133f 0344 a13e
00000110: 8c71 133f a5a9 863f c6e2 5a3f 1f08 173f
00000120: 16b9 ee3e cb45 443f c0e8 943f f4ff af3d
00000130: a3d1 463e 3f3f f93e 4467 2ebd 5d17 033f
00000140: 970f 1f3f c18f 2f3f a102 5a3f a2d1 213f
00000150: 3aaa 013d cf94 91bd 6d05 223f f420 723e
00000160: 6b61 a33d 45db b73e 7c86 453f 078c 053f
00000170: a7a6 52be f9f8 5b3f b308 273f 1bf0 2c3f
00000180: 5b43 663f 938e 123f 9d8f b23d 5feb 133f
00000190: ae10 cf3e afb0 9d3e 192b 123f b7e4 9d3e
000001a0: 4e5f 6a3f 7ac3 503e 36f9 4d3f 22dd 653d
000001b0: 7f67 d73e 66be 173e 5ff0 023f ef73 833f
000001c0: 9dea 1c3f 1cc8 553d 8c45 863d 30c4 753e
000001d0: 63bf 073f 49c8 ea3e 8261 253f 33aa f43d
000001e0: d1d1 5c3f ee56 4b3f e43e c03d 1205 173f
000001f0: c11b a63e b0a3 e53e af6e 79bd 7d51 1b3f
0.5433735 -0.04097626 0.13962807 -0.16914244 0.98835325 0.53886896 0.43491796 0.3994231
0.77406824 0.20761918 0.78756773 0.5949834 0.16604087 0.51896423 0.5432426 1.0099992
0.82272106 0.3950236 0.18481517 0.6637402 0.34897307 0.55934495 0.93244433 0.33533618
0.0394721 0.48265427 0.7855336 0.8292356 0.47263265 0.4455307 0.81097776 -0.14356408
0.3680913 0.4357855 0.25700527 0.57333773 0.38848916 0.039883062 0.42119366 0.5632023
-0.025002286 -0.009310713 0.18441112 0.23609965 0.870734 0.6452974 0.39888707 1.0004781
0.88197887 0.8341308 0.50995797 0.4872024 0.41512963 1.0688092 0.3684409 0.4707855
0.5413828 0.66772634 0.22943094 0.92799187 0.72353476 0.2654758 0.0745668 0.9876673
0.37230435 0.29009607 0.5761511 0.314972 0.57595134 1.0520521 0.8550228 0.58996767
0.46625584 0.76668996 1.163353 0.08593741 0.19415908 0.48681065 -0.04257895 0.51207525
0.62133163 0.68578726 0.8516026 0.632105 0.03165648 -0.07108461 0.6328953 0.23645383
0.079775654 0.35909477 0.7715833 0.5216679 -0.20571385 0.8592678 0.6524765 0.6755387
0.89946526 0.572488 0.08718798 0.5778102 0.40442413 0.3079886 0.5709701 0.30838558
0.91551673 0.20387068 0.8045839 0.05611909 0.4207115 0.14818725 0.5114803 1.0269755
0.6129549 0.052192792 0.06556234 0.24000621 0.5302641 0.4585593 0.6460191 0.119465254
0.86257654 0.7942952 0.093869954 0.5899211 0.3244305 0.44851446 -0.06089657 0.60671216

encoder.dcrnn_cells.0.update.weights_pool f4 [2, 65, 64]
00000000: 3f32 873e 09ac 09bf 541f 7b3e 7cc5 893e
00000010: 5e46 41be 5810 2cbe cc70 51be 010b 9f3e
00000020: d919 3d3e 537b 3abe 9f5b 2d3e 35eb 303e
00000030: 0440 843e 05c3 4fbd d279 fdbe 0efa 24be
00000040: 5af7 133e 72d8 993e a6d5 673d e56f 823d
00000050: 9596 babe 8a98 283e 872a 103e 7a2e 9d3e
00000060: de38 77be 71bb 3ebe 05b5 6abe 2340 df3d
00000070: 131c fe3e c24d 56be ddef 8b3e ff4f 0fbe
00000080: b124 923e 90c9 bd3e 846e a5bd 8d3c 633e
00000090: cd97 413e 49d0 6c3e 8569 9fbd 6826 5dbd
000000a0: db62 953e 938f 103e 8986 363e fceb a23e
000000b0: 6f67 ecbd 5109 3cbe c4d8 d23e 81c1 8c3c
000000c0: 2b9e d5be d177 2cbe 83b1 4cbe 46bb a3be
000000d0: a039 b33d 1d3d 1a3e c5b9 cd3e 553c 38bf
000000e0: 3698 493e 4ee6 393e 6cef 86be 02d9 063e
000000f0: c832 51bf ab9a c33d 4b24 c03e d4bd 45bd
00000100: 606b 1dbd a71e ffbd 000c e6bd 35ae 67bd
00000110: 0083 dfbc 993a 033c db49 a13d ae73 fb3d
00000120: 3446 41bd 31d9 053d 1b41 b0bd 36ff 4a3a
00000130: 00d8 85bd 40f4 f9bc 58e6 4bbd 8e34 ba3c
00000140: 7ec3 0dbd 0b8e 9bbd 08b1 ec3c 4c5e 6bbc
00000150: ad72 20bd 2590 87bd 3818 02be 487d 02bd
00000160: 07d0 2abd 6617 ab3c f407 e4bc dba5 77bd
00000170: 498f b6bd 7ee2 583d 8ce4 15bd bfd4 1a3d
00000180: 8d38 95bc 83fd 4cbd 38fc 42bd 7b1b efbd
00000190: e6c9 a1bd 1530 bcbd 30be 543c 7154 1ebd
000001a0: 4c3c adbd 36d3 8dbd 93f9 a8bd 6f2d 9fbd
000001b0: 086d 42bd 4934 3b3d 1453 58bd 7485 4bbd
000001c0: fb4e edbd 1cc4 f03d 3976 12bd b01a 83bd
000001d0: 1c29 da3c 8da7 5cbd 26e4 8dbd 3d05 943c
000001e0: a8c3 343b 342b 8ebd 733b f1bd f966 1cbd
000001f0: 07d2 39bd bdfe 4dbd cb5f 37bd 4c38 f8bc
00000200: bc14 83be c2f7 bdbc 5d8f b63d 1e20 513e
00000210: ea7d 863c a257 08be be7a d7bd fb9e 11be
00000220: 99dd 023e f360 2cbe e1d3 3bbe 9a4c 7c3d
00000230: 24b5 753e b65d 0d3e 4749 123e 04ed 01be
00000240: 9647 d93c 295f 343e cd59 f3bc 1aef bb3c
00000250: dbec 0fbd 70be 693d 3985 cd3d 4728 103e
00000260: 5210 dabd b8e3 b9bd 1ed0 d9bd 9b07 af3d
00000270: 3384 ef3d b043 7ebd 0fbd 973d 914d 813d
00000280: a99f 14bf 752a 1b3e b579 a8bd cfd4 e63d
00000290: 29fd 203e d0b9 8a3d f614 4ebc ab06 2d3e
000002a0: fe63 f93d 7aa7 a63d 30a0 253e 8c3c 063e
000002b0: 4f6a 573d b119 2bbe bd45 373e 387d 033e
000002c0: e49b d83e 39ed 48bc a875 8abd 5699 62bd
000002d0: fd89 96bd 33b1 53bd dc0f bc3d f68e fb3d
000002e0: 0a6e fa3d 90b2 db3d e42f 6c3d cf1d 943d
000002f0: 77d9 d4bd f12f a0bd 017d a3bd d04b 5d3d
00000300: e1e8 a9bb fb1c 03be 6438 a7bd 0b35 e03d
00000310: 2543 99bd 0fca 7e3d 742f 5ebd 70ba 203e
00000320: ca57 ed3d 818c aebd b854 033e c002 083d
00000330: 0566 a3bc f4b3 68bd 377d 7d3e ea3d 9e3d
00000340: 7cbd 8ebd fe1d dd3d d41c 3e3e f2d5 d4bb
00000350: 4659 70bd 45a1 1ebd 7abd 4c3d 5a9c 86bc
00000360: ce0f 343d 5912 643d c7fc e23b 36d5 0dbd
00000370: 0f2c c23d ab71 a03d 9f7f 363d 2ca2 d3bd
00000380: 82d0 9dbd 933b 563e 1abc 23be d454 203d
00000390: 69d7 da3d 3c3b a3bc 6b52 d43d 7ec2 f7bc
000003a0: 0ba6 053d 17ec 343d 9b04 063d a5d9 963d
000003b0: bd7f c9bd 7bd3 503d 3415 5c3e 0dfe 7ebd
000003c0: 6e0b 82bb bad1 ea3d 6935 8c3d 4e41 22be
000003d0: 1009 bd3d fc70 e23d 28cb 333c 591e 023e
000003e0: 10d8 1e3e 8f25 263e 3f3f 9ebd 4976 dfbc
000003f0: 970c bbbd a3ce 333d f08d 72bb 3e1b 613d
0.26405522 -0.5377813 0.2452367 0.2690848 -0.18874499 -0.1680311 -0.20453185 0.31063083
0.18466891 -0.18211107 0.16929482 0.17277224 0.2583009 -0.050723094 -0.49507004 -0.16111013
0.14449826 0.30047947 0.056600235 0.063689984 -0.3644301 0.16464439 0.14078723 0.3069952
-0.24142787 -0.1862619 -0.22920616 0.10900905 0.49630794 -0.209281 0.2733144 -0.1399536
0.28543618 0.37067842 -0.0807772 0.22191067 0.18905564 0.2312633 -0.07783798 -0.053991705
0.29176983 0.14117269 0.17824759 0.31820667 -0.11543166 -0.18362929 0.41181004 0.017182114
-0.41722235 -0.16842581 -0.1998959 -0.31978816 0.087512255 0.15062375 0.40180793 -0.7196706
0.1968697 0.1815426 -0.2635454 0.1316872 -0.8171811 0.09550985 0.3752769 -0.048276737
-0.03843248 -0.12457018 -0.112327576 -0.05656262 -0.027284145 0.008009576 0.07875415 0.122779235
-0.04718609 0.032677833 -0.08606168 0.0007743718 -0.06535339 -0.030511975 -0.04978022 0.022730138
-0.034610264 -0.07595452 0.028893009 -0.014365744 -0.039171863 -0.0661929 -0.12704551 -0.03185776
-0.041702297 0.02088518 -0.027835824 -0.060460906 -0.08914048 0.052950375 -0.036594912 0.037800547
-0.018215442 -0.050046455 -0.047603816 -0.11675163 -0.07899837 -0.091888584 0.012984797 -0.03865475
-0.08458766 -0.06925051 -0.082507275 -0.07772338 -0.04746726 0.04570416 -0.052813604 -0.049687818
-0.1158733 0.11756155 -0.035757277 -0.064015746 0.02663093 -0.053870726 -0.069282815 0.018068904
0.002758244 -0.06941834 -0.11778917 -0.03818414 -0.045366313 -0.050291765 -0.04476909 -0.030300282
-0.25601757 -0.02318943 0.08914063 0.20422408 0.016417462 -0.1331468 -0.10521458 -0.14220802
0.12779845 -0.16833858 -0.18342544 0.06159649 0.23994881 0.13805279 0.14285766 -0.1268807
0.026523393 0.17614426 -0.029705906 0.022941161 -0.035137992 0.05706638 0.10035176 0.14077865
-0.10647644 -0.09076637 -0.10635398 0.085463725 0.11695137 -0.06207627 0.07409107 0.06313623
-0.5805612 0.15152915 -0.08226339 0.11271059 0.15721573 0.06773722 -0.01257824 0.16897075
0.12177275 0.08137412 0.16174388 0.13109034 0.05259162 -0.16709019 0.17897697 0.12840736
0.42306435 -0.01226359 -0.067607224 -0.055322014 -0.07350538 -0.051682662 0.091827124 0.12283127
0.122280195 0.107274175 0.05766286 0.07232248 -0.103930406 -0.07821644 -0.07982827 0.05402738
-0.005185232 -0.12804024 -0.081650525 0.10947617 -0.0748351 0.062204417 -0.054244474 0.1569612
0.1158901 -0.08522893 0.12825286 0.033205748 -0.019946108 -0.05681224 0.24754797 0.07726653
-0.06969735 0.10796736 0.18565685 -0.006495231 -0.058678888 -0.038728017 0.049985386 -0.016431976
0.043960385 0.05568156 0.006927106 -0.034627162 0.0948106 0.078341804 0.044555303 -0.10333666
-0.07705785 0.20921163 -0.15989724 0.0391434 0.106856175 -0.019925706 0.103672825 -0.030244108
0.032629054 0.044170465 0.032719236 0.07365731 -0.09838817 0.050982933 0.21492463 -0.062254
-0.0039686477 0.114657834 0.06846125 -0.15845224 0.09230244 0.11056706 0.010973729 0.12706889
0.15512109 0.16225265 -0.07726907 -0.027278082 -0.09133261 0.043898236 -0.003701087 0.05495762

encoder.dcrnn_cells.0.update.bias_pool f4 [2, 64]
00000000: 9a10 a63d b145 f5bd 73f1 5d3e c623 973e
00000010: 245a 273e cb28 063e feb6 a5bd ac96 193e
00000020: 0995 98bd 1463 87be 1473 30be 134c 863d
00000030: ce73 56be e115 183a 5649 a63d e2af 78be
00000040: 3dcd 273e 5575 0b3e 1e92 7c3e af3f 48be
00000050: 2d50 2dbe 744d 12be 4d12 7abd d04e 853e
00000060: 831a 0f3c 3b01 8b3e 7ccc c2be 9c0d 613e
00000070: 2115 cbbe 100e 583e b570 93be 1fe7 58be
00000080: 2d7c d4be fcf5 edbd 4420 85be 7a39 113e
00000090: a32e 8f3e 8b32 8dbe 04dd 3e3e 974e 20be
000000a0: 4636 4d3e bdb0 08be 55bb 71bd f960 03be
000000b0: 89d9 af3d abf0 83be 43b2 e3bc e362 bd3d
000000c0: e8a7 10bc bbaa a7be 7f22 b63c 64f7 cebc
000000d0: b3ad 83be 1aef 01be 37e3 483e 2970 79be
000000e0: 3921 ad3e eee2 fcbd 9406 13bd ed21 853d
000000f0: 5e29 c3be 058d 78be 6df7 233e b6e8 95bd
00000100: 8e5d fd3d b729 b5bd fe18 b3be 2552 df3d
00000110: 7d5f 8f3e d907 673d 882a 03be a2e3 aa3e
00000120: 7d21 8bbe 052a 883e 2cde 473e a71d 223d
00000130: 6e42 c1bd 0c86 18be f299 c4bd 1e08 54be
00000140: ebe1 4dbe f4d9 71be f071 0fbe 215a 8ebe
00000150: 5bbb 47be eb73 22be 83d7 743d c425 15be
00000160: f257 4abd 2874 28be 9bad 343e 9727 ebbd
00000170: 21fa 4d3e adc3 a1bd 48f1 6d3e 3d20 74be
00000180: f850 7cbc 0c1c 0c3e 5cca b33e c50c 17be
00000190: 9aa8 53bd 8dc7 81bd 4576 ef3d e407 753e
000001a0: 726c 263e af5f a23a 93ce 1a3e 782c 953c
000001b0: ba82 123e ca7d 47bc ea5c 0cbe d03b aabe
000001c0: 9180 14be 2293 0fbe 2dad 363e 5b0d 8b3e
000001d0: 03ca 893e 9a93 993e 80e9 1d3e 546a 9f3e
000001e0: 6902 163e f261 683e fff8 723e db05 15bd
000001f0: ecf5 efbc 724c 5f3e 6428 8c3e c565 393e
0.08108635 -0.11976183 0.21674137 0.2951948 0.1634298 0.13101499 -0.080915436 0.14998883
-0.07450301 -0.26442778 -0.17231399 0.06557479 -0.20942613 0.00058016 0.081194565 -0.24285844
0.16386886 0.13618977 0.24665114 -0.19555543 -0.16925116 -0.14287359 -0.06105261 0.26036692
0.008734348 0.27149376 -0.38046634 0.21977848 -0.39664558 0.21099114 -0.28796926 -0.21181916
-0.4150099 -0.116191834 -0.2600118 0.14182082 0.27965268 -0.27577624 0.18638998 -0.1565498
0.20040235 -0.1334867 -0.059016544 -0.12829961 0.085864134 -0.25769553 -0.027794963 0.09247377
-0.0088290945 -0.32747445 0.022233246 -0.02526445 -0.2571846 -0.12688866 0.19617926 -0.24359192
0.3381441 -0.12347971 -0.035894945 0.065006115 -0.38117498 -0.24272545 0.16012354 -0.07319777
0.1237136 -0.08845847 -0.34980005 0.1090434 0.2800254 0.05640397 -0.12809193 0.33376795
-0.27173987 0.26594558 0.19518346 0.03957906 -0.094364986 -0.14894885 -0.09599675 -0.20706221
-0.20105712 -0.23618299 -0.14008307 -0.27803138 -0.19505064 -0.15864532 0.05977584 -0.14565188
-0.049400277 -0.1645056 0.1764435 -0.114821605 0.20114948 -0.0789865 0.23236573 -0.23840423
-0.015400164 0.13682574 0.35115325 -0.14750965 -0.051674463 -0.063368894 0.1169248 0.23928791
0.16252306 0.0012388135 0.15117864 0.01820968 0.1430768 -0.012175987 -0.13707319 -0.33248758
-0.14502169 -0.1402097 0.17839499 0.27158627 0.26911935 0.29995424 0.15421104 0.3113581
0.14649357 0.22693613 0.23727797 -0.036382537 -0.02929207 0.21806505 0.27374566 0.18105228

encoder.dcrnn_cells.0.update.linear.weight f4 [64, 65]
00000000: b39a 2a3e 54b9 663d 01cd abbd c639 a8bd
00000010: a9ec 053d 9d1b 27be d51a 5c3c 14ef 2ebe
00000020: 5c09 40be c302 07bd 8fd1 a3be c45f 6bbc
00000030: a66c bfbd 5343 2f3e 662b af3d b46d f43c
00000040: 486f 3d3d f9f0 083e b670 0cbc 9266 ed3d
00000050: 179a f23d 73ae 5bbe 9c05 0d3e 390a 40be
00000060: 7c5c d33d caf1 9ebe b46d 23be fe0f 35bd
00000070: 3a74 a73d bfc8 f93d f8b9 933c e5a7 eabc
00000080: 6e00 393e c0a5 1bbe 3cfe fcbd d259 693c
00000090: fabd 083e 88b0 563d 8350 743e 6a91 ec3d
000000a0: 21b8 3d3c e289 d8bd 1187 763e 8fb1 82be
000000b0: 0c62 6ebe 2aff f4bd 7c91 0c3e 384e 243e
000000c0: 1455 df3d 5925 cbbd 773e 40bd 285b aabe
000000d0: 8856 aa3d af09 14bd 82ae 023d be2b 02be
000000e0: 3f5c 68be be0f 8cbd b067 4f3e 580d 81be
000000f0: 1818 a4bd 4f48 7ebe c270 143e 20d4 843d
00000100: 2f51 2abe 746a 9cbe 616a 53be ea8c 87bc
00000110: 31ff 3e3e 8b34 cebc 8137 09be 0c01 b3bd
00000120: 73a0 2abc 0b12 d6be cfc6 a63d bc8d c1bd
00000130: d8e2 093e 573e 55be a980 0e3e 15c7 513d
00000140: d04a 55be c561 043c cfdd 1d3e 1439 3ebc
00000150: 84b2 9dbc e5c1 aa3e d98f 323e 986d debd
00000160: a4dd 60be 0f05 28be 201e 89bd 76c2 063e
00000170: 1788 57bd cc77 84bd 5ead 193d abc3 30bc
00000180: 9407 483d ab7c 613e 5716 04be c651 363d
00000190: b590 bbbd 3855 efbc 5e4d 63be fc2b eb3d
000001a0: 0d83 03be 8701 25be 5ddc 18bd 9b40 373e
000001b0: 9c92 923e 69b3 0d3a db62 8dbe b5c6 d93d
000001c0: 4646 083e 945c b83d a6dc fabd 1650 34be
000001d0: a786 0b3d bae9 8dbe 9b15 6ebe d4c7 f03d
000001e0: 889d bc3d 9004 4dbe 3bc6 103d bcf9 db3b
000001f0: 0442 533d 8b35 7bbe 6dfd fabd 8ddf 2c3e
00000200: 6424 9c3d 9afb b23d 1a3f 063e e84f 80be
00000210: 996b b3bd 230d 86be 3edc 953d a2c4 b33d
00000220: de1f df3c 4adf c5bc 9753 58be 831b 483e
00000230: bc05 3f3d 7450 4ebe 141e cfbd 3698 81bd
00000240: f51e 4c3d 79a7 4cbe 0444 6fbe 1c55 a93d
00000250: cc70 5a3e 8d0a 383e d070 bc3d 92c1 9cbb
00000260: c9cc 81bd 8d5b a53d ade2 393d 007f 7ebe
00000270: d439 0abd 0818 b7bd 1c97 19be ea2c 28be
00000280: 564b 58be 1781 323e a409 3f3e 4167 65bd
00000290: 3691 11bd 9a64 673e a9a9 1f3e dcad 0f3e
000002a0: 2376 833d f139 47bd 1953 adbd 2633 033d
000002b0: 19e9 853d 482a 2dbe b694 c03d 8dd8 91be
000002c0: 1c2f 4f3d 8c0a 0c3e b23e 99bd 16d3 95bd
000002d0: 4d45 7dbe 689e 9cbd 0e3c 52bc 1b22 4a3d
000002e0: 20d7 8a3d 45bd b53d 5fbc aebd 6ae4 6c3e
000002f0: ea9d 2abe 0a0d 50be 2efc 013d 31f5 11be
00000300: 6ef3 b1bc 9b1f 08be 0226 63be 1548 c53e
00000310: a06c 8e3d 62bc 70bd 6bfb 41bd 3a50 093a
00000320: 2f58 443e 026e 24be 200f 3e3d c96e 803e
00000330: 5ecd 2b3e e12d 80be ba91 81bb a474 cdbd
00000340: df8c fb3d 5017 e13c ec94 bb3d 140d 5fbd
00000350: f38a 793d 3dc6 b03d 1644 393d 00f8 7f3e
00000360: e534 b1bc 013e 33be 48c1 813d c522 c2bb
00000370: eb7c 283e 87d2 533d 7df9 36be f9ea 54bd
00000380: 9e62 40be 6863 5ebe db08 103e 4a4c d0bd
00000390: 4e66 183e 3728 443e b249 a6bd ca5f 483d
000003a0: abcd 453e 867b 593e 8bd3 f63d 5f9d 7d3e
000003b0: 9360 3b3e 2f9b 3c3e 510d 713e d81c 6dbd
000003c0: 04fc 4b3e 6b4b 2fbe 8a78 5ebd 6f5f c6bc
000003d0: 9d38 553e 06bb ecbc e9ae 9ebd 79f0 06be
000003e0: 042e 85bd 2a85 37be ffc5 f4bd 566f 6d3e
000003f0: 2483 a83e c6b0 58be 7ccb 013e c457 3b3c
0.16660576 0.056329086 -0.08388711 -0.082141444 0.0326964 -0.16319127 0.013434132 -0.17083389
-0.1875357 -0.03296162 -0.31995818 -0.014366094 -0.09346895 0.17115526 0.085531995 0.029837467
0.046248704 0.13373174 -0.008571794 0.11591829 0.118457966 -0.21453266 0.13771671 -0.187539
0.10320374 -0.31043845 -0.15959817 -0.044204704 0.08176465 0.121964924 0.018033013 -0.028644511
0.1806657 -0.15199947 -0.12353179 0.014242606 0.1335372 0.052414447 0.23858838 0.11551173
0.011579544 -0.10573174 0.24074961 -0.2552609 -0.2327959 -0.11962731 0.13727373 0.16045463
0.10904899 -0.09919233 -0.04693457 -0.33272672 0.08317286 -0.036142047 0.031904705 -0.12711999
-0.22691439 -0.0683894 0.20254397 -0.25205493 -0.08012408 -0.24832271 0.14496139 0.06485772
-0.16632532 -0.30549967 -0.20646049 -0.016546685 0.18652035 -0.025171539 -0.1340008 -0.08740434
-0.010414231 -0.4181064 0.081433885 -0.09450862 0.1346544 -0.20824562 0.13916267 0.05121525
-0.2082932 0.008079951 0.15416645 -0.011610288 -0.019250162 0.33351055 0.17437686 -0.10860747
-0.21959549 -0.1640818 -0.06695199 0.13160118 -0.05262002 -0.06468162 0.03751885 -0.010788838
0.048835352 0.22020213 -0.12899147 0.04451158 -0.0915846 -0.02921544 -0.22197482 0.11482999
-0.1284296 -0.16113864 -0.03731953 0.17895739 0.2862748 0.00054054573 -0.27614483 0.106336035
0.13308057 0.09002033 -0.122491166 -0.17608675 0.03406396 -0.27717382 -0.2325043 0.11756864
0.09209734 -0.20021272 0.035345297 0.0067131203 0.05157663 -0.24532144 -0.122553684 0.16882153
0.076241285 0.087393954 0.13110009 -0.25060964 -0.08760757 -0.26181898 0.073173985 0.08777739
0.027236875 -0.024154324 -0.21125637 0.19541745 0.046636328 -0.20147878 -0.10113159 -0.0632786
0.04983421 -0.19985761 -0.2336579 0.082681865 0.21332091 0.17972775 0.09201205 -0.0047838176
-0.06337888 0.080741026 0.04538219 -0.24853134 -0.033746555 -0.089401305 -0.1499905 -0.16423383
-0.21122488 0.17432056 0.18656021 -0.056006674 -0.035538875 0.2259697 0.15592064 0.14031166
0.06419017 -0.04863924 -0.08463115 0.0320312 0.065386005 -0.1691066 0.09403364 -0.28485528
0.050582036 0.13675898 -0.07482661 -0.07315652 -0.24733467 -0.07647401 -0.012831701 0.04934893
0.06779313 0.08873991 -0.08532023 0.23134008 -0.16661802 -0.20317474 0.031734638 -0.1425369
-0.021722522 -0.13293307 -0.22182468 0.38531557 0.06954312 -0.058773406 -0.04735891 0.000523809
0.19174264 -0.1605759 0.046401143 0.25084522 0.1677756 -0.25035003 -0.0039541395 -0.10032013
0.122827284 0.027476937 0.09159264 -0.05445583 0.060923528 0.08631561 0.045230947 0.24996948
-0.021631667 -0.17504121 0.063356936 -0.005924555 0.16453902 0.051714446 -0.1786861 -0.0519819
-0.1878762 -0.21717608 0.14065878 -0.10170801 0.14882776 0.19155966 -0.08119525 0.048919477
0.19316737 0.21238527 0.12052067 0.24767064 0.18298559 0.18418573 0.23540236 -0.057888836
0.19920355 -0.17118613 -0.054314174 -0.024215428 0.20822378 -0.028897773 -0.07748205 -0.1317767
-0.065029174 -0.17921892 -0.11951827 0.23187003 0.32912552 -0.21161184 0.1267528 0.011434499

encoder.dcrnn_cells.0.update.linear.bias f4 [64]
00000000: d7dd ed3e cb71 bb3e fdec 103f 8a76 403f
00000010: c976 0f3f ed76 be3d 8bdf 2d3c 8313 183f
00000020: 8003 833e 9c12 493e 27bc e13e 13a6 223f
00000030: 7398 403f 58ed f13e e1ba 6a3f 7ac2 243f
00000040: f384 ba3d 44f1 6d3e daba 873e 0656 673e
00000050: 05e6 553f da24 033f 8eb2 bb3e 6710 5a3f
00000060: a75f bf3e 9199 903d 1320 fd3e 3b80 8c3e
00000070: 4101 493f 8196 703d 9f37 013f af38 283e
00000080: ede6 853e 76eb 8d3e 2a8a 743e 684a a63e
00000090: 1d5c 0f3f c01b d33e a974 a53e 5492 1a3f
000000a0: f732 423f 3840 be3e 8af7 423f 234e 0b3f
000000b0: 038c 393f e416 d13d 39f4 703f ec30 163f
000000c0: 568b 033e 5bad 2e3f 4ed3 653f 317b d13e
000000d0: ae8b ba3e cc75 5a3f 7387 1a3f 670b 553f
000000e0: 58fa ae3e f53f cb3e f203 153e 4a9b 5c3f
000000f0: 57fe 773e c31d 7e3e c0af 413f dac5 5d3f
0.46458313 0.36610255 0.56611615 0.75180876 0.56040627 0.09300027 0.010612379 0.5940477
0.25588608 0.19636005 0.4408886 0.6353466 0.7523262 0.4725139 0.91691405 0.6435925
0.09107389 0.23236567 0.26509744 0.22591409 0.83554107 0.51228106 0.36659664 0.8518128
0.37377664 0.070605405 0.49438533 0.27441582 0.7851754 0.05873728 0.50475496 0.16427873
0.26152745 0.27718705 0.2388083 0.32478642 0.5599993 0.4123211 0.32315567 0.6037953
0.75859016 0.3715837 0.76158965 0.544161 0.72479266 0.10209444 0.94122654 0.586684
0.12846121 0.6823327 0.8977555 0.409143 0.36434692 0.85335994 0.6036293 0.83220524
0.34175372 0.39697233 0.14552286 0.8617445 0.24218117 0.2481604 0.756588 0.8663002
