mo/TARGCN/model/model_para/PEMSD8/epoch_8.pth (torch, 597909 bytes, 48 tensors)

node_embeddings f4 [170, 2]
0.04297217 -0.23510821 0.12337945 -0.17529412 0.14054577 -0.0658348 0.032594625 -0.2479766
0.108768225 -0.21821924 0.0057532205 -0.25360358 0.110696286 -0.17641354 0.121251225 -0.04870584
0.158996 0.010020305 0.078990564 -0.3217122 0.011830869 -0.26717442 0.12919928 -0.06949976
0.17667693 -0.092408426 0.14967483 -0.11808847 0.14216769 -0.15476434 0.0038260776 -0.24542259
0.24046889 0.06860125 0.05532749 -0.20653223 0.19039103 -0.10262388 -0.039389193 -0.29305297
0.18088831 -0.06669737 0.13876064 -0.06828467 0.124965414 -0.19671926 0.13662484 -0.117740706
0.271225 0.14258322 0.124828555 -0.08823149 0.09632613 -0.15399009 0.09669928 -0.14982441
0.05367127 -0.21357 0.08274057 -0.10260876 0.096882515 -0.090884335 0.11102954 -0.073226534
0.2182913 -0.00027703223 0.15949455 -0.24473561 0.18012582 0.017346302 -0.078207545 -0.3374569
0.12392641 -0.107410654 0.094183475 -0.061645128 0.15382819 -0.06913395 0.16772787 -0.103063986
0.04151945 -0.15484455 0.12227676 -0.14557754 0.18850604 -0.01100746 0.113012895 -0.1636085
0.15880437 -0.048799936 0.1050695 -0.16980396 -0.035603475 -0.31822836 0.117576204 -0.116557784
0.01694275 -0.31050327 0.075607896 -0.07693345 0.1916714 -0.024450447 0.11065997 -0.10497978
0.020345844 -0.29151922 0.06838856 -0.16672394 0.14856404 -0.061128538 0.15474793 -0.12029737
0.17927562 -0.040766723 0.2024457 -0.0015867059 0.09660803 -0.066381805 0.08538214 -0.09015868
0.051163465 -0.13095361 0.019059122 -0.30776533 0.02268148 -0.16340497 -0.121036425 -0.40157115
0.12201544 -0.17408642 0.0864992 -0.099517494 0.06549423 -0.1168326 0.069703214 -0.10164233
0.14520551 -0.0072974795 0.14577542 -0.0782493 0.091239594 -0.179701 -0.040482793 -0.25502262
0.0868217 -0.08798292 0.14487055 -0.12929468 0.19179004 -0.024494724 0.1914824 -0.024693774
0.07930843 -0.12078776 -0.025083587 -0.23177455 0.051072992 -0.16270751 0.050134163 -0.045812
0.016285624 -0.31133708 0.15792094 -0.11758427 -0.024461547 -0.24460194 0.1571405 -0.11788571
0.13374282 -0.13924871 0.17810893 -0.007937751 -0.020465327 -0.22894241 0.002084431 -0.13426979
0.043525282 -0.124275625 0.17336525 -0.033422798 0.19104934 -0.025187008 0.19184513 -0.024501296
0.102028675 -0.14801797 0.12559187 -0.12517928 0.1802161 -0.0065346593 0.10438762 -0.08652216
-0.018463062 -0.18481657 0.20156927 -0.008063986 0.043395974 -0.13150655 -0.034677766 -0.21479727
0.0734996 -0.086560376 0.21125256 -0.014920905 0.26624906 0.14592803 0.27068472 0.14288707
0.15770112 -0.05308442 0.09135311 -0.037030376 0.038746048 -0.1709519 0.08053197 -0.08290034
0.13074102 -0.1468568 0.03050746 -0.15508887 -0.036287963 -0.19483797 0.113874145 -0.13012792
0.1572061 0.0085966615 0.14063983 0.01071084 0.06862112 -0.022144994 0.19173785 -0.024484262
0.16459829 -0.009756185 0.028378876 -0.18505628 0.042004563 -0.12290644 0.14464036 -0.08374369
0.12313421 -0.08253489 0.022684695 -0.3029019 0.018420344 -0.3084228 0.016951794 -0.31051993
0.14680459 -0.13522916 0.043059226 -0.26634842 0.050637797 -0.24645586 0.01493478 -0.25914732
00000000: 9603 303d 35c0 70be 5dae fc3d 4d80 33be
00000010: 3beb 0f3e 65d4 86bd f181 053d 94ed 7dbe
00000020: e0c1 de3d dd74 5fbe 8385 bc3b 54d8 81be
00000030: bcb4 e23d c0a5 34be 9052 f83d c67f 47bd
00000040: d9cf 223e 352c 243c cec5 a13d 76b7 a4be
00000050: 43d6 413c 16cb 88be d14c 043e e455 8ebd
00000060: ccea 343e a140 bdbd 5c44 193e 5ed8 f1bd
00000070: 6894 113e 8b7a 1ebe eebe 7a3b 0f50 7bbe
00000080: 7a3d 763e d07e 8c3d 149f 623d 2f7d 53be
00000090: def5 423e 782c d2bd 9056 21bd 0a0b 96be
000000a0: c93a 393e a198 88bd 4517 0e3e d5d8 8bbd
000000b0: deed ff3d c670 49be 62e7 0b3e 0a22 f1bd
000000c0: 01de 8a3e 5601 123e 1da6 ff3d b6b2 b4bd
000000d0: a246 c53d 94af 1dbe 460a c63d 926b 19be
000000e0: 68d6 5b3d 18b2 5abe e373 a93d 8b24 d2bd
000000f0: 576a c63d 9121 babd 7563 e33d cbf7 95bd
00000100: c187 5f3e a33e 91b9 8a52 233e f99b 7abe
00000110: e772 383e d519 8e3c 472b a0bd 27c7 acbe
00000120: 21cd fd3d 1efa dbbd 44e3 c03d 9a7f 7cbd
00000130: 2385 1d3e 1a96 8dbd dbc0 2b3e 3613 d3bd
00000140: 4c10 2a3d 928f 1ebe 3d6c fa3d 4712 15be
00000150: ba07 413e a258 34bc 4e73 e73d fd88 27be
00000160: 9d9d 223e 71e2 47bd ae2e d73d 17e1 2dbe
00000170: f3d4 11bd d4ee a2be cbcb f03d d9b5 eebd
00000180: 86cb 8a3c 49fa 9ebe 50d8 9a3d 498f 9dbd
00000190: 8245 443e 4e4c c8bc b2a1 e23d a4ff d6bd
000001a0: 54ac a63c 0242 95be 4d0f 8c3d aeb9 2abe
000001b0: 2c21 183e eb61 7abd 3e76 1e3e 785e f6bd
000001c0: 0794 373e 02fb 26bd ed4d 4f3e 04f9 cfba
000001d0: 6eda c53d 2ff3 87bd d5dc ae3d 1da5 b8bd
000001e0: c890 513d b418 06be e021 9c3c 6b93 9dbe
000001f0: 83ce b93c a253 27be f2e1 f7bd bc9a cdbe
00000200: 3be3 f93d b643 32be 7e26 b13d d4cf cbbd
00000210: d721 863d ee45 efbd 8fc0 8e3d db29 d0bd
00000220: c1b0 143e b21f efbb 2746 153e 2b41 a0bd
00000230: d3db ba3d 8a03 38be 49d1 25bd 5392 82be
00000240: 93cf b13d 6430 b4bd f258 143e d365 04be
00000250: 9c64 443e 29a9 c8bc f613 443e 994a cabc
00000260: 756c a23d 935f f7bd 187c cdbc 4f56 6dbe
00000270: ea31 513d cc9c 26be 7b59 4d3d 5da5 3bbd
00000280: 6e69 853c 9367 9fbe 07b6 213e 06d0 f0bd
00000290: 9563 c8bc ee78 7abe 70e9 203e 106e f1bd
000002a0: e1f3 083e 3797 0ebe 3062 363e 570d 02bc
000002b0: e7a6 a7bc e16f 6abe f39a 083b 057e 09be
000002c0: 9147 323d 3884 febd a986 313e 58e6 08bd
000002d0: 70a2 433e fc54 cebc 0d73 443e f1b6 c8bc
000002e0: 69f4 d03d 0692 17be 289b 003e ff2e 00be
000002f0: 928a 383e b220 d6bb 2dc9 d53d 8832 b1bd
00000300: d93f 97bc 8e40 3dbe 2d68 4e3e cf1e 04bc
00000310: fabf 313d a7a9 06be 460a 0ebd d1f3 5bbe
00000320: f586 963d 9146 b1bd 9752 583e d076 74bc
00000330: cc51 883e 286e 153e 3097 8a3e fd50 123e
00000340: 677c 213e 0c6f 59bd 5717 bb3d 2aad 17bd
00000350: 2db4 1e3d 040e 2fbe f2ed a43d a7c7 a9bd
00000360: f9e0 053e a161 16be c8ea f93c 9ecf 1ebe
00000370: b0a2 14bd 9b83 47be d936 e93d 4140 05be
00000380: a3fa 203e 03d9 0c3c e303 103e 857c 2f3c
00000390: 3b89 8c3d 6b69 b5bc ed56 443e 3893 c8bc
000003a0: 748c 283e 68d8 1fbc d17a e83c 657f 3dbe
000003b0: fa0c 2c3d 5fb6 fbbd 9a1c 143e d081 abbd
000003c0: ca2d fc3d 0d08 a9bd 41d5 b93c f515 9bbe
000003d0: 43e6 963c 98e9 9dbe 7dde 8a3c 78fc 9ebe
000003e0: f153 163e 8379 0abe df5e 303d d25e 88be
000003f0: 9469 4f3d ed5e 7cbe 02b1 743c f5ae 84be

encoder.dcrnn_cells.0.gate.weights_pool f4 [2, 65, 128]
-0.27387214 -0.13920471 0.24466625 0.08762073 0.034951326 0.00024942504 0.16524293 -0.46510905
0.07821846 0.04873532 -0.075309485 -0.15121216 0.14491655 -0.09390254 0.30516452 -0.011313544
0.022545258 0.04230735 0.08899948 0.044015385 0.12307159 -0.20327185 -0.13395639 -0.16981643
0.09874138 -0.020296428 0.07000218 0.08738381 -0.3948167 -0.03143727 -0.13690741 -0.25643447
-0.30274516 -0.08994238 0.0041067908 0.13579674 0.084331594 -0.044606257 0.018100075 0.1796971
-0.19974193 0.0070405696 0.29412064 -0.12589407 0.09609376 0.09286112 0.01082271 -0.09325963
-0.067986205 0.0060726935 0.15163842 0.07104509 -0.10528104 -0.23086645 -0.07259651 0.024416342
-0.018446019 -0.0447473 -0.080497086 -0.13522092 0.20291962 -0.005848583 -0.12231455 -0.13832617
-0.14860104 0.062019285 -0.15396628 -0.28402883 0.26155853 -0.20609866 -0.3169441 0.34313768
-0.14828798 -0.2995811 -0.053553455 -0.119128175 -0.035672475 0.09844472 -0.07109411 -0.28198013
-0.13882078 -0.13460068 -0.22833642 -0.33583888 0.03202999 0.11793334 0.15232302 0.06306911
-0.0583613 -0.2546112 -0.12505895 -0.1855324 0.38385448 -0.38836703 0.199197 -0.13310286
-0.10296763 -0.006276545 0.14537364 -0.28521425 0.02521359 -0.2716458 -0.23328714 0.022056483
-0.12770598 -0.36787045 -0.15620606 0.21526465 0.04042683 -0.29253235 -0.23911254 0.20132537
0.1693865 -0.14258415 -0.1481163 0.16823398 0.12839127 -0.022474652 -0.122115426 -0.06459209
0.011058971 -0.058370594 0.2106491 0.111168 0.19481975 -0.11990524 0.28776428 0.22024037
0.1768015 -0.3102973 0.010135236 -0.36754882 -0.05962258 0.0059864316 -0.08355443 0.08304351
-0.10991816 -0.06289115 -0.061581068 -0.15651707 -0.32561198 0.1353933 -0.32246792 0.025082463
-0.016040538 -0.29626706 -0.091165505 -0.058076084 -0.28744194 0.050145466 -0.07248915 -0.18315513
-0.29357684 -0.054115016 -0.05509275 -0.03181731 -0.2162744 -0.12887932 -0.22095747 0.022666138
0.043203067 -0.2951777 0.28185686 -0.23096606 -0.19681706 -0.107883915 -0.033896964 0.044587884
-0.32498878 -0.10605079 -0.03017419 -0.42233953 -0.032883964 0.019749422 -0.38770244 0.013153601
0.0180633 0.055073112 0.042577103 -0.06073536 0.07423185 0.03994238 -0.13283437 -0.30796096
-0.17139876 -0.14767711 -0.045406263 0.07587051 -0.30059215 -0.011103145 -0.14499262 0.06734528
0.010485312 0.06592307 -0.02030536 -0.06399597 -0.14262839 0.09228547 -0.014745035 -0.03999339
0.116584145 -0.029264085 0.12757559 -0.012489836 -0.07203195 -0.045306154 0.06623007 0.068349205
0.10958115 -0.09811038 0.1077954 0.06955085 0.052250035 -0.023103373 -0.054602157 -0.22922044
0.039274033 0.042846303 0.13106455 0.10420334 -0.028068796 0.1025252 -0.071526565 -0.06633329
-0.034813493 0.065829925 -0.01670683 -0.06967346 0.013097557 0.08325248 0.08151902 -0.015257082
-0.15653586 -0.032932773 -0.17639574 0.05717543 -0.04836151 0.022960803 -0.04090737 0.022138525
-0.005213604 -0.03314735 -0.028043518 -0.054895643 -0.0041850787 -0.12508295 -0.06988534 -0.009132235
0.061870616 0.043811988 -0.024351677 0.006017691 0.073090345 0.010255791 0.003972263 -0.015693324
00000000: f838 8cbe ae8b 0ebe ca89 7a3e 7f72 b33d
00000010: 1f29 0f3d 43c5 8239 7135 293e c622 eebe
00000020: 0031 a03d b09e 473d dc3b 9abd 5cd7 1abe
00000030: 0165 143e fa4f c0bd 863e 9c3e 715c 39bc
00000040: d5b0 b83c 794a 2d3d 5c45 b63d 7a49 343d
00000050: f50c fc3d 7f26 50be dd2b 09be 5ce4 2dbe
00000060: ec38 ca3d b244 a6bc 4e5d 8f3d 48f6 b23d
00000070: 6a25 cabe 5ec4 00bd 7531 0cbe 614b 83be
00000080: 6a01 9bbe b633 b8bd 4292 863b 4d0e 0b3e
00000090: 0bb6 ac3d 0db5 36bd 9c46 943c 8402 383e
000000a0: 2689 4cbe 94b4 e63b fb96 963e 60ea 00be
000000b0: cecc c43d f92d be3d bc51 313c e8fe bebd
000000c0: 5a3c 8bbd 72fd c63b 1a47 1b3e 1780 913d
000000d0: 969d d7bd 4168 6cbe 7bad 94bd c804 c83c
000000e0: 1b1c 97bc f248 37bd a8db a4bd 5a77 0abe
000000f0: 29ca 4f3e 78a5 bfbb 0d80 fabd 60a5 0dbe
00000100: df2a 18be ef07 7e3d 56a9 1dbe 3a6c 91be
00000110: 00eb 853e 870b 53be 7f46 a2be beaf af3e
00000120: ced8 17be b262 99be de5a 5bbd 79f9 f3bd
00000130: 4d1d 12bd 639d c93d ca99 91bd b35f 90be
00000140: 0927 0ebe c3d4 09be 06d1 69be 13f3 abbe
00000150: e131 033d 0987 f13d 91fa 1b3e 612a 813d
00000160: 420c 6fbd 665c 82be 740f 00be 35fc 3dbe
00000170: 9388 c43e 0bd8 c6be 4cfa 4b3e 1e4c 08be
00000180: b1e0 d2bd 7aab cdbb d4dc 143e 9a07 92be
00000190: bb8c ce3c 2915 8bbe d3e2 6ebe ccaf b43c
000001a0: 5bc5 02be 8459 bcbe 7bf4 1fbe 566e 5c3e
000001b0: 9b96 253d cdc6 95be ebd9 74be 3d28 4e3e
000001c0: a873 2d3e 9401 12be cdab 17be 8745 2c3e
000001d0: 0079 033e c31c b8bc a717 fabd dc48 84bd
000001e0: b030 353c 0116 6fbd 66b4 573e 0cac e33d
000001f0: d47e 473e e190 f5bd d755 933e b186 613e
00000200: 740b 353e 4adf 9ebe 430e 263c 5c2f bcbe
00000210: ce36 74bd d429 c43b 961e abbd b712 aa3d
00000220: c61c e1bd 13cd 80bd 6e3c 7cbd 0346 20be
00000230: 9db6 a6be 8ba4 0a3e 841a a5be bd79 cd3c
00000240: 7267 83bc 51b0 97be fbb4 babd 30e1 6dbd
00000250: 972b 93be 5565 4d3d 3175 94bd 058d 3bbe
00000260: b44f 96be b5a7 5dbd efa8 61bd de52 02bd
00000270: 0977 5dbe f1f8 03be ad42 62be 56ae b93c
00000280: b3f5 303d 8821 97be 8b4f 903e 5e82 6cbe
00000290: 698a 49be 3ef2 dcbd 8bd7 0abd c9a1 363d
000002a0: ee64 a6be 2831 d9bd dd2f f7bc e33c d8be
000002b0: 56b1 06bd 8ac9 a13c ef80 c6be 3482 573c
000002c0: 7cf9 933c 5894 613d 5465 2e3d a4c5 78bd
000002d0: de06 983d 9f9a 233d bc05 08be 0fad 9dbe
000002e0: 2883 2fbe ab38 17be ebfb 39bd ff61 9b3d
000002f0: 37e7 99be f7e9 35bc f278 14be 52ec 893d
00000300: 96ca 2b3c ad02 873d 6d57 a6bc 5210 83bd
00000310: 2d0d 12be 2a00 bd3d 2995 71bc 1cd0 23bd
00000320: abc3 ee3d 3cbb efbc 2da3 023e 2ba2 4cbc
00000330: 7d85 93bd f292 39bd a2a3 873d abfa 8b3d
00000340: 156c e03d 18ee c8bd d6c3 dc3d ad70 8e3d
00000350: 2204 563d 4943 bdbc 83a6 5fbd c3b8 6abe
00000360: cfdd 203d 9b7f 2f3d c935 063e 9068 d53d
00000370: 88f0 e5bc bbf8 d13d 857c 92bd bfd9 87bd
00000380: 9898 0ebd d7d1 863d c3dc 88bc f6b0 8ebd
00000390: 2397 563c 4780 aa3d 72f3 a63d d7f8 79bc
000003a0: f04a 20be 84e4 06bd 16a1 34be c930 6a3d
000003b0: b816 46bd 4b18 bc3c 7d8e 27bd da5b b53c
000003c0: e1d6 aabb 84c5 07bd 85bb e5bc 41da 60bd
000003d0: fc22 89bb bf15 00be 0c20 8fbd 5f9f 15bc
000003e0: 0b6c 7d3d 3374 333d 2b7d c7bc 0d30 c53b
000003f0: 64b0 953d e807 283c c229 823b 498f 80bc

encoder.dcrnn_cells.0.gate.bias_pool f4 [2, 128]
0.3625649 -0.6351211 0.170167 -0.16391872 0.36561617 0.077096105 -0.03906506 -0.06714422
0.030985933 -0.103785664 0.11431396 -0.1601782 -0.37897626 0.07390577 -0.07352354 -0.0147755565
-0.06184943 -0.18422344 0.055014044 -0.15497531 -0.04388657 -0.045737803 0.09674787 -0.2858235
-0.050679248 -0.06776641 -0.09372186 0.14530289 0.06487549 -0.066492334 -0.08432769 0.48965257
0.07241656 -0.18159473 0.21985345 -0.24646807 -0.36545512 -0.2884294 -0.051217802 -0.119549826
-0.05235143 0.16764736 -0.063299894 -0.0393806 0.10262103 0.110431656 -0.42229703 0.124164425
0.159382 0.25681385 0.188653 0.08376654 0.22374842 0.102348536 -0.23652928 -0.2842383
-0.22543722 0.19414395 -0.020026447 0.195041 -0.063744925 0.054966554 -0.058241133 0.0062335255
0.10933231 0.043373045 0.08771064 -0.24828513 -0.29810616 0.17331256 -0.16529013 -0.35243014
0.19249447 -0.17399846 0.13033442 -0.037759233 0.039576784 0.052732274 0.14828628 0.038608067
-0.03328558 -0.12158672 -0.050196845 -0.10763706 -0.045789532 -0.19506192 -0.056879602 -0.035963606
0.08629346 0.027708467 0.20823455 0.06279086 -0.1338327 -0.051799517 0.21333598 0.014710295
0.05375269 -0.031295188 -0.055382747 -0.22768219 -0.08429718 -0.04798089 0.1150785 -0.16354392
-0.059499398 -0.2837334 -0.14164236 -0.116257474 -0.25842607 -0.17779113 -0.24204792 0.16673853
-0.09373991 -0.29988676 -0.22723854 0.05804885 -0.24193709 -0.1127363 0.13349721 0.03993759
0.19881596 -0.10755844 0.022772916 -0.14021046 -0.04129418 0.18835133 -0.20559925 0.13597953
-0.28006548 0.47950983 -0.05074947 0.3656936 -0.2592974 0.09618745 -0.012273734 0.4897223
0.16074038 -0.18521018 -0.24915665 0.33311084 0.34182587 0.0084178485 0.39105126 -0.11015428
-0.0867613 0.084941216 -0.1716555 -0.14091164 -0.02792292 -0.047772925 0.007484003 0.25384936
0.34321794 0.07745763 -0.19029385 0.08103077 0.14264347 -0.08783984 0.079273246 0.2085705
-0.21170495 0.23396617 -0.14879602 0.31178108 0.2940703 0.111356534 -0.2514344 -0.049791265
0.18799023 -0.117722556 0.1262888 0.031653013 -0.103986666 0.09792882 -0.023108574 -0.25539988
-0.1531564 -0.07763625 -0.16401197 0.11540964 -0.003691854 -0.20691958 0.23183265 0.13244504
-0.022639882 -0.0669264 -0.04154987 -0.2730047 0.1269395 0.03919011 0.17760639 0.14351772
0.0062240837 -0.17971085 -0.12248415 -0.2176284 0.11712848 0.055379387 0.12754194 0.12587193
0.0065592946 0.15514512 -0.25474915 0.0370336 -0.1962233 0.22203767 0.0477691 -0.13556993
-0.21768478 0.2540991 0.263346 -0.14026153 0.13047771 0.36513132 -0.11337812 0.33085743
-0.18011403 0.0076391078 0.014642014 0.06826531 -0.07316899 -0.046854455 0.0035144843 -0.1934727
0.30065078 -0.056662213 0.2725707 0.18592547 -0.14721745 -0.020387774 -0.039309166 -0.032624196
0.12312652 -0.017157126 -0.22580542 -0.23288527 0.048216462 0.2333957 0.10845979 0.095712215
0.25838837 0.4344327 0.019036263 -0.11511459 0.2723787 0.118206 -0.09042797 0.013223683
0.069674335 0.0003205633 0.24260335 0.015377329 -0.10463153 -0.11065682 -0.07719266 0.11237039
00000000: 1ba2 b93e 4c97 22bf 4240 2e3e 4fda 27be
00000010: 0b32 bb3e 90e4 9d3d af02 20bd e982 89bd
00000020: 36d6 fd3c 948d d4bd 701d ea3d c105 24be
00000030: 2d09 c2be e95b 973d 8293 96bd 2d15 72bc
00000040: d455 7dbd 12a5 3cbe 6856 613d d9b1 1ebe
00000050: 67c2 33bd 9057 3bbd bf23 c63d 7557 92be
00000060: 0b95 4fbd 1ec9 8abd 3ff1 bfbd 48ca 143e
00000070: 71dd 843d 222d 88bd ffb3 acbd beb3 fa3e
00000080: 224f 943d f8f3 39be 4321 613e 2062 7cbe
00000090: ef1c bbbe 05ad 93be c2c9 51bd 8ad6 f4bd
000000a0: 746e 56bd c0ab 2b3e 60a3 81bd 8d4d 21bd
000000b0: f92a d23d fe29 e23d 5137 d8be eb49 fe3d
000000c0: 0935 233e 1b7d 833e 412e 413e cb8d ab3d
000000d0: 4e1e 653e 1c9c d13d bb34 72be af87 91be
000000e0: 04d9 66be accd 463e 810e a4bc d4b8 473e
000000f0: b38c 82bd 9c24 613d 418e 6ebd 9a42 cc3b
00000100: 9ee9 df3d efa7 313d a3a1 b33d 753e 7ebe
00000110: 5fa1 98be d978 313e d141 29be b971 b4be
00000120: 451d 453e a72c 32be 6376 053e 6da9 1abd
00000130: 441b 223d ccfd 573d 5cd8 173e 7e23 1e3d
00000140: 7656 08bd 7502 f9bd 359b 4dbd d270 dcbd
00000150: ce8d 3bbd 50be 47be 96fa 68bd 934e 13bd
00000160: a0ba b03d defc e23c 703b 553e 7f98 803d
00000170: 700b 09be bb2b 54bd bf74 5a3e 7303 713c
00000180: c82b 5c3d 622f 00bd 05d9 62bd 8525 69be
00000190: 00a4 acbd 9c87 44bd 47ae eb3d 0f78 27be
000001a0: a4b5 73bd 8145 91be b20a 11be 6618 eebd
000001b0: 6c50 84be e10e 36be 69db 77be 81bd 2a3e
000001c0: b6fa bfbd c28a 99be 38b1 68be a2c4 6d3d
000001d0: 5bbe 77be 4ae2 e6bd 7eb3 083e 9995 233d
000001e0: 6996 4b3e 9947 dcbd 448e ba3c 5593 0fbe
000001f0: 1624 29bd 2cdf 403e 9c88 52be 383e 0b3e
00000200: be64 8fbe 5082 f53e adde 4fbd 313c bb3e
00000210: a1c2 84be edfd c43d c617 49bc e2bc fa3e
00000220: 2099 243e bda7 3dbe ec22 7fbe 818d aa3e
00000230: cd03 af3e 04eb 093c df37 c83e 9198 e1bd
00000240: e9af b1bd a9f5 ad3d 76c6 2fbe 244b 10be
00000250: 9cbe e4bc 8bad 43bd 5e3c f53b 8bf8 813e
00000260: 43ba af3e 1ba2 9e3d 64dc 42be 76f3 a53d
00000270: 2111 123e 60e5 b3bd 035a a23d 8193 553e
00000280: 2fc9 58be d494 6f3e fc5d 18be c5a1 9f3e
00000290: 6290 963e e50e e43d 02bc 80be edf1 4bbd
000002a0: 8380 403e 8618 f1bd da51 013e 97a6 013d
000002b0: f6f6 d4bd e88e c83d 314e bdbc c6c3 82be
000002c0: 08d5 1cbe c1ff 9ebd c1f2 27be e45b ec3d
000002d0: 08f3 71bb bae2 53be 8a65 6d3e ac9f 073e
000002e0: 4677 b9bc b510 89bd 3230 2abd 46c7 8bbe
000002f0: 6efc 013e cf85 203d 73de 353e 4ff6 123e
00000300: 66f3 cb3b 1f06 38be f8d8 fabd fbd9 5ebe
00000310: 0ee1 ef3d 7fd5 623d 5b9a 023e 92e4 003e
00000320: 5aef d63b 5dde 1e3e 7b6e 82be 8bb0 173d
00000330: c3ee 48be d85d 633e 88a9 433d d8d2 0abe
00000340: c2e8 5ebe 4719 823e 49d5 863e b8a0 0fbe
00000350: f39b 053e 7ef2 ba3e ca32 e8bd 2566 a93e
00000360: d06f 38be 7b51 fa3b 0fe5 6f3c afce 8b3d
00000370: a0d9 95bd 75ea 3fbd 4353 663b b51d 46be
00000380: e6ee 993e a316 68bd 638e 8b3e 3f63 3e3e
00000390: 2cc0 16be 4304 a7bc a602 21bd f3a0 05bd
000003a0: c229 fc3d 1a8d 8cbc 8939 67be 7a79 6ebe
000003b0: a07e 453d 48ff 6e3e 2b20 de3d c404 c43d
000003c0: 7b4b 843e f66d de3e f0f1 9b3c 33c1 ebbd
000003d0: 3975 8b3e fd15 f23d 4d32 b9bd 26a8 583c
000003e0: 6bb1 8e3d 4711 a839 036d 783e 31f1 7b3c
000003f0: 0e49 d6bd 0ba0 e2bd 2f17 9ebd 7222 e63d

encoder.dcrnn_cells.0.gate.linear.weight f4 [128, 65]
-0.18463032 0.12320237 0.05698349 0.029863462 0.15136516 0.11694123 0.25052795 0.4208893
-0.006047605 0.091971256 0.40111324 0.04547662 0.056468774 0.33568212 -0.017916886 -0.0077666063
0.12744969 -0.70660526 -0.07128211 -0.21255784 -0.033967648 0.08187709 0.23470604 0.17459229
0.18438642 0.08160963 0.20639805 0.13485864 -0.11143668 0.072124474 0.43544996 0.15631978
-0.17288762 -0.020818943 0.21947877 -0.056143675 -0.16639514 0.10081769 0.032975256 0.25318483
0.22584645 0.18264422 -0.16379695 0.056952935 0.18623985 0.023511585 0.12523107 0.09588125
-0.09066658 0.06447983 0.15886733 0.37297752 -0.059026886 0.25108796 0.19203195 0.23601066
0.2757989 -0.22958942 -0.16669732 0.15107152 0.25356746 0.090672396 -0.06315764 0.20834678
0.04342243 -0.053144913 -0.06251968 0.1848783 -0.22688071 -0.11004433 -0.071678214 -0.14721473
-0.25556386 -0.12503992 0.104265206 -0.19877392 0.26872602 0.1288185 -0.063539974 -0.010107245
0.034701735 -0.2309714 -0.005949529 0.09012816 -0.0026053868 0.040422883 -0.05298399 0.054895066
-0.1982237 -0.15297678 -0.012068596 -0.19548397 0.00323477 0.011988462 -0.18894212 -0.15792799
-0.2033027 -0.061940398 0.07460101 -0.05810225 0.08894941 0.012466934 -0.1753508 0.27542147
-0.10477066 -0.018165128 -0.20403829 0.058107365 0.082620926 -0.13098261 -0.06612643 -0.13367672
-0.21392906 -0.012431881 0.14984085 -0.10810389 -0.15090281 -0.07167569 0.06076614 -0.07500491
-0.13106145 0.070775986 0.18505453 -0.14730373 -0.24599802 -0.15926959 -0.021159004 0.2025792
0.076856606 -0.21438782 0.30302358 -0.13642287 -0.06316446 -0.15362705 0.20923711 -0.0896807
-0.06429957 -0.11089158 0.21869461 0.044161092 -0.044327114 0.05697285 -0.0006953456 0.009550042
0.22736382 0.06734833 -0.11872713 0.036018867 0.053071894 0.05552287 0.22666301 0.08201956
-0.07021553 -0.10513655 0.15355621 -0.13485572 -0.092168555 -0.024769625 -0.25525883 -0.09781442
-0.22068784 0.1282871 0.05143435 -0.118466035 -0.04834871 0.32650906 0.26848307 0.081724316
0.22405654 0.19551075 0.17721072 -0.00853935 -0.11993763 -0.09480684 0.117055885 0.004336983
0.14579119 -0.04319517 0.104833424 0.04040513 0.14392312 -0.057310104 -0.18173692 -0.13495825
-0.117654294 -0.07778806 0.11053959 0.10640384 -0.14785042 -0.20967261 -0.13235211 -0.29833058
-0.19576856 0.04816467 0.095926695 -0.049521152 -0.26863784 0.09014603 -0.07700312 0.046269756
-0.22049749 -0.1399916 -0.07540139 -0.018747495 0.23065141 -0.26806468 -0.104900815 0.009933049
0.05724023 -0.18322931 0.18746002 -0.18710677 0.07484235 0.109659 0.3561521 0.31553504
0.0682938 0.105346106 0.15216821 -0.03200268 -0.055915564 -0.103909515 -0.19282697 -0.16279241
-0.18835266 -0.14052096 0.20067848 0.43764567 -0.3225386 0.19940133 -0.12486123 0.19659892
-0.021643618 0.2687738 -0.16325349 -0.05389975 0.02541999 0.2390791 0.1519623 -0.024679381
-0.002927758 -0.2937426 0.21528375 -0.19371712 -0.085266344 -0.21786626 -0.17649998 0.04780742
-0.2985128 0.08398084 -0.046942294 0.12577377 0.35157022 -0.076141804 -0.13578413 -0.24192274
00000000: bb0f 3dbe 8651 fc3d 8567 693d 38a4 f43c
00000010: 78ff 1a3e e27e ef3d 3345 803e cd7e d73e
00000020: fd2a c6bb 6d5b bc3d b75e cd3e b145 3a3d
00000030: cd4b 673d 87de ab3e 6fc6 92bc 047f febb
00000040: 2c82 023e 15e4 34bf 5bfc 91bd c3a8 59be
00000050: a921 0bbd 2daf a73d c856 703e 52c8 323e
00000060: cbcf 3c3e f322 a73d 035a 533e 6218 0a3e
00000070: ea38 e4bd ffb5 933d 4cf3 de3e 4b12 203e
00000080: 7409 31be 7d8c aabc 0bbf 603e e9f6 65bd
00000090: 7d63 2abe 8179 ce3d 1011 073d 71a1 813e
000000a0: 4b44 673e 1607 3b3e 63ba 27be 7b47 693d
000000b0: a9b5 3e3e 5e9b c03c 933c 003e 645d c43d
000000c0: 66af b9bd 000e 843d 1eae 223e e9f6 be3e
000000d0: 2dc6 71bd 9a8e 803e 06a4 443e c7ac 713e
000000e0: 8335 8d3e 7d19 6bbe b4b2 2abe 7eb2 1a3e
000000f0: 98d3 813e 73b2 b93d cb58 81bd dc58 553e
00000100: b8db 313d 7bae 59bd 510a 80bd bd50 3d3e
00000110: 6b53 68be ec5e e1bd 07cc 92bd 75bf 16be
00000120: 44d9 82be 770a 00be ff88 d53d 648b 4bbe
00000130: 7596 893e ffe8 033e 3f21 82bd dc98 25bc
00000140: 6823 0e3d c483 6cbe 44f4 c2bb 1d95 b83d
00000150: 23bf 2abb 7792 253d be05 59bd a6d9 603d
00000160: 27fb 4abe f2a5 1cbe 5cbb 45bc f32c 48be
00000170: 6ffe 533b 416b 443c 0b7a 41be e0b7 21be
00000180: 952e 50be 37b5 7dbd 6ac8 983d a0fc 6dbd
00000190: 1c2b b63d 1c42 4c3c 298f 33be 0b04 8d3e
000001a0: 0092 d6bd 09cf 94bc 6aef 50be fd01 6e3d
000001b0: 2935 a93d 4e20 06be 4b6d 87bd 8de2 08be
000001c0: 3810 5bbe 17af 4bbc e16f 193e 9365 ddbd
000001d0: 4486 1abe b4ca 92bd ebe5 783d 2d9c 99bd
000001e0: f934 06be 00f3 903d ef7e 3d3e cad6 16be
000001f0: e8e6 7bbe 9117 23be a655 adbc ec70 4f3e
00000200: ff66 9d3d 7b88 5bbe e825 9b3e 70b2 0bbe
00000210: 5e5c 81bd 6950 1dbe 4142 563e 84aa b7bd
00000220: 7eaf 83bd 201b e3bd 7bf1 5f3e 43e2 343d
00000230: 5990 35bd 5d5c 693d da47 36ba c877 1c3c
00000240: 10d2 683e eced 893d 3627 f3bd 8588 133d
00000250: ea61 593d f36b 633d 591a 683e dff9 a73d
00000260: 29cd 8fbd d551 d7bd d73d 1d3e 9e17 0abe
00000270: dec2 bcbd abe9 cabc 49b1 82be ed52 c8bd
00000280: fefb 61be b25d 033e d3ac 523d 529e f2bd
00000290: 4c09 46bd 322c a73e 9d76 893e 145f a73d
000002a0: 146f 653e f833 483e ba76 353e a1e8 0bbc
000002b0: dca1 f5bd 172a c2bd ffba ef3d 401d 8e3b
000002c0: 494a 153e 6bed 30bd e8b2 d63d d97f 253d
000002d0: 9560 133e 00be 6abd 3e19 3abe 7f32 0abe
000002e0: bcf4 f0bd 594f 9fbd 9562 e23d 42ea d93d
000002f0: 1a66 17be 6bb4 56be 5087 07be c9be 98be
00000300: 8e77 48be 5148 453d 3775 c43d b1d6 4abd
00000310: e68a 89be 7b9e b83d d0b3 9dbd 5b85 3d3d
00000320: 18ca 61be f559 0fbe 0b6c 9abd 5994 99bc
00000330: e22f 6c3e c63f 89be 3dd6 d6bd 3abe 223c
00000340: bb74 6a3d 77a0 3bbe 85f5 3f3e eb98 3fbe
00000350: f246 993d e694 e03d 9159 b63e cf8d a13e
00000360: 9fdd 8b3d b3bf d73d fcd1 1b3e 3e15 03bd
00000370: b807 65bd 83ce d4bd 6f74 45be 0eb3 26be
00000380: 85df 40be bae4 0fbe a97e 4d3e 1813 e03e
00000390: c823 a5be dd2f 4c3e 3fb7 ffbd 3a51 493e
000003a0: f54d b1bc b89c 893e ec2b 27be fcc5 5cbd
000003b0: 953d d03c 27d1 743e 019c 1b3e 6a2c cabc
000003c0: a1df 3fbb 6e65 96be 5873 5c3e c85d 46be
000003d0: 1fa0 aebd 5518 5fbe 69bc 34be b7d1 433d
000003e0: abd6 98be 26fe ab3d 9046 40bd d7ca 003e
000003f0: 0301 b43e 3cf0 9bbd ff0a 0bbe 98ba 77be

encoder.dcrnn_cells.0.gate.linear.bias f4 [128]
0.51780117 0.00632828 0.1509505 -0.09561667 0.9497118 0.5354295 0.43708232 0.40261316
0.7971656 0.21091862 0.77161276 0.5309465 0.17353748 0.5063946 0.5790017 0.9900213
0.8240955 0.3788942 0.18509977 0.66916984 0.3320591 0.55800784 0.90933555 0.35366836
-0.015274885 0.47464877 0.78707236 0.8255714 0.4356864 0.4430498 0.81434304 -0.13962543
0.343222 0.43883854 0.23737235 0.6019182 0.41688383 0.03812403 0.40408632 0.55270565
-0.0019936718 0.0047764773 0.21118343 0.24441683 0.8629748 0.62853885 0.41028684 0.99807423
0.8754433 0.824889 0.50595224 0.4875313 0.4105702 1.0471276 0.3680083 0.46957222
0.5775209 0.6621041 0.20632328 0.9112678 0.7149935 0.26670688 0.10497989 0.9738178
0.38320154 0.31015265 0.5766517 0.31523147 0.5956878 1.0511016 0.85969496 0.6463266
0.46715227 0.77762085 1.1607913 0.09731159 0.19430716 0.48913327 -0.027840659 0.5220188
0.62228984 0.68480694 0.86244226 0.63923717 0.040388353 -0.058395673 0.6473444 0.19658008
0.08764066 0.36516485 0.7699697 0.5225581 -0.19141072 0.86099035 0.6629796 0.6747042
0.9034513 0.5886841 0.122468546 0.5867604 0.39919582 0.29913872 0.5759756 0.31276897
0.91222113 0.21433957 0.8382165 0.061472367 0.4317698 0.16498934 0.51980156 1.0256542
0.60692436 0.084765114 0.08091024 0.24106476 0.5769164 0.4810623 0.6583861 0.12245016
0.85779095 0.7980851 0.089991 0.5987644 0.33956593 0.46491823 -0.043344952 0.6177236
00000000: 9e8e 043f 765d cf3b c592 1a3e acd2 c3bd
00000010: 5020 733f e811 093f 41c9 df3e 5023 ce3e
00000020: 0b13 4c3f 0dfb 573e 6a88 453f 1cec 073f
00000030: cfb3 313e 14a3 013f 7539 143f 0972 7d3f
00000040: ecf7 523f 6cfe c13e cb8a 3d3e b74e 2b3f
00000050: a603 aa3e 9ad9 0e3f 37ca 683f 0514 b53e
00000060: 8343 7abc 2a05 f33e 937d 493f a658 533f
00000070: 4a12 df3e 6cd7 e23e c978 503f f8f9 0ebe
00000080: cbba af3e 72af e03e bd11 733e 5017 1a3f
00000090: cc71 d53e f127 1c3d 67e4 ce3e 1e7e 0d3f
000000a0: 43a8 02bb ff83 9c3b 7840 583e 6848 7a3e
000000b0: ebeb 5c3f ece7 203f 1e11 d23e cb81 7f3f
000000c0: 0d1d 603f ed2b 533f 1686 013f b49d f93e
000000d0: 4236 d23e 4708 863f 956b bc3e c56b f03e
000000e0: 69d8 133f a87f 293f 6946 533e d948 693f
000000f0: d009 373f ce8d 883e b2ff d63d 204c 793f
00000100: fe32 c43e 54cc 9e3e 729f 133f 0566 a13e
00000110: ff7e 183f 7f8a 863f f814 5c3f a975 253f
00000120: 952e ef3e 2912 473f cf94 943f 4d4b c73d
00000130: 75f8 463e ad6f fa3e 1812 e4bc 06a3 053f
00000140: 634e 1f3f 824f 2f3f 04c9 5c3f 0ca5 233f
00000150: 426e 253d 4d30 6fbd 5db8 253f 4a4c 493e
00000160: f27c b33d e3f6 ba3e bc1c 453f 5ec6 053f
00000170: 2c01 44be dd69 5c3f 08b9 293f 6ab9 2c3f
00000180: 9648 673f 00b4 163f cad0 fa3d ee35 163f
00000190: 6563 cc3e b628 993e 2373 133f 4123 a03e
000001a0: 5387 693f d57b 5b3e 5b95 563f 73ca 7b3d
000001b0: ee10 dd3e f7f2 283e b711 053f a348 833f
000001c0: 655f 1b3f 5599 ad3d 45b4 a53d aed9 763e
000001d0: cbb0 133f cc4d f63e fe8b 283f 26c7 fa3d
000001e0: 3098 5b3f 4e4f 4c3f 344d b83d a048 193f
000001f0: 96db ad3e c309 ee3e 7a8a 31bd 2223 1e3f

encoder.dcrnn_cells.0.update.weights_pool f4 [2, 65, 64]
0.25653258 -0.4307886 0.23938367 0.22728066 -0.16060951 -0.15814592 -0.20151079 0.23955233
0.18834312 -0.16428943 0.18593782 0.117926575 0.21509865 -0.05586038 -0.37396523 -0.15081719
0.13155407 0.25019562 0.06264347 0.05611734 -0.30937445 0.17147237 0.08872755 0.2629402
-0.21698543 -0.17023487 -0.20909812 0.09454615 0.3833156 -0.20675458 0.23735294 -0.15775715
0.29693112 0.33922175 -0.06618721 0.19207484 0.17686561 0.19618565 -0.06857789 -0.046268366
0.26042128 0.11718494 0.16809334 0.2822606 -0.10710872 -0.17472991 0.34087607 0.0071841353
-0.381718 -0.16323476 -0.1843664 -0.3184894 0.018337514 0.15385021 0.36190245 -0.5266029
0.17019191 0.20263296 -0.2105454 0.08100677 -0.5912715 0.1330098 0.30657673 -0.056832787
-0.0381325 -0.12647888 -0.10277921 -0.058601495 -0.028365955 0.006863893 0.076808125 0.11189159
-0.042234953 0.035822082 -0.089553386 0.0153543735 -0.06233172 -0.024816388 -0.074888565 0.017322697
-0.034693107 -0.07809311 0.006647737 -0.02396798 -0.02997968 -0.05890294 -0.13334948 -0.030793754
-0.05172265 0.020422455 -0.026448539 -0.06031778 -0.07409451 0.04502088 -0.043580502 0.03677573
-0.015591538 -0.0488707 0.006267893 -0.11732583 -0.07769274 -0.08533059 0.011915079 -0.032167833
-0.08695795 -0.06807495 -0.09134592 -0.07804473 -0.051453114 0.04425956 -0.060240515 -0.039562408
-0.09490501 0.09724697 -0.025587488 -0.0612928 -0.0046440535 -0.046953764 -0.06145533 -0.056416687
-0.004853263 -0.06268996 -0.09999791 -0.034948632 -0.064007 -0.050584167 -0.03030092 -0.02444249
-0.24462573 -0.0148820765 0.0717079 0.18237431 0.032221705 -0.11599204 -0.100435495 -0.08497965
0.12274743 -0.16260625 -0.17548825 0.05102498 0.204925 0.14191164 -0.013529854 -0.077097215
0.020309635 0.163084 0.004361026 0.036860432 -0.07153565 0.039129324 0.13025938 0.13394998
-0.10215944 -0.08839659 -0.059977546 0.078960106 0.10080977 -0.044888116 0.08137426 0.081450276
-0.6124697 0.14226799 -0.021909682 0.09893992 0.12942813 0.06523845 0.0001669094 0.21092303
0.11768101 0.08687211 0.13992074 0.12864837 -0.017657358 -0.12722531 0.14952229 0.15127476
0.34861982 0.014727402 -0.052506488 -0.02907961 -0.01351254 -0.06544499 0.061575156 0.051542554
0.12575744 0.064865746 -0.049875733 0.21942003 -0.13981266 -0.07758317 0.05318914 0.119779594
0.0073179174 -0.11420962 -0.03516786 0.1143306 -0.10436055 0.060051624 -0.062293544 0.10486452
0.13723561 -0.08620713 0.12633587 0.06057658 -0.021097293 -0.051605914 0.18101798 0.06855446
-0.06469063 0.1303512 0.18705499 -0.0058015645 -0.05767694 -0.041446675 0.05457874 -0.013064068
0.032120533 0.05227511 -0.003199223 -0.03473515 0.09200046 0.06688149 0.042868175 -0.0984088
-0.07289845 0.22887045 -0.12410452 0.04795302 0.109331936 -0.006267591 0.10376137 -0.022379681
0.028880237 0.057886917 0.030045154 0.08892373 -0.12525888 0.04316044 0.20824353 -0.04786834
-0.0017860221 0.09443873 0.06660819 -0.15444426 0.03385508 0.116129406 0.025200346 0.07199422
0.15107661 0.17315003 -0.09214069 -0.010425087 -0.12642257 0.051333476 0.036548115 0.059246518
00000000: 3d58 833e 5390 dcbe fe20 753e 43bc 683e
00000010: d276 24be 01f1 21be d858 4ebe 354d 753e
00000020: 05dd 403e 7d3b 28be 7c66 3e3e 7d83 f13d
00000030: d242 5c3e dbcd 64bd 5f78 bfbe d26f 1abe
00000040: 1cb6 063e a419 803e 384b 803d 4cdb 653d
00000050: 5466 9ebe 7496 2f3e cab6 b53d 19a0 863e
00000060: 6e31 5ebe 0d52 2ebe d11d 56be 69a1 c13d
00000070: f141 c43e 79b7 53be a60c 733e 178b 21be
00000080: 5b07 983e 79ae ad3e 298d 87bd 44af 443e
00000090: 421c 353e e4e4 483e 9172 8cbd e683 3dbd
000000a0: f055 853e a8fe ef3d a920 2c3e 7684 903e
000000b0: d15b dbbd 66ec 32be 4f87 ae3e e568 eb3b
000000c0: 8b70 c3be 0327 27be 8cca 3cbe 0b11 a3be
000000d0: 8e38 963c e98a 1d3e 474b b93e 73cf 06bf
000000e0: ca46 2e3e 047f 4f3e 3799 57be e1e6 a53d
000000f0: 925d 17bf b933 083e a0f7 9c3e 7fc9 68bd
00000100: d330 1cbd ae83 01be e87d d2bd 1f08 70bd
00000110: b85f e8bc 82ea e03b 944d 9d3d 6b27 e53d
00000120: 8ffe 2cbd 2dba 123d c467 b7bd e990 7b3c
00000130: 8c4f 7fbd bd4b cbbc 2d5f 99bd 54e8 8d3c
00000140: 5c1a 0ebd 48ef 9fbd 43d5 d93b 7f58 c4bc
00000150: f297 f5bc 3644 71bd c48c 08be 2f43 fcbc
00000160: 21db 53bd fe4c a73c 9baa d8bc c70f 77bd
00000170: ddbe 97bd d067 383d 7881 32bd 26a2 163d
00000180: a673 7fbc a52c 48bd e662 cd3b 8648 f0bd
00000190: 5f1d 9fbd cec1 aebd 7737 433c 6bc2 03bd
000001a0: 0217 b2bd e16a 8bbd 9213 bbbd ead5 9fbd
000001b0: 80c0 52bd 8349 353d c2be 76bd 310c 22bd
000001c0: 8f5d c2bd 6b29 c73d da9c d1bc 290e 7bbd
000001d0: 252d 98bb 9752 40bd 96b8 7bbd 2f15 67bd
000001e0: 1f08 9fbb 9863 80bd b4cb ccbd 4c26 0fbd
000001f0: 1a16 83bd 5831 4fbd a339 f8bc 9e3b c8bc
00000200: 2b7f 7abe f4d3 73bc 97db 923d 55c0 3a3e
00000210: e8fa 033d 3c8d edbd 20b1 cdbd d009 aebd
00000220: 0163 fb3d 4182 26be 31b3 33be 92ff 503d
00000230: dcd7 513e 4951 113e 52ac 5dbc 25e5 9dbd
00000240: 6460 a63c 7eff 263e f0e6 8e3b f7fa 163d
00000250: 4881 92bd 1246 203d b762 053e 2f2a 093e
00000260: f838 d1bd 4509 b5bd 04ab 75bd d6b5 a13d
00000270: 5a75 ce3d 9adc 37bd 8ca7 a63d 67cf a63d
00000280: d0ca 1cbf b3ae 113e ef7b b3bc 03a1 ca3d
00000290: cf88 043e bd9b 853d 6704 2f39 35fc 573e
000002a0: be02 f13d 01ea b13d 6247 0f3e 66bc 033e
000002b0: 2aa6 90bc 5a47 02be 5f1c 193e c5e7 1a3e
000002c0: 4c7e b23e 334b 713c 0b11 57bd 5d38 eebc
000002d0: b363 5dbc 0608 86bd 3b36 7c3d 491e 533d
000002e0: 8fc6 003e 55d8 843d 7f4a 4cbd a5af 603e
000002f0: 0d2b 0fbe ede3 9ebd dbdc 593d 014f f53d
00000300: 24cb ef3b bce6 e9bd 2d0c 10bd 2926 ea3d
00000310: fcba d5bd b1f8 753d 8427 7fbd 36c3 d63d
00000320: 7e87 0c3e 5d8d b0bd 315e 013e 261f 783d
00000330: 3bd4 acbc b960 53bd c75c 393e 4866 8c3d
00000340: 857c 84bd c97a 053e 588b 3f3e 0d1b bebb
00000350: a83e 6cbd fdc3 29bd f58d 5f3d ac0a 56bc
00000360: d290 033d 6d1e 563d 0eaa 51bb 7246 0ebd
00000370: bd6a bc3d 2af9 883d 8a96 2f3d 8e8a c9bd
00000380: c84b 95bd 045d 6a3e 832a febd 636a 443d
00000390: 6ce9 df3d 5d60 cdbb d780 d43d 9855 b7bc
000003a0: 3f96 ec3c d51a 6d3d 4121 f63c a51d b63d
000003b0: dd43 00be 00c9 303d cb3d 553e 9811 44bd
000003c0: f518 eaba 1869 c13d e069 883d a326 1ebe
000003d0: a0ab 0a3d 41d5 ed3d f570 ce3c b571 933d
000003e0: d4b3 1a3e 3e4e 313e 42b4 bcbd fccd 2abc
000003f0: eb74 01be 0d43 523d 7ab3 153d 7aac 723d

encoder.dcrnn_cells.0.update.bias_pool f4 [2, 64]
0.08735394 -0.11299809 0.20295574 0.28791976 0.15978399 0.13827978 -0.06513241 0.11965777
-0.09875985 -0.2514456 -0.1690467 0.064785175 -0.21058154 -0.0003677782 0.073917985 -0.22709379
0.16012862 0.13214642 0.23011887 -0.2122514 -0.15374021 -0.14564382 -0.0622787 0.25366068
0.011639302 0.2776232 -0.3606722 0.21619411 -0.3774398 0.22319858 -0.29885688 -0.23738389
-0.40556085 -0.12787837 -0.26853973 0.13116187 0.2713644 -0.28247476 0.20057146 -0.16143739
0.19433273 -0.12568358 -0.06970843 -0.13742788 0.101073496 -0.24877143 -0.032751046 0.096624166
-0.010995568 -0.3032096 0.044448398 -0.024851069 -0.24177578 -0.11303696 0.19397552 -0.24857806
0.3248339 -0.12754251 -0.014551317 0.0746111 -0.3247918 -0.24938461 0.16007377 -0.07403294
0.12574722 -0.038418796 -0.3326402 0.11524133 0.28004935 0.05454723 -0.13893275 0.30922097
-0.23166807 0.25577107 0.19899192 0.03042364 -0.092336 -0.14141266 -0.09626716 -0.21743208
-0.20126814 -0.21953711 -0.12404942 -0.26820877 -0.19000223 -0.17381248 0.051532026 -0.13984199
-0.050629117 -0.16422206 0.15346706 -0.1159051 0.18635084 -0.0868111 0.23698382 -0.21957228
-0.022336489 0.14987767 0.34116125 -0.13932587 -0.044989504 -0.056513052 0.10933654 0.2424895
0.17037658 0.02438734 0.15860197 0.029280677 0.13049293 -0.01568885 -0.13246942 -0.33444673
-0.1339676 -0.14919214 0.1729663 0.2733009 0.25844812 0.30686504 0.15650842 0.33402815
0.16060098 0.2439289 0.26185963 -0.05775503 -0.03374668 0.22049962 0.26417682 0.186953
00000000: 9fe6 b23d 8b6b e7bd a1d3 4f3e 386a 933e
00000010: 6a9e 233e 3799 0d3e 2464 85bd 220f f53d
00000020: 9b42 cabd 7abd 80be 941a 2dbe 17ae 843d
00000030: b0a2 57be 5bd2 c0b9 5062 973d 468b 68be
00000040: c2f8 233e 6451 073e 48a4 6b3e 6e58 59be
00000050: 136e 1dbe a723 15be f317 7fbd d0df 813e
00000060: c5b2 3e3c a124 8e3e 07aa b8be fd61 5d3e
00000070: ca3f c1be 2b8e 643e c503 99be c314 73be
00000080: aca5 cfbe 8cf2 02be 0a7e 89be 4c4f 063e
00000090: 46f0 8a3e 88a0 90be 9b62 4d3e d84f 25be
000000a0: 29ff 463e 32b3 00be 4bc3 8ebd e5b9 0cbe
000000b0: 9fff ce3d f0bd 7ebe f625 06bd e4e2 c53d
000000c0: c126 34bc 4a3e 9bbe 860f 363d 7894 cbbc
000000d0: 1294 77be ec7f e7bd 85a1 463e 3f8b 7ebe
000000e0: a150 a63e 819a 02be a668 6ebc b4cd 983d
000000f0: 1c4b a6be ae5e 7fbe 61ea 233e 959e 97bd
00000100: e1c3 003e 075d 1dbd d14f aabe a503 ec3d
00000110: a162 8f3e eb6c 5f3d 6344 0ebe 3652 9e3e
00000120: 653a 6dbe 6df4 823e 8ac4 4b3e ff3a f93c
00000130: a81a bdbd 7bce 10be b727 c5bd 84a6 5ebe
00000140: 3c19 4ebe 56ce 60be 9f0d febd a952 89be
00000150: f28f 42be e6fb 31be 3f13 533d bd32 0fbe
00000160: 7a60 4fbd d429 28be 7826 1d3e a75f edbd
00000170: c1d2 3e3e 05ca b1bd e3ab 723e 8ed7 60be
00000180: 03fb b6bc 8879 193e b0ac ae3e 71ab 0ebe
00000190: ea46 38bd 3b7a 67bd d6eb df3d 2b4f 783e
000001a0: 3377 2e3e f5c7 c73c 8e68 223e 08de ef3c
000001b0: f09f 053e e785 80bc 10a6 07be 9a3c abbe
000001c0: cd2e 09be d3c5 18be 141e 313e 18ee 8b3e
000001d0: 5053 843e 6a1d 9d3e be43 203e bd05 ab3e
000001e0: 9574 243e 7fc8 793e 7712 863e 8a90 6cbd
000001f0: f539 0abd a7ca 613e 2f42 873e 9b70 3f3e

encoder.dcrnn_cells.0.update.linear.weight f4 [64, 65]
0.16468418 0.055386964 -0.069416806 -0.07751379 0.034449324 -0.16272545 0.018668259 -0.16845109
-0.19268295 -0.03108309 -0.31732208 -0.010652308 -0.10670028 0.17105773 0.082326986 0.023893034
0.049723595 0.11883284 -0.0030496826 0.12142783 0.10040917 -0.21125221 0.13927776 -0.18610342
0.103566304 -0.30860883 -0.15416291 -0.038455226 0.056681447 0.12153365 0.024126133 -0.02716473
0.18096432 -0.17184322 -0.11678644 -0.0037931376 0.13740891 0.049328875 0.23524548 0.1177057
0.005127998 -0.10622496 0.24580528 -0.25398305 -0.23386306 -0.121502325 0.14171523 0.16385837
0.09942628 -0.07371853 -0.044232234 -0.33127004 0.075944625 -0.038213555 0.032009743 -0.123332486
-0.2326374 -0.066914506 0.20620047 -0.2516304 -0.08504684 -0.25680158 0.15143731 0.05754951
-0.16752814 -0.2893419 -0.21358919 -0.11200179 0.17581458 -0.009085065 -0.11081677 -0.06785855
-0.013870519 -0.3705228 0.08631399 -0.094007246 0.13523866 -0.18543233 0.15527289 0.037711363
-0.19613789 0.018802369 0.1361661 -0.0002351882 0.0027111082 0.31661412 0.15070622 -0.08745113
-0.19776502 -0.15132101 -0.062154997 0.14670874 -0.051337067 -0.05793586 0.04458991 0.004982691
0.06973856 0.19982718 -0.13173291 0.06663666 -0.10262678 -0.006431264 -0.19357912 0.102746144
-0.10613631 -0.16904853 -0.011877015 0.16181326 0.23716752 0.012091642 -0.27043548 0.11758081
0.14355817 0.09322098 -0.1132421 -0.16673312 0.04954222 -0.2909041 -0.22673409 0.13417119
0.10465455 -0.18365765 0.05474249 0.014927641 0.049534876 -0.23105928 -0.14265516 0.16451928
0.085926026 0.092881806 0.13166498 -0.25132143 -0.093581975 -0.2602991 0.0728705 0.08638539
0.03925309 -0.006795581 -0.19615705 0.20667833 0.057200987 -0.18776688 -0.10911488 -0.06640233
0.042120606 -0.19815323 -0.22834565 0.08095982 0.21722016 0.18325979 0.090000026 0.0038820743
-0.061692644 0.052569784 0.040698282 -0.24477503 -0.024182519 -0.07431365 -0.15661111 -0.15922205
-0.20391107 0.17239945 0.17467439 -0.042418797 -0.0178752 0.2001064 0.1763253 0.13896587
0.062176682 -0.038447123 -0.09459812 0.02273716 0.07499854 -0.19486922 0.091350906 -0.2779015
0.055054553 0.14178622 -0.08992562 -0.09393531 -0.24372263 -0.07110329 -0.026947955 0.046861496
0.07651222 0.08959663 -0.09421533 0.22954212 -0.15699202 -0.18518884 0.020007268 -0.15102786
-0.013552833 -0.14526032 -0.22028698 0.37890148 0.066114284 -0.0635444 -0.050513692 -0.011221583
0.1869954 -0.15927511 0.054962527 0.22546077 0.16649862 -0.24528648 0.000512882 -0.10334776
0.11982741 0.02548174 0.08681381 -0.055841915 0.065451056 0.078417785 0.037534412 0.2503849
-0.02219921 -0.18156515 0.047727637 -0.0149030825 0.15451531 0.05129285 -0.17719045 -0.052539285
-0.18270895 -0.21757874 0.1380048 -0.10425575 0.15798025 0.18972112 -0.09675216 0.05908238
0.18818997 0.21028851 0.12083754 0.24487975 0.16676794 0.18437722 0.2017276 -0.065279156
0.19900738 -0.17406592 -0.060703624 -0.030486085 0.19633259 -0.031606883 -0.08157722 -0.13337307
-0.070557676 -0.17883241 -0.12365804 0.18757743 0.3065309 -0.21011508 0.13487233 0.0053130705
00000000: f8a2 283e 71dd 623d 662a 8ebd 8dbf 9ebd
00000010: bc1a 0d3d 80a1 26be 2dee 983c 717e 2cbe
00000020: ae4e 45be f7a1 febc 0a78 a2be 0587 2ebc
00000030: ad85 dabd c229 2f3e 0d9b a83d 53bb c33c
00000040: f8aa 4b3d a25e f33d 2fdd 47bb 27af f83d
00000050: 53a3 cd3d 8052 58be d49e 0e3e e591 3ebe
00000060: 921a d43d fa01 9ebe e2dc 1dbe 3a83 1dbd
00000070: ce2a 683d a2e6 f83d 2ba4 c53c 9188 debc
00000080: b64e 393e abf7 2fbe bb2d efbd 4a96 78bb
00000090: ecb4 0c3e 130d 4a3d 31e4 703e b00f f13d
000000a0: c408 a83b 798c d9bd 61b4 7b3e 110a 82be
000000b0: cc79 6fbe 36d6 f8bd cc1d 113e 7dca 273e
000000c0: 01a0 cb3d bef9 96bd dc2c 35bd 3a9c a9be
000000d0: db88 9b3d d185 1cbd a61c 033d be95 fcbd
000000e0: 8038 6ebe 790a 89bd 3726 533e b3d5 80be
000000f0: 0a2d aebd 7f7b 83be 6212 1b3e 09b9 6b3d
00000100: 7f8c 2bbe 9f24 94be 20b7 5abe 3261 e5bd
00000110: bd08 343e 86d9 14bc e7f3 e2bd 6cf9 8abd
00000120: 2c41 63bc 2ab5 bdbe 64c5 b03d df86 c0bd
00000130: 017c 0a3e f9e1 3dbe dbff 1e3e 3b77 1a3d
00000140: 5fd8 48be 6d07 9a3c 206f 0b3e da9c 76b9
00000150: d9ac 313b 3f1b a23e bb52 1a3e 9419 b3bd
00000160: ea82 4abe e5f3 1abe 3d96 7ebd d13a 163e
00000170: d146 52bd 274e 6dbd e9a3 363d d745 a33b
00000180: 17d3 8e3d 7f9f 4c3e fee4 06be cd78 883d
00000190: fd2d d2bd 5abd d2bb 9b39 46be 926c d23d
000001a0: fe5d d9bd 0f1b 2dbe d097 42bc 60b2 253e
000001b0: 0bdc 723e 061c 463c 8576 8abe 35ce f03d
000001c0: ea00 133e a4ea be3d 79eb e7bd 16bc 2abe
000001d0: c8ec 4a3d 62f1 94be fb2c 68be 2c64 093e
000001e0: 2055 d63d c010 3cbe a939 603d 1093 743c
000001f0: 15e5 4a3d ce9a 6cbe 3214 12be be77 283e
00000200: fcf9 af3d d138 be3d 2fd3 063e 34ad 80be
00000210: e8a7 bfbd ec45 85be 213d 953d d3ea b03d
00000220: d9c7 203d 77ad debb 65dd 48be 7ca3 533e
00000230: 954b 6a3d f645 40be 9f77 dfbd f2fd 87bd
00000240: a886 2c3d aee8 4abe 71d3 69be 43ce a53d
00000250: f66e 5e3e 74a8 3b3e ef51 b83d 666a 7e3b
00000260: 6db1 7cbd 6a53 573d 3eb3 263d 4ea6 7abe
00000270: 6b1a c6bc c131 98bd aa5e 20be 1b0b 23be
00000280: 10ce 50be 7b89 303e d8dd 323e 55bf 2dbd
00000290: 036f 92bc b1e8 4c3e 9f8e 343e 124d 0e3e
000002a0: faac 7e3d bb7a 1dbd a9bc c1bd 4843 ba3c
000002b0: d698 993d cc8b 47be 2f16 bb3d 1b49 8ebe
000002c0: e280 613d 6830 113e ec2a b8bd 2861 c0bd
000002d0: 6d92 79be 9a9e 91bd f5c1 dcbc d7f1 3f3d
000002e0: 70b2 9c3d 707e b73d f8f3 c0bd 170d 6b3e
000002f0: 84c2 20be 25a2 3dbe 48e6 a33c 0ca7 1abe
00000300: b40c 5ebc 1fbf 14be e992 61be 60ff c13e
00000310: ed66 873d 9123 82bd 72e7 4ebd bbda 37bc
00000320: b97b 3f3e 0419 23be 6320 613d 30df 663e
00000330: 9d7e 2a3e 612c 7bbe ee72 063a fea7 d3bd
00000340: 1368 f53d 15bf d03c 70cb b13d 7eba 64bd
00000350: 340b 863d 8199 a03d afbd 193d 7332 803e
00000360: 1edb b5bc 37ec 39be 0e7e 433d 0f2c 74bc
00000370: 4339 1e3e 7418 523d 6a71 35be 6f33 57bd
00000380: 0e18 3bbe f6cc 5ebe 2151 0d3e 0a84 d5bd
00000390: 93c5 213e 4146 423e ff25 c6bd 5e00 723d
000003a0: dfb4 403e df55 573e ac79 f73d c2c1 7a3e
000003b0: 37c5 2a3e 62cd 3c3e ae91 4e3e 14b1 85bd
000003c0: 97c8 4b3e 563e 32be 5da4 78bd f4bd f9bc
000003d0: 690b 493e 3876 01bd f511 a7bd f392 08be
000003e0: 8b80 90bd d81f 37be 6d40 fdbd 4c14 403e
000003f0: 9ef1 9c3e 6828 57be f91b 0a3e 4419 ae3b

encoder.dcrnn_cells.0.update.linear.bias f4 [64]
0.4684364 0.3697723 0.5547891 0.74266696 0.56461525 0.095443785 0.01906184 0.57310766
0.23582411 0.20376323 0.44256216 0.61980015 0.75021076 0.46776518 0.9165689 0.652704
0.088033326 0.22726882 0.2470882 0.21428175 0.8460632 0.5128858 0.37011066 0.8434414
0.37542763 0.073714875 0.5108833 0.27309248 0.7790367 0.06336055 0.49863985 0.14884663
0.26996619 0.268442 0.24351868 0.3170763 0.55408466 0.40454605 0.3334928 0.59698486
0.75267154 0.3513916 0.74874616 0.5348323 0.7463572 0.10645424 0.9325153 0.58237493
0.12462324 0.6933607 0.91561913 0.41113567 0.36355612 0.8585187 0.5978478 0.80879796
0.32132378 0.3970654 0.1620129 0.8680546 0.2724145 0.24620555 0.72094846 0.8625804
00000000: e5d6 ef3e cb52 bd3e a906 0e3f 6c1f 3e3f
00000010: a08a 103f 0878 c33d 9327 9c3c 2fb7 123f
00000020: e07b 713e 4fa7 503e 8297 e23e 39ab 1e3f
00000030: d00d 403f eb7e ef3e 42a4 6a3f 9c17 273f
00000040: d14a b43d 28b9 683e b004 7d3e ad6c 5b3e
00000050: 9997 583f 7c4c 033f 257f bd3e c7eb 573f
00000060: 0d38 c03e d3f7 963d 3fc9 023f c7d2 8b3e
00000070: f36e 473f 2dc3 813d b94d ff3e 406b 183e
00000080: 0239 8a3e 3b71 893e f65c 793e d357 a23e
00000090: 7ed8 0d3f a920 cf3e 91bf aa3e 00d4 183f
000000a0: 15af 403f 9ae9 b33e d4ad 3f3f c5ea 083f
000000b0: 4411 3f3f ae04 da3d 53b9 6e3f 8616 153f
000000c0: 783a ff3d 1680 313f 0466 6a3f 6080 d23e
000000d0: 0724 ba3e e2c7 5b3f 8e0c 193f 620d 4f3f
000000e0: 8d84 a43e 284c cb3e b6e6 253e d438 5e3f
000000f0: ea79 8b3e 4f1d 7c3e 1490 383f 12d2 5c3f
