mo/TARGCN/model/model_para/PEMSD8/epoch_7.pth (torch, 597909 bytes, 48 tensors)

node_embeddings f4 [170, 2]
0.04625744 -0.21784662 0.11787331 -0.1679253 0.14617041 -0.06384141 0.03181089 -0.23807494
0.1205465 -0.20286538 -0.00206713 -0.24003053 0.10430418 -0.1740708 0.11617864 -0.053435877
0.13926992 -0.004454504 0.078544766 -0.31465665 0.020419925 -0.24215741 0.12774433 -0.07162205
0.17442307 -0.085408896 0.141214 -0.115781896 0.114432275 -0.1552782 0.011936045 -0.22790603
0.21154746 0.060805775 0.05205916 -0.1936756 0.15218353 -0.10273769 -0.04672273 -0.28358275
0.18053937 -0.053097222 0.12812345 -0.06818516 0.104762845 -0.18872981 0.1477852 -0.11281011
0.26720637 0.14082326 0.13830706 -0.07992434 0.09157312 -0.14040612 0.107913524 -0.13731752
0.049244523 -0.20539157 0.08664777 -0.088241525 0.09585172 -0.07937569 0.10265896 -0.075575605
0.21591248 0.00838711 0.16122156 -0.25014174 0.17927282 0.020259082 -0.06810001 -0.32083422
0.12384453 -0.10663302 0.06944856 -0.080193356 0.15740184 -0.06810256 0.16673592 -0.09267461
0.03303102 -0.15203133 0.111006595 -0.15436773 0.19172862 -0.015022089 0.13046156 -0.14737931
0.14826003 -0.047181472 0.12446299 -0.15570705 -0.0045634666 -0.28254065 0.12090841 -0.11123595
0.009202816 -0.30226758 0.041173182 -0.09665672 0.18474501 -0.022358129 0.08963279 -0.117856026
0.039559633 -0.25756213 0.08216303 -0.13388494 0.14419971 -0.056215435 0.12636295 -0.13670832
0.13642696 -0.057818092 0.20333846 0.019044062 0.083172426 -0.065689705 0.08182687 -0.081531934
0.052888203 -0.12139451 0.015457674 -0.29438135 0.0059940107 -0.16033743 -0.10889372 -0.37283942
0.16480727 -0.11465431 0.085910626 -0.09086393 0.064089574 -0.10956697 0.061346162 -0.0993535
0.13558011 0.0064978157 0.14633241 -0.070989 0.07936413 -0.1823714 -0.04001319 -0.23844606
0.09154581 -0.08022012 0.11173649 -0.15092808 0.18423072 -0.022842474 0.17674884 -0.02877168
0.08067294 -0.11421816 -0.026142266 -0.21221031 0.08338894 -0.119228266 0.04862022 -0.041551434
0.0076348106 -0.30412033 0.15761144 -0.11061917 -0.036557727 -0.24142195 0.14246093 -0.12266096
0.10346664 -0.15814906 0.15743825 -0.017746221 -0.021003086 -0.21722169 0.020720916 -0.09737928
0.03180973 -0.11867438 0.119485855 -0.07301425 0.15391277 -0.048751038 0.18380408 -0.023250049
0.11616313 -0.1283209 0.14812915 -0.12360417 0.17591856 -0.006921838 0.080823876 -0.10000133
-0.038983382 -0.18979871 0.18172109 -0.008191675 0.02610575 -0.13566944 -0.046229705 -0.20561028
0.059537884 -0.08785898 0.20196778 -0.0044874717 0.2630036 0.14003663 0.2679007 0.13992208
0.12974876 -0.06268645 0.09485922 -0.030545214 0.0419462 -0.16740859 0.078958794 -0.08277616
0.14082706 -0.12940522 0.027525462 -0.13952552 -0.04396618 -0.17415515 0.11146508 -0.12482716
0.14478838 0.0058304123 0.12132655 -0.0054477546 0.060622577 -0.02552669 0.18300153 -0.023807947
0.16679914 -0.00079108804 0.032456376 -0.14808288 0.039470576 -0.11333924 0.14296558 -0.08055127
0.12564361 -0.08116864 0.027368201 -0.28006098 0.01376876 -0.29650673 0.0091709355 -0.3023188
0.12217432 -0.14623807 0.036119897 -0.26584455 0.063898034 -0.2261712 0.0024237877 -0.2630714
00000000: 7178 3d3d 2f13 5fbe 9067 f13d 9cf4 2bbe
00000010: b2ad 153e 49bf 82bd 234c 023d ebc9 73be
00000020: 15e1 f63d f1bb 4fbe b078 07bb 90ca 75be
00000030: 6e9d d53d 9e3f 32be 11ef ed3d 94df 5abd
00000040: c69c 0e3e 16f7 91bb 14dc a03d ad1a a1be
00000050: b047 a73c 1df8 77be 69cf 023e 95ae 92bd
00000060: f69b 323e dcea aebd 679a 103e 0f1f edbd
00000070: 785b ea3d 4001 1fbe 678f 433c 3360 69be
00000080: e69f 583e 7a0f 793d fc3b 553d e652 46be
00000090: 00d6 1b3e 2368 d2bd 5560 3fbd c231 91be
000000a0: 50df 383e 797c 59bd cb32 033e a9a4 8bbd
000000b0: e78d d63d 6342 41be 0155 173e fd08 e7bd
000000c0: 46cf 883e f933 103e 5ea0 0d3e 5faf a3bd
000000d0: b08a bb3d 9fc6 0fbe c401 dd3d f79c 0cbe
000000e0: a0b4 493d 2b52 52be 6374 b13d f9b7 b4bd
000000f0: e84d c43d b98f a2bd dc3e d23d 62c7 9abd
00000100: 2918 5d3e 176a 093c 4417 253e 9412 80be
00000110: 4b93 373e 60f6 a53c 0578 8bbd 6244 a4be
00000120: 33a2 fd3d 6a62 dabd 0c3b 8e3d 6a3c a4bd
00000130: f32d 213e 5b79 8bbd d2bc 2a3e 30cc bdbd
00000140: 894b 073d 1aae 1bbe 6d57 e33d 9312 1ebe
00000150: 8254 443e 351f 76bc b797 053e 9aea 16be
00000160: 7ad1 173e 5c41 41bd 74e6 fe3d ab71 1fbe
00000170: 2289 95bb 2ba9 90be d49e f73d accf e3bd
00000180: 68c7 163c d1c2 9abe 36a5 283d f5f3 c5bd
00000190: cc2d 3d3e 6528 b7bc 6591 b73d 805e f1bd
000001a0: 4809 223d 2fdf 83be 1745 a83d 2219 09be
000001b0: 17a9 133e 2842 66bd 4a65 013e 44fd 0bbe
000001c0: 82b3 0b3e aad2 6cbd f537 503e 4b02 9c3c
000001d0: 4e56 aa3d 5388 86bd d994 a73d 37fa a6bd
000001e0: 4da1 583d af9d f8bd 2f42 7d3c 27b9 96be
000001f0: 6869 c43b 7f2f 24be ac03 dfbd cfe4 bebe
00000200: 3dc3 283e e1cf eabd e9f1 af3d de16 babd
00000210: 6541 833d a664 e0bd 1d46 7b3d d979 cbbd
00000220: 83d5 0a3e a1eb d43b 2ad8 153e ae62 91bd
00000230: a989 a23d 91bf 3abe dfe4 23bd 342b 74be
00000240: 5f7c bb3d 724a a4bd 1ad6 e43d e48c 1abe
00000250: faa6 3c3e 2420 bbbc a6fd 343e 96b2 ebbc
00000260: db37 a53d 36eb e9bd 4e28 d6bc a94d 59be
00000270: d2c7 aa3d f32d f4bd ff25 473d d631 2abd
00000280: 6f2d fa3b a9b5 9bbe e564 213e 4e8c e2bd
00000290: 8ebd 15bd 5137 77be 47e1 113e ab35 fbbd
000002a0: 51e6 d33d d4f1 21be 7e37 213e 8660 91bc
000002b0: aa0e acbc 5d6f 5ebe e9be a93c ca6e c7bd
000002c0: eb4a 023d 8e0b f3bd 00b5 f43d 7f88 95bd
000002d0: 4f9b 1d3e 2baf 47bd 2337 3c3e e376 bebc
000002e0: efe6 ed3d 8e66 03be 2baf 173e 2f24 fdbd
000002f0: ff23 343e 96d0 e2bb fd86 a53d 7fcd ccbd
00000300: 0aad 1fbd 985a 42be 1815 3a3e 6036 06bc
00000310: badb d53c eeec 0abe 5c5b 3dbd 808b 52be
00000320: ffdd 733d 69ef b3bd a4d0 4e3e a40b 93bb
00000330: 68a8 863e c365 0f3e 482a 893e bc47 0f3e
00000340: dcdc 043e c161 80bd 8d45 c23d f539 fabc
00000350: c7cf 2b3d 286d 2bbe 26b5 a13d 8c86 a9bd
00000360: f834 103e cd82 04be 147d e13c c7df 0ebe
00000370: e215 34bd ba55 32be ce47 e43d 62a5 ffbd
00000380: 6843 143e 0b0d bf3b 0e7a f83d 1483 b2bb
00000390: 614f 783d 591d d1bc c164 3b3e e208 c3bc
000003a0: 65cd 2a3e 0561 4fba faf0 043d 0aa3 17be
000003b0: e6ab 213d 671e e8bd 9265 123e 10f8 a4bd
000003c0: b8a8 003e be3b a6bd 4733 e03c 2764 8fbe
000003d0: 5d96 613c bbcf 97be b141 163c 88c9 9abe
000003e0: 8836 fa3d 6fbf 15be 75f2 133d c71c 88be
000003f0: f9dc 823d 6c99 67be 69d8 1e3b 4bb1 86be

encoder.dcrnn_cells.0.gate.weights_pool f4 [2, 65, 128]
-0.2728694 -0.124187045 0.23990339 0.081820704 0.028111696 0.0032738578 0.1616393 -0.43298653
0.079186946 0.04590434 -0.07196976 -0.11711908 0.13081953 -0.09755612 0.3175308 -0.008023346
0.02799924 0.03598707 0.09211645 0.047487378 0.12358852 -0.20592795 -0.14872633 -0.18674767
0.11217645 -0.017568832 0.067175284 0.0890793 -0.39041054 -0.027204111 -0.13947298 -0.25594702
-0.2995546 -0.09365268 0.0029990107 0.12899141 0.08499364 -0.035896946 0.020008352 0.17695399
-0.20687862 0.00885078 0.27343515 -0.1306824 0.0925016 0.096139304 -0.011386549 -0.09389985
-0.060650136 0.006490674 0.14819297 0.06506045 -0.112373106 -0.232706 -0.08663028 0.034189906
-0.02008498 -0.045525476 -0.08116982 -0.13805677 0.1969766 -0.002767799 -0.10337338 -0.14411585
-0.15107025 0.06632428 -0.1502944 -0.26573256 0.25955424 -0.20494926 -0.308035 0.33432356
-0.1514282 -0.2894933 -0.053243756 -0.11296564 -0.011789022 0.09771632 -0.07884646 -0.28136346
-0.13847205 -0.13242353 -0.22885469 -0.33616498 0.020321237 0.11586635 0.15136093 0.085108906
-0.06463765 -0.2539666 -0.12530325 -0.18592383 0.37074858 -0.39000267 0.20076814 -0.12994744
-0.106481306 -0.002903125 0.13203129 -0.27127746 0.02788127 -0.27468225 -0.23646973 0.021636242
-0.11739978 -0.35736027 -0.12939437 0.21550839 0.017017338 -0.2890708 -0.23006415 0.19961396
0.16565225 -0.1509997 -0.14920661 0.16711718 0.113929085 -0.021665948 -0.09504662 -0.09628362
0.015463344 -0.06086914 0.20586705 0.10540809 0.1903149 -0.12255091 0.2848658 0.2137584
0.175603 -0.30194908 0.002988209 -0.36371624 -0.05370993 0.0003392016 -0.08980592 0.07507955
-0.10772242 -0.06914901 -0.058731522 -0.14920588 -0.33826727 0.13282956 -0.32117817 0.013664781
-0.017367784 -0.29583123 -0.08394794 -0.058499034 -0.29530346 0.04395134 -0.08104619 -0.1806323
-0.33492616 -0.061995596 -0.056183245 -0.033124465 -0.21298808 -0.12511796 -0.22502106 0.012688113
0.046144925 -0.29365766 0.24724708 -0.2332967 -0.19876248 -0.10911099 -0.04064569 0.044767864
-0.32349676 -0.10712261 -0.037060548 -0.41543385 -0.033040754 0.012090816 -0.38505542 0.009111318
0.024442723 0.036077287 0.03646506 -0.06218452 0.06226931 0.032870863 -0.14013836 -0.36058083
-0.17567773 -0.14869368 -0.034975123 0.07244008 -0.31428635 -0.014748069 -0.12522285 0.06779769
0.0065989923 0.06769486 -0.01997017 -0.05427958 -0.14499892 0.09066802 -0.014461744 -0.04432968
0.110684186 -0.029766943 0.1269742 -0.01123565 -0.05780152 -0.047727596 0.06271854 0.06831834
0.10849861 -0.09831912 0.102586456 0.067267664 0.05104415 -0.02586125 -0.0532105 -0.22165778
0.036194123 0.04140899 0.1255172 0.103741385 -0.03288638 0.09972269 -0.073568985 -0.067492
-0.0416136 0.066526964 -0.01526876 -0.06525017 0.013010285 0.07501303 0.08172998 -0.017205792
-0.153959 -0.030954277 -0.15763564 0.054494184 -0.05370952 0.022322243 -0.03821345 0.020309152
-0.01400504 -0.031489633 -0.025689378 -0.056341585 0.0032725895 -0.12635046 -0.06254612 -0.01381542
0.059938993 0.039850317 -0.034202084 0.009030284 0.06821079 0.0071883467 -0.0031714316 -0.019575236
00000000: 8ab5 8bbe c755 febd 3ca9 753e 9d91 a73d
00000010: 804a e63c 388e 563b c684 253e 69b0 ddbe
00000020: c42c a23d 3006 3c3d e264 93bd 21dc efbd
00000030: 8ef5 053e 81cb c7bd 6693 a23e 5a74 03bc
00000040: aa5e e53c 2e67 133d 8da7 bc3d 2082 423d
00000050: fa1b fd3d c7de 52be b74b 18be c83a 3fbe
00000060: c4bc e53d 83ec 8fbc 3293 893d 356f b63d
00000070: e4e3 c7be 28db debc 01d2 0ebe 7d0b 83be
00000080: 385f 99be facc bfbd 0d8b 443b 5316 043e
00000090: 2511 ae3d ad08 13bd 8ee8 a33c 6d33 353e
000000a0: fdd7 53be dd02 113c b1ff 8b3e 9bd1 05be
000000b0: 7b71 bd3d afe4 c43d a68e 3abc 914e c0bd
000000c0: 476c 78bd b8af d43b e6bf 173e 6a3e 853d
000000d0: df23 e6bd 7b4a 6ebe 376b b1bd b70a 0c3d
000000e0: 4289 a4bc ec78 3abd 5d3c a6bd c15e 0dbe
000000f0: 3cb4 493e f663 35bb 6cb5 d3bd 1b93 13be
00000100: 29b2 1abe 06d5 873d c6e6 19be 190e 88be
00000110: 4be4 843e 38de 51be c3b6 9dbe 752c ab3e
00000120: fe0f 1bbe 7738 94be 2016 5abd 885a e7bd
00000130: be26 41bc 7e1f c83d 417a a1bd df0e 90be
00000140: 9ecb 0dbe 099a 07be e258 6abe d11d acbe
00000150: b978 a63c 564b ed3d 5cfe 1a3e 944d ae3d
00000160: bf60 84bd e907 82be 7f4f 00be d162 3ebe
00000170: c2d2 bd3e 6eae c7be 2a96 4d3e f110 05be
00000180: df12 dabd 5b42 3ebb 3633 073e e1e4 8abe
00000190: 4367 e43c 27a3 8cbe 1f25 72be 7d3e b13c
000001a0: 4c6f f0bd edf7 b6be f57f 04be 3bae 5c3e
000001b0: f267 8b3c 1701 94be f095 6bbe 9a67 4c3e
000001c0: bea0 293e aa9f 1abe 9ec9 18be c420 2b3e
000001d0: a753 e93d c97c b1bc cda7 c2bd 5930 c5bd
000001e0: f759 7d3c eb51 79bd d0ce 523e 32e0 d73d
000001f0: e9e1 423e f9fb fabd eed9 913e 7be3 5a3e
00000200: 46d1 333e 1299 9abe d4d5 433b 0439 babe
00000210: f2fe 5bbd ded6 b139 2bec b7bd 4fc3 993d
00000220: 929d dcbd ff9d 8dbd 7790 70bd 6dc9 18be
00000230: 5e31 adbe 7904 083e 7771 a4be 3fe2 5f3c
00000240: e246 8ebc 3177 97be e6ec abbd af9c 6fbd
00000250: 0432 97be 5206 343d 8bfb a5bd acf7 38be
00000260: 717b abbe 18ef 7dbd 6720 66bd 85ad 07bd
00000270: 8c19 5abe ec1e 00be ec6b 66be cee1 4f3c
00000280: 7602 3d3d 4c5a 96be 572e 7d3e 55e5 6ebe
00000290: 6488 4bbe 9575 dfbd 187c 26bd 825e 373d
000002a0: 5ea1 a5be 1963 dbbd cdcc 17bd bfb3 d4be
000002b0: be55 07bd 8f18 463c fc25 c5be a347 153c
000002c0: 1b3c c83c c7c5 133d 635c 153d 32b5 7ebd
000002d0: 1b0e 7f3d 99a3 063d 6e80 0fbe 0d9e b8be
000002e0: dde4 33be 2843 18be 1342 0fbd 775b 943d
000002f0: 24ea a0be e3a1 71bc 6b3a 00be 84d9 8a3d
00000300: 5c3c d83b 9aa3 8a3d 7b98 a3bc 4454 5ebd
00000310: 997a 14be 28b0 b93d f3f0 6cbc 0a93 35bd
00000320: 64ae e23d ced9 f3bc 8605 023e bb15 38bc
00000330: 49c1 6cbd 037e 43bd 9472 803d 7cea 8b3d
00000340: 8534 de3d 895b c9bd d918 d23d a1c3 893d
00000350: ac13 513d f9da d3bc 41f3 59bd 42fa 62be
00000360: 4a40 143d 799c 293d 9587 003e 5d76 d43d
00000370: deb3 06bd 693b cc3d 56ab 96bd 3f39 8abd
00000380: 0673 2abd 4a3f 883d d229 7abc e2a1 85bd
00000390: 1729 553c 6ea0 993d 0c62 a73d 29f3 8cbc
000003a0: 6ea7 1dbe d393 fdbc 3d6b 21be 4b35 5f3d
000003b0: 83fe 5bbd 23dd b63c b585 1cbd 615f a63c
000003c0: 6575 65bc 46fb 00bd 8872 d2bc 6fc6 66bd
000003d0: f178 563b 0462 01be 2e18 80bd 125a 62bc
000003e0: 9782 753d 163a 233d 7c17 0cbd c2f3 133c
000003f0: 19b2 8b3d 398c eb3b cbd7 4fbb 3f5c a0bc

encoder.dcrnn_cells.0.gate.bias_pool f4 [2, 128]
0.36026317 -0.621465 0.17205031 -0.15282713 0.3674883 0.07771224 -0.03584832 -0.07681472
0.03532366 -0.101667404 0.11476477 -0.16067961 -0.38186044 0.07414005 -0.074387826 -0.01633368
-0.057151027 -0.1784259 0.0590435 -0.15117987 -0.0428275 -0.0459776 0.09363078 -0.2754595
-0.060135815 -0.06646215 -0.08683484 0.14755128 0.0712462 -0.0627126 -0.07841499 0.49015227
0.072017275 -0.17545497 0.19166575 -0.23617645 -0.35496935 -0.27527907 -0.05355665 -0.11803541
-0.043217022 0.170915 -0.07678732 -0.025100386 0.10316189 0.11180931 -0.41005543 0.12632999
0.16649732 0.25653136 0.18992561 0.08696323 0.22567897 0.09831649 -0.2185259 -0.28580788
-0.22300306 0.19496295 -0.0057745343 0.19521901 -0.059185315 0.05269544 -0.03488077 0.01392209
0.104676984 0.0484791 0.08641451 -0.24368922 -0.29997578 0.16952738 -0.1625599 -0.3438475
0.18900122 -0.17187016 0.12542772 -0.032761168 0.052598704 0.048495453 0.14834374 0.041606385
-0.03767968 -0.12244128 -0.051499933 -0.108789586 -0.0437362 -0.1985621 -0.058814943 -0.03462554
0.08774816 0.02665132 0.19864477 0.059358187 -0.13754058 -0.051531214 0.21107946 0.009939025
0.047548957 -0.031361055 -0.04651968 -0.22491592 -0.08471451 -0.057446286 0.1164202 -0.16675164
-0.057999518 -0.28333744 -0.13426626 -0.1197881 -0.2599208 -0.17597406 -0.24045905 0.16337621
-0.10372904 -0.27562284 -0.22425167 0.055552185 -0.2310328 -0.114090495 0.13661893 0.03980594
0.194675 -0.11080873 0.019366924 -0.1374556 -0.04564191 0.18600795 -0.21025367 0.13134575
-0.2750374 0.46386594 -0.061541323 0.35797766 -0.24915181 0.09601947 -0.010562681 0.47138318
0.1589069 -0.18507296 -0.24982418 0.34563679 0.33441886 0.010560388 0.38841212 -0.11025281
-0.08562574 0.08112964 -0.16939454 -0.1419644 -0.027502205 -0.04865541 0.011173665 0.24424215
0.34385183 0.078769825 -0.19509546 0.08152771 0.14996152 -0.086851686 0.07691991 0.20557177
-0.20209387 0.23119555 -0.15107806 0.30731592 0.29163042 0.11123616 -0.2487912 -0.047901016
0.186568 -0.11898479 0.09677678 0.026304727 -0.09814322 0.09932573 -0.032379102 -0.2531643
-0.14609723 -0.07409009 -0.16643868 0.11438082 -0.0053306394 -0.20553137 0.22414735 0.11930629
-0.022811765 -0.06740078 -0.037246305 -0.2685019 0.12506069 0.04025252 0.17333521 0.14819758
0.0027801746 -0.18392836 -0.120697655 -0.22102468 0.11365782 0.05452146 0.12695956 0.11901473
0.005553083 0.1531589 -0.2538115 0.026213668 -0.19587585 0.22044861 0.05000022 -0.13439262
-0.21700583 0.25440705 0.25885415 -0.14070901 0.12563758 0.3624343 -0.11917791 0.32919607
-0.17799406 0.006927669 0.011925205 0.068303116 -0.07228313 -0.046485145 -0.0033937402 -0.19561724
0.2964935 -0.056358855 0.2631898 0.1845773 -0.15025087 -0.021806391 -0.038847614 -0.03273183
0.11382621 -0.016769273 -0.22741203 -0.23315267 0.04822333 0.23066449 0.10641193 0.09398974
0.2561398 0.42632896 0.01668882 -0.11757306 0.27415544 0.11620698 -0.09109021 0.020387817
0.06782536 -0.00067454786 0.23708265 0.0129793165 -0.10602888 -0.11255971 -0.078124695 0.10904057
00000000: 6a74 b83e 5518 1fbf f52d 303e b77e 1cbe
00000010: 6d27 bc3e 9827 9f3d b0d5 12bd 0951 9dbd
00000020: 8baf 103d 0037 d0bd cb09 eb3d 3289 24be
00000030: 3683 c3be bdd6 973d a558 98bd 36ce 85bc
00000040: 3217 6abd 47b5 36be 99d7 713d e5ce 1abe
00000050: e36b 2fbd 0253 3cbd 7fc1 bf3d 0709 8dbe
00000060: f950 76bd 4f1d 88bd 77d6 b1bd af17 173e
00000070: 87e9 913d 776f 80bd 0a98 a0bd 3df5 fa3e
00000080: cb7d 933d 78aa 33be 0744 443e 3dd8 71be
00000090: 8bbe b5be 61f1 8cbe 385e 5bbd 8dbc f1bd
000000a0: 5504 31bd 5704 2f3e ac42 9dbd 539f cdbc
000000b0: 8a46 d33d 48fc e43d c9f2 d1be a65c 013e
000000c0: 467e 2a3e 1458 833e dc7b 423e c719 b23d
000000d0: 6318 673e 285a c93d 41c5 5fbe 6955 92be
000000e0: ea5a 64be 5ea4 473e 4e38 bdbb 7ee7 473e
000000f0: 4d6c 72bd 2cd7 573d 23df 0ebd 7a19 643c
00000100: e360 d63d 0592 463d 17fa b03d ab89 79be
00000110: 6d96 99be 9698 2d3e 1a76 26be c80c b0be
00000120: 8989 413e bbfe 2fbe 2070 003e 9330 06bd
00000130: bd71 573d 2ba3 463d 6ce7 173e 756b 2a3d
00000140: 0256 1abd 7ec2 fabd 98f1 52bd 13cd debd
00000150: bb24 33bd dd53 4bbe f0e7 70bd 83d3 0dbd
00000160: 4fb5 b33d de53 da3c 8969 4b3e 9221 733d
00000170: 70d7 0cbe 6512 53bd 3725 583e 4bd7 223c
00000180: b2c2 423d 7374 00bd 6c8b 3ebd 5c50 66be
00000190: cd7e adbd cc4c 6bbd b76d ee3d f1c0 2abe
000001a0: e790 6dbd 9b11 91be 187d 09be 7753 f5bd
000001b0: 5714 85be 8b32 34be e63a 76be 184c 273e
000001c0: e46f d4bd 701e 8dbe 3ba2 65be b08a 633d
000001d0: dd93 6cbe 47a8 e9bd d5e5 0b3e 8e0b 233d
000001e0: e258 473e b0ef e2bd 62a7 9e3c 29c1 0cbe
000001f0: 03f3 3abd de78 3e3e bd4c 57be 807f 063e
00000200: b4d1 8cbe d67f ed3e c112 7cbd d948 b73e
00000210: a721 7fbe dba5 c43d 180f 2dbc 2359 f13e
00000220: 7eb8 223e c483 3dbe e9d1 7fbe 4ef7 b03e
00000230: f338 ab3e 7a05 2d3c f4dd c63e 3acc e1bd
00000240: 8c5c afbd 4c27 a63d c375 2dbe 1e5f 11be
00000250: 4e4c e1bc e54a 47bd bf11 373c 9d1a 7a3e
00000260: 590d b03e 1352 a13d 1bc7 47be 00f8 a63d
00000270: 838f 193e 4cdf b1bd 3088 9d3d 6881 523e
00000280: b2f1 4ebe 87be 6c3e 35b4 1abe 8358 9d3e
00000290: 9550 953e c9cf e33d 1fc3 7ebe db33 44bd
000002a0: af0b 3f3e 4cae f3bd e832 c63d 037d d73c
000002b0: 50ff c8bd 4a6b cb3d f39f 04bd c09e 81be
000002c0: 839a 15be 8cbc 97bd e76e 2abe 7e40 ea3d
000002d0: a5ac aebb d176 52be e286 653e db56 f43d
000002e0: bddf babc 6c09 8abd 958f 18bd 1579 89be
000002f0: e90f 003e d4df 243d c97e 313e 1bc1 173e
00000300: 9733 363b b757 3cbe 5530 f7bd 4b54 62be
00000310: 6ec5 e83d e551 5f3d b001 023e ffbd f33d
00000320: a3f6 b53b b0d5 1c3e 95f3 81be 0cbe d63c
00000330: ae93 48be 48bd 613e 08cd 4c3d 389e 09be
00000340: c736 5ebe a441 823e 8888 843e 0616 10be
00000350: 23a7 003e fd90 b93e 8c13 f4bd 638c a83e
00000360: 1344 36be 8001 e33b ef61 433c 81e2 8b3d
00000370: 2d09 94bd 3567 3ebd 8369 5ebb e34f 48be
00000380: ffcd 973e 8bd8 66bd d0c0 863e d501 3d3e
00000390: 5ddb 19be 51a3 b2bc ad1e 1fbd d011 06bd
000003a0: b71d e93d b75f 89bc b3de 68be 93bf 6ebe
000003b0: d485 453d 5033 6c3e 7fee d93d b17d c03d
000003c0: c224 833e ca47 da3e feb6 883c 25ca f0bd
000003d0: 1a5e 8c3e edfd ed3d 818d babd 5a04 a73c
000003e0: 06e8 8a3d 24d4 30ba cbc5 723e 33a7 543c
000003f0: ab25 d9bd b585 e6bd d7ff 9fbd aa50 df3d

encoder.dcrnn_cells.0.gate.linear.weight f4 [128, 65]
-0.18494134 0.12028242 0.062983215 0.028223498 0.14792831 0.11578918 0.24613869 0.4202222
-0.007849357 0.09055098 0.3993598 0.0458571 0.054979287 0.33207878 -0.018777309 -0.008384654
0.12155206 -0.69446576 -0.074442655 -0.21445194 -0.032838933 0.08036644 0.23142943 0.17094989
0.18082625 0.08060949 0.20162828 0.1343983 -0.11216121 0.068839036 0.4309937 0.15371175
-0.1771423 -0.019428115 0.21700871 -0.0577958 -0.16862634 0.097750515 0.030795077 0.24668062
0.2271769 0.17952135 -0.16586426 0.056107268 0.18434505 0.022376945 0.12002684 0.09170287
-0.093968615 0.064861044 0.1548316 0.36963233 -0.059043843 0.24305007 0.18685655 0.23309568
0.27596903 -0.23253681 -0.16627614 0.15134376 0.24804263 0.09119248 -0.062995516 0.20576648
0.038913395 -0.041044 -0.06254763 0.20034799 -0.22586276 -0.10671084 -0.072690725 -0.14300689
-0.25263965 -0.13542259 0.11070825 -0.19575897 0.27179763 0.112942 -0.06471494 -0.015251654
0.03847946 -0.22621799 -0.01206028 0.09730327 -0.0013849456 0.036734425 -0.05264205 0.05764058
-0.19597572 -0.15167755 -0.008101626 -0.19096625 0.003177754 0.00882977 -0.19394478 -0.15277125
-0.20100607 -0.05585003 0.07225773 -0.049686085 0.08420688 0.015387171 -0.17688736 0.27427885
-0.099393934 -0.024270777 -0.20314412 0.061572295 0.07565108 -0.13028362 -0.068807214 -0.12898684
-0.20995581 -0.012186584 0.14654435 -0.104999386 -0.15042534 -0.07673473 0.061572906 -0.07130013
-0.12865275 0.0707823 0.19120766 -0.14745805 -0.24725513 -0.16017649 -0.025364093 0.20584199
0.069365755 -0.21524176 0.2995672 -0.13656309 -0.05218961 -0.15306814 0.20827198 -0.09079185
-0.07185642 -0.11160667 0.21442765 0.04404076 -0.046872724 0.056670476 -4.6449735e-05 0.009706625
0.23050144 0.06812476 -0.12104319 0.04329144 0.053167835 0.052261587 0.23349346 0.081743695
-0.071017 -0.102674074 0.15374501 -0.13845518 -0.09909781 -0.026220677 -0.25561407 -0.096337356
-0.22495763 0.12765077 0.05789858 -0.12060587 -0.0489461 0.32428485 0.26865506 0.08141383
0.22595854 0.19321232 0.17818531 -0.008773412 -0.117592774 -0.09181385 0.11739721 0.0013973579
0.1406853 -0.044093344 0.10550355 0.040756285 0.14173009 -0.059541054 -0.18150835 -0.13613014
-0.11847613 -0.078085855 0.10776607 0.10625117 -0.14911841 -0.21049693 -0.13224594 -0.29854783
-0.19554268 0.0471363 0.09801287 -0.05964275 -0.25993842 0.08478582 -0.064101465 0.050731264
-0.2206134 -0.14449197 -0.08107758 -0.014578939 0.2376762 -0.27151024 -0.10238977 0.02149706
0.06397922 -0.18180154 0.18637265 -0.18809126 0.07636517 0.11513739 0.35772574 0.318024
0.06542853 0.111248165 0.15761065 -0.025551736 -0.060838733 -0.106970534 -0.19615202 -0.16197039
-0.17969608 -0.14273311 0.20481874 0.44719264 -0.31421274 0.20213409 -0.113459274 0.20131466
-0.015872352 0.27394977 -0.16196677 -0.053249232 0.030367613 0.24408448 0.1567289 -0.02050659
-0.0061601475 -0.29500535 0.22080798 -0.1931802 -0.08879354 -0.21557778 -0.1731034 0.045157377
-0.28619948 0.09086564 -0.04044759 0.11931194 0.35411423 -0.0695994 -0.14196321 -0.23787461
00000000: 4361 3dbe a156 f63d 58fd 803d f734 e73c
00000010: 857a 173e e122 ed3d c80b 7c3e 5d27 d73e
00000020: 979a 00bc cb72 b93d e378 cc3e a8d4 3b3d
00000030: f631 613d 3b06 aa3e dfd2 99bc ca5f 09bc
00000040: 49f0 f83d 82c8 31bf 6475 98bd 4a99 5bbe
00000050: 1e82 06bd 2997 a43d d6fb 6c3e 7d0d 2f3e
00000060: 842a 393e 9716 a53d a577 4e3e b59f 093e
00000070: c7b4 e5bd 7bfb 8c3d 35ab dc3e 9d66 1d3e
00000080: cb64 35be b627 9fbc 8837 5e3e 4abb 6cbd
00000090: 62ac 2cbe 6c31 c83d f545 fc3c d899 7c3e
000000a0: 10a1 683e 72d4 373e 52d8 29be bcd0 653d
000000b0: f3c4 3c3e db4f b73c a2d0 f53d b7ce bb3d
000000c0: 9e72 c0bd ded5 843d 2d8c 1e3e 7340 bd3e
000000d0: f5d7 71bd 1ee2 783e 5357 3f3e a2b0 6e3e
000000e0: d04b 8d3e 211e 6ebe 4b44 2abe dcf9 1a3e
000000f0: e3fe 7d3e 1fc3 ba3d cb03 81bd 73b4 523e
00000100: a763 1f3d c11d 28bd f918 80bd 0628 4d3e
00000110: 9148 67be 368b dabd e0de 94bd 6670 12be
00000120: fc59 81be 38ac 0abe 02bb e23d 0a75 48be
00000130: 0f29 8b3e 234e e73d 4489 84bd 13e2 79bc
00000140: a39c 1d3d b0a5 67be 7b98 45bc f046 c73d
00000150: 1087 b5ba d676 163d 319f 57bd 8718 6c3d
00000160: dcad 48be 5c51 1bbe afbc 04bc a88c 43be
00000170: de41 503b bdaa 103c 7699 46be 1170 1cbe
00000180: 89d4 4dbe 00c3 64bd dcfb 933d a383 4bbd
00000190: a874 ac3d 791a 7c3c f621 35be 476e 8c3e
000001a0: 0c8f cbbd 82d3 c6bc 0305 50be 3b33 7c3d
000001b0: f4ee 9a3d 1269 05be ccea 8cbd 2015 04be
000001c0: a8fe 56be 3daa 47bc b90f 163e eb09 d7bd
000001d0: 1a09 1abe 1927 9dbd df33 7c3d cd05 92bd
000001e0: 8cbd 03be 4ff6 903d f1cb 433e 3eff 16be
000001f0: 7330 7dbe 4e05 24be 5cc8 cfbc 3ec8 523e
00000200: a20f 8e3d 5668 5cbe df60 993e 32d7 0bbe
00000210: c6c4 55bd e5bd 1cbe 4045 553e 14f1 b9bd
00000220: 7529 93bd 0a92 e4bd ec92 5b3e 1564 343d
00000230: 9dfd 3fbd 4d1f 683d 06d3 42b8 8908 1f3c
00000240: 9208 6c3e ff84 8b3d 7ee5 f7bd 5d52 313d
00000250: 84c6 593d 3f10 563d e918 6f3e 3d69 a73d
00000260: 5c71 91bd c946 d2bd 556f 1d3e 32c7 0dbe
00000270: cbf3 cabd bfcc d6bc d9df 82be 854c c5bd
00000280: 4b5b 66be e2b6 023e 1027 6d3d 3600 f7bd
00000290: b57b 48bd aa08 a63e 288d 893e 4bbc a63d
000002a0: ad61 673e 73d9 453e 3676 363e 5bbe 0fbc
000002b0: 7bd4 f0bd e608 bcbd f36d f03d 8d27 b73a
000002c0: cf0f 103e 399b 34bd 3f12 d83d 10f0 263d
000002d0: b121 113e 52e1 73bd 53dd 39be b365 0bbe
000002e0: 9da3 f2bd 7aeb 9fbd 75b4 dc3d 379a d93d
000002f0: 7fb2 18be 828c 57be 7b6b 07be 43db 98be
00000300: 573c 48be fe11 413d f9ba c83d f54b 74bd
00000310: a616 85be 30a4 ad3d a147 83bd 96cb 4f3d
00000320: 7be8 61be b4f5 13be 010c a6bd 81dc 6ebc
00000330: 6461 733e 6403 8bbe bab1 d1bd 9a1a b03c
00000340: 8a07 833d 2f2a 3abe 79d8 3e3e ff9a 40be
00000350: 5865 9c3d 27cd eb3d d427 b73e 0bd4 a23e
00000360: 65ff 853d 14d6 e33d b064 213e e051 d1bc
00000370: 0932 79bd 5e13 dbbd 13dc 48be 91db 25be
00000380: 4002 38be a128 12be 01bc 513e 6ff6 e43e
00000390: 7ee0 a0be 3dfc 4e3e 565d e8bd 6e25 4e3e
000003a0: bc06 82bc 2543 8c3e 9eda 25be de1b 5abd
000003b0: 80c5 f83c 48f1 793e 8a7d 203e 70fd a7bc
000003c0: 10db c9bb f10a 97be 7d1b 623e 08d1 45be
000003d0: 63d9 b5bd 6cc0 5cbe 0542 31be f1f6 383d
000003e0: bd88 92be c417 ba3d 5fac 25bd d259 f43d
000003f0: 764e b53e 218a 8ebd ce5e 11be 6795 73be

encoder.dcrnn_cells.0.gate.linear.bias f4 [128]
0.513824 0.016228972 0.15397596 -0.07855917 0.94274807 0.5352987 0.43954882 0.4054492
0.80273324 0.21238934 0.76814824 0.5175605 0.17683959 0.5040857 0.5797919 0.9870802
0.8249885 0.37391055 0.18586601 0.6702921 0.32903922 0.55730903 0.90266526 0.35763583
-0.029117892 0.47474474 0.7879653 0.82444626 0.432901 0.44283074 0.81794107 -0.13869585
0.33967817 0.44067052 0.23433171 0.6094897 0.422579 0.038970083 0.40064842 0.5502463
0.003040089 0.008347996 0.22155446 0.24731979 0.8613573 0.62639254 0.4143649 0.9968359
0.8747272 0.8235488 0.5050358 0.4877863 0.41246536 1.043666 0.3703053 0.46976465
0.58462083 0.661268 0.20216295 0.9074784 0.7118689 0.26548654 0.11605839 0.9715914
0.38502964 0.30124742 0.5793405 0.31654716 0.5975966 1.0510529 0.8601895 0.6533415
0.46725225 0.77990997 1.1598269 0.09370748 0.19563681 0.48896715 -0.026192987 0.52336687
0.62200123 0.6845116 0.8641805 0.6401663 0.03891636 -0.055663325 0.6504414 0.19328049
0.08822596 0.3660979 0.7687559 0.5227103 -0.18892877 0.86084664 0.66523564 0.6744227
0.9025819 0.5919482 0.119354405 0.5892009 0.39864215 0.29747394 0.5770443 0.3133213
0.9129213 0.21620108 0.8466145 0.06343153 0.43322664 0.1677247 0.5216842 1.0255494
0.60477513 0.09184779 0.083976656 0.24135259 0.5855356 0.48540214 0.66236436 0.12367707
0.8576574 0.7986029 0.087517805 0.6002566 0.34255838 0.4671482 -0.03942064 0.6174553
00000000: f889 033f 9ff2 843c e0ab 1d3e a1e3 a0bd
00000010: f057 713f 5609 093f 8b0c e13e 0a97 cf3e
00000020: ed7f 4d3f 977c 593e 5da5 443f d87e 043f
00000030: 7015 353e c30b 013f 3e6d 143f 4ab1 7c3f
00000040: 7232 533f 3471 bf3e a953 3e3e 4398 2b3f
00000050: d477 a83e ceab 0e3f 1215 673f 0b1c b73e
00000060: a588 eebc be11 f33e 18b8 493f e90e 533f
00000070: 33a5 dd3e b6ba e23e 9664 513f 4906 0ebe
00000080: 4cea ad3e 919f e13e a7f4 6f3e 8407 1c3f
00000090: 465c d83e 189f 1f3d ca21 cd3e f1dc 0c3f
000000a0: 3b3c 473b 08c6 083c 2cdf 623e 6641 7d3e
000000b0: e981 5c3f 435b 203f a327 d43e a330 7f3f
000000c0: 1fee 5f3f 18d4 523f 074a 013f 20bf f93e
000000d0: a92e d33e d996 853f a898 bd3e fe84 f03e
000000e0: b6a9 153f dc48 293f ce03 4f3e 8150 683f
000000f0: 0a3d 363f daed 873e 05b0 ed3d 37ba 783f
00000100: 9b22 c53e 1a3d 9a3e a94f 143f 7812 a23e
00000110: 17fc 183f e788 863f 6135 5c3f 6341 273f
00000120: b03b ef3e 2ea8 473f 3575 943f b5e9 bf3d
00000130: 0455 483e e759 fa3e ad92 d6bc 5ffb 053f
00000140: 793b 1f3f 273c 2f3f ef3a 5d3f f0e1 233f
00000150: c366 1f3d 3aff 63bd 5483 263f 52eb 453e
00000160: d0af b43d 2f71 bb3e 30cd 443f 58d0 053f
00000170: 8b76 41be 7260 5c3f e24c 2a3f f7a6 2c3f
00000180: 9b0f 673f eb89 173f 1570 f43d dfd5 163f
00000190: d31a cc3e 814e 983e 2db9 133f a66b a03e
000001a0: 36b5 693f d163 5d3e babb 583f 64e8 813d
000001b0: e2cf dd3e 06c0 2b3e 198d 053f 3445 833f
000001c0: 8bd2 1a3f b21a bc3d f4fb ab3d 2225 773e
000001d0: a9e5 153f a186 f83e b690 293f 674a fd3d
000001e0: 6f8f 5b3f 3d71 4c3f 893c b33d 6baa 193f
000001f0: d063 af3e 0d2e ef3e 8977 21bd 8d11 1e3f

encoder.dcrnn_cells.0.update.weights_pool f4 [2, 65, 64]
0.25385126 -0.4034378 0.23597188 0.2172248 -0.1507966 -0.15683317 -0.20173159 0.22070235
0.1902405 -0.1615891 0.1880875 0.10631962 0.20771316 -0.05456771 -0.34733477 -0.14899458
0.12999894 0.23842333 0.057969525 0.054641575 -0.29724872 0.17221032 0.078755535 0.25329453
-0.21334063 -0.16852982 -0.20522779 0.09338853 0.36373988 -0.2066793 0.23336598 -0.16718471
0.29502183 0.3329389 -0.063211665 0.18791549 0.17546305 0.1907853 -0.06810778 -0.04276575
0.25557375 0.112831876 0.16259868 0.27593648 -0.11206443 -0.17274505 0.32161963 0.007625667
-0.37094545 -0.1618987 -0.18091816 -0.31750888 0.00373142 0.15356386 0.35410687 -0.49153975
0.16703542 0.20336665 -0.19620763 0.07812042 -0.5488796 0.13677739 0.2854948 -0.0539447
-0.039859116 -0.113075 -0.099605836 -0.05814933 -0.031433273 0.0067564584 0.07604687 0.09541503
-0.039120518 0.036174946 -0.08975815 0.015797408 -0.060898516 -0.022639912 -0.08053551 0.017132718
-0.03431974 -0.07738106 0.0015169015 -0.02505765 -0.0266701 -0.05823267 -0.13853545 -0.029935952
-0.05360069 0.019883156 -0.025575517 -0.059932612 -0.070530176 0.04296967 -0.042672906 0.03849037
-0.016946083 -0.046883665 0.004865595 -0.11615407 -0.07683979 -0.08376046 0.012457499 -0.030045832
-0.086693496 -0.066266954 -0.094563656 -0.07727369 -0.05356695 0.044175044 -0.06138993 -0.03723837
-0.08911427 0.09487076 -0.02357021 -0.060782693 -0.015647886 -0.045492187 -0.05928765 -0.068254724
-0.004925227 -0.06214585 -0.090930134 -0.03181534 -0.068469636 -0.051514 -0.03339216 -0.022127207
-0.24176924 -0.024941413 0.0671546 0.17685583 0.034084093 -0.10993617 -0.09239937 -0.06941803
0.116433784 -0.15219353 -0.17802142 0.04972162 0.19209132 0.14258431 -0.03106119 -0.062846154
0.021460403 0.15633352 0.00815172 0.034942385 -0.07998101 0.03418165 0.13449602 0.13024496
-0.100626715 -0.081220634 -0.04464306 0.081005625 0.09616605 -0.036013506 0.075599104 0.07823556
-0.6106328 0.13676275 -0.009228581 0.0915938 0.12130945 0.060180016 0.005177518 0.21615592
0.11275813 0.08391957 0.1372661 0.122306615 -0.018584391 -0.11235611 0.141916 0.16022897
0.32303196 0.016515164 -0.049880937 -0.017936544 -0.004933514 -0.06329267 0.05367679 0.05303918
0.1199957 0.056479044 -0.06667655 0.2302027 -0.14498127 -0.081206314 0.074170634 0.13917135
0.0077959327 -0.102349766 -0.023681952 0.11606798 -0.1112893 0.059496123 -0.0640756 0.085363425
0.14231218 -0.08656919 0.12588418 0.058551855 -0.020821124 -0.04924582 0.17205797 0.067322366
-0.06335368 0.13360843 0.18758036 -0.0051503875 -0.055375718 -0.040675033 0.054747224 -0.012679985
0.029466365 0.051104728 -0.0038770046 -0.033866104 0.09071549 0.064291604 0.043420676 -0.09714219
-0.073559605 0.23444308 -0.122682616 0.05056015 0.110650435 -0.0042397478 0.10381406 -0.01994514
0.02901995 0.059903067 0.028080078 0.09096206 -0.12976284 0.04203682 0.20430599 -0.04439138
0.00052779686 0.09052001 0.06646681 -0.15277041 0.013808462 0.11732985 0.028006706 0.06585412
0.15111317 0.17448461 -0.089098044 -0.0055342317 -0.13434874 0.051301263 0.042567194 0.06293419
00000000: cbf8 813e 668f cebe 9da2 713e 2e70 5e3e
00000010: 6d6a 1abe e098 20be ba92 4ebe ccff 613e
00000020: 68ce 423e 9d77 25be 029a 403e 1abe d93d
00000030: c2b2 543e 6482 5fbd ddd5 b1be 0992 18be
00000040: 711e 053e 3f25 743e 7471 6d3d d8cf 5f3d
00000050: fc30 98be e757 303e 954a a13d d2af 813e
00000060: f775 5abe 1593 2cbe 3c27 52be 7c42 bf3d
00000070: 1d3c ba3e bda3 53be 7ef7 6e3e 7832 2bbe
00000080: 1a0d 973e f876 aa3e 1e75 81bd eb6c 403e
00000090: 96ac 333e 395d 433e 177c 8bbd 242b 2fbd
000000a0: 90da 823e 6614 e73d 4580 263e 8c47 8d3e
000000b0: 0982 e5bd 14e4 30be 54ab a43e bbe0 f93b
000000c0: 90ec bdbe c6c8 25be 9c42 39be 8690 a2be
000000d0: d78a 743b d83f 1d3e 7f4d b53e 19ab fbbe
000000e0: 550b 2b3e 593f 503e a7ea 48be 99fd 9f3d
000000f0: 6083 0cbf 5f0f 0c3e 602c 923e 1ef5 5cbd
00000100: 5043 23bd de93 e7bd 25fe cbbd fe2d 6ebd
00000110: 2dc0 00bd 4865 dd3b 76be 9b3d f568 c33d
00000120: d63c 20bd 2e2c 143d 1fd3 b7bd 9169 813c
00000130: b970 79bd 5677 b9bc cdef a4bd ea59 8c3c
00000140: db92 0cbd f679 9ebd c5d2 c63a b345 cdbc
00000150: 417b dabc 6185 6ebd 3ddc 0dbe 3e3c f5bc
00000160: 668c 5bbd 00e2 a23c bf83 d1bc e67b 75bd
00000170: 2072 90bd f700 303d c9c9 2ebd 14a8 1d3d
00000180: 83d2 8abc 1609 40bd 926f 9f3b 2fe2 edbd
00000190: 2e5e 9dbd 9b8a abbd 8a1a 4c3c ad22 f6bc
000001a0: 5c8c b1bd f8b6 87bd 97aa c1bd ab41 9ebd
000001b0: 0569 5bbd e4f0 343d 0274 7bbd 4387 18bd
000001c0: 8b81 b6bd 9a4b c23d 5016 c1bc 46f7 78bd
000001d0: ff2f 80bc 0456 3abd 9bd7 72bd 22c9 8bbd
000001e0: cc63 a1bb a68c 7ebd 9439 babd cd50 02bd
000001f0: cf39 8cbd 5800 53bd 38c6 08bd 1e44 b5bc
00000200: 5b92 77be ef51 ccbc 5a88 893d b219 353e
00000210: c39b 0b3d 3726 e1bd e23b bdbd 0a2b 8ebd
00000220: d674 ee3d 9fd8 1bbe 3f4b 36be e6a8 4b3d
00000230: 96b3 443e 9f01 123e 0974 febc 7cb5 80bd
00000240: bacd af3c e515 203e cb8e 053c bf1f 0f3d
00000250: 15cd a3bd 0f02 0c3d 53b9 093e ef5e 053e
00000260: 6115 cebd 0157 a6bd a4db 36bd 47e6 a53d
00000270: b5f2 c43d e682 13bd b4d3 9a3d f739 a03d
00000280: 6e52 1cbf 890b 0c3e 7933 17bc 8895 bb3d
00000290: 1771 f83d 527f 763d 2ba8 a93b fa57 5d3e
000002a0: bced e63d 06de ab3d 7c8f 0c3e e47b fa3d
000002b0: 4b3e 98bc f61a e6bd 6e52 113e 1013 243e
000002c0: 7264 a53e cf4a 873c f44f 4cbd a9ef 92bc
000002d0: 51a9 a1bb 969f 81bd 32dc 5b3d 9c3f 593d
000002e0: 4ec0 f53d 9256 673d b78d 88bd 42ba 6b3e
000002f0: f875 14be 7f4f a6bd c6e6 973d ef82 0e3e
00000300: 0675 ff3b c19c d1bd a700 c2bc 0db5 ed3d
00000310: a5eb e3bd 35b2 733d 113a 83bd 05d3 ae3d
00000320: 49ba 113e 304b b1bd c8e7 003e 12d4 6f3d
00000330: 1091 aabc fcb5 49bd f72f 303e 4fe0 893d
00000340: 93bf 81bd a6d0 083e 1115 403e 95c4 a8bb
00000350: a6d1 62bd dd9a 26bd a03e 603d b6bf 4fbc
00000360: 7263 f13c 3153 513d 5815 7ebb 2fb7 0abd
00000370: 0bc9 b93d 51ab 833d e1d9 313d 7cf2 c6bd
00000380: 6ba6 96bd d911 703e 0641 fbbd 2918 4f3d
00000390: b29c e23d 95ed 8abb 779c d43d fe63 a3bc
000003a0: 3fbb ed3c eb5c 753d 3108 e63c 514a ba3d
000003b0: 8de0 04be cd2e 2c3d 9735 513e bcd3 35bd
000003c0: d95b 0a3a 8e62 b93d c01f 883d d96f 1cbe
000003d0: e33c 623c a24a f03d 526e e53c 86de 863d
000003e0: 69bd 1a3e 18ac 323e 0979 b6bd 8058 b5bb
000003f0: b792 09be 4621 523d f05a 2e3d a4e3 803d

encoder.dcrnn_cells.0.update.bias_pool f4 [2, 64]
0.08815151 -0.10464711 0.20341831 0.2872834 0.15988468 0.13993026 -0.06261438 0.1065584
-0.096911386 -0.2495129 -0.1680644 0.06495408 -0.21033876 0.00026416927 0.070159435 -0.22388622
0.15945219 0.13367431 0.22727175 -0.2147662 -0.15015684 -0.14526105 -0.06104679 0.25276694
0.011923847 0.2786648 -0.35533035 0.21550302 -0.37254784 0.22483832 -0.29900947 -0.23218259
-0.4046583 -0.12704398 -0.2725716 0.1304556 0.27026325 -0.28261796 0.20448048 -0.16148327
0.19383252 -0.122601956 -0.07013658 -0.13857043 0.102253854 -0.2467709 -0.031948317 0.09805196
-0.009394897 -0.29764298 0.047928184 -0.023968505 -0.23897581 -0.10981001 0.19436207 -0.2504495
0.32483113 -0.12720312 -0.008292116 0.07845558 -0.3172446 -0.25087634 0.154943 -0.07247583
0.12837349 -0.026038462 -0.32927114 0.11620034 0.27992216 0.05605309 -0.13963626 0.3000756
-0.22815329 0.25456423 0.19985986 0.027601222 -0.09225316 -0.14027281 -0.10168856 -0.2171484
-0.20292182 -0.21444693 -0.12318005 -0.26970184 -0.18944827 -0.17452835 0.05466052 -0.1398548
-0.050744038 -0.16249958 0.15087697 -0.11712969 0.18682252 -0.08622803 0.23815688 -0.21653211
-0.023187855 0.15207495 0.33855006 -0.1388212 -0.04473708 -0.0557807 0.11046052 0.2426944
0.17197752 0.02841473 0.15849552 0.032188594 0.12964687 -0.015180711 -0.13279186 -0.33452338
-0.13208844 -0.14945836 0.17391455 0.27396005 0.25765377 0.30959734 0.15612736 0.33366612
0.16251071 0.24477707 0.26257324 -0.05871516 -0.039724585 0.22059101 0.25890514 0.1889194
00000000: c788 b43d 3951 d6bd e44c 503e cf16 933e
00000010: cfb8 233e e149 0f3e f83b 80bd 4a3b da3d
00000020: 7a79 c6bd 4f80 7fbe 1319 2cbe a506 853d
00000030: 0b63 57be 3380 8a39 c0af 8f3d 6e42 65be
00000040: 6f47 233e ebe1 083e edb9 683e aceb 5bbe
00000050: b7c2 19be 50bf 14be 330c 7abd ab6a 813e
00000060: 3d5c 433c 27ad 8e3e dced b5be d3ac 5c3e
00000070: 97be bebe 043c 663e c517 99be 46c1 6dbe
00000080: 5f2f cfbe d117 02be 818e 8bbe 2796 053e
00000090: f25f 8a3e 4db3 90be 5563 513e df5b 25be
000000a0: 087c 463e bc16 fbbd c4a3 8fbd 68e5 0dbe
000000b0: 786a d13d 83b1 7cbe 3ddc 02bd 77cf c83d
000000c0: 0eed 19bc a964 98be 5850 443d 9959 c4bc
000000d0: 13b6 74be 12e4 e0bd da06 473e eb3a 80be
000000e0: 4450 a63e 8941 02be a8db 07bc 52ad a03d
000000f0: e26d a2be dd72 80be 61a9 1e3e 356e 94bd
00000100: 5774 033e 9d4e d5bc 3a96 a8be 72fa ed3d
00000110: f551 8f3e ed97 653d cffc 0ebe 82a3 993e
00000120: 04a1 69be 3e56 823e 10a8 4c3e f51b e23c
00000130: 3aef bcbd ada3 0fbe 1742 d0bd 265c 5ebe
00000140: bdca 4fbe fa97 5bbe d245 fcbd 5c16 8abe
00000150: bafe 41be 8fb7 32be b6e3 5f3d 1936 0fbe
00000160: fbd8 4fbd 4a66 26be 7e7f 1a3e b1e1 efbd
00000170: 674e 3f3e 5298 b0bd 66df 733e 98ba 5dbe
00000180: 75f4 bdbc 89b9 1b3e 6f56 ad3e 2527 0ebe
00000190: 3a3e 37bd 4e7a 64bd 2039 e23d e184 783e
000001a0: e01a 303e 02c6 e83c a64c 223e 30d8 033d
000001b0: 26c2 043e 84b8 78bc 97fa 07be a646 abbe
000001c0: 3142 07be 9d0b 19be a816 323e 7e44 8c3e
000001d0: 32eb 833e 8b83 9e3e dadf 1f3e 49d6 aa3e
000001e0: 3569 263e d7a6 7a3e 0070 863e 4f7f 70bd
000001f0: 3fb6 22bd 9ce2 613e 378f 843e 1674 413e

encoder.dcrnn_cells.0.update.linear.weight f4 [64, 65]
0.16298072 0.053898595 -0.070920646 -0.07799191 0.03373945 -0.16235888 0.019503383 -0.16723612
-0.19570862 -0.03217485 -0.31610665 -0.011553281 -0.11022502 0.16978416 0.08330013 0.022401756
0.050135046 0.11611251 -0.0032957874 0.12133754 0.09629984 -0.21053024 0.13859852 -0.18656632
0.10270186 -0.30804318 -0.15331016 -0.036869526 0.053152885 0.12058052 0.025541637 -0.028254535
0.17927842 -0.17812948 -0.11681192 -0.008952221 0.13687718 0.047639877 0.23287189 0.11736423
0.005501168 -0.107354105 0.24534169 -0.254644 -0.23536341 -0.12088981 0.14259526 0.16336614
0.098319955 -0.06687734 -0.04366525 -0.33112004 0.07609074 -0.04058052 0.031100279 -0.12380919
-0.23445252 -0.06800889 0.20555718 -0.2506598 -0.086560935 -0.25684536 0.15124772 0.05509615
-0.16810188 -0.283584 -0.21246536 -0.13676646 0.1758929 -0.0052341833 -0.10771355 -0.06296347
-0.015413317 -0.35612223 0.08714581 -0.0945321 0.13686576 -0.1789511 0.15695755 0.032085944
-0.19548434 0.020900192 0.12957908 0.00317133 0.011582488 0.31333822 0.1455792 -0.08077623
-0.1983765 -0.14827016 -0.060835615 0.1508649 -0.051597703 -0.05640751 0.04490691 0.0091333585
0.076623745 0.19328186 -0.12309658 0.07356557 -0.09723422 0.002741959 -0.18903065 0.098422
-0.100438066 -0.17091322 -0.005951364 0.15470113 0.20974402 0.011158909 -0.26879692 0.12024883
0.14609846 0.09453211 -0.11954455 -0.16508044 0.05253909 -0.29457104 -0.22219191 0.13988468
0.10898389 -0.18206449 0.061485313 0.017909205 0.048981987 -0.22911885 -0.14852586 0.16457778
0.0987978 0.09276968 0.1313439 -0.25071666 -0.09519563 -0.25612822 0.076722965 0.08631004
0.04119391 -0.0059898924 -0.19459768 0.2121352 0.05752686 -0.18424518 -0.11080375 -0.06400344
0.04022451 -0.20014995 -0.227073 0.07996358 0.22068848 0.18492658 0.089154474 0.0013990315
-0.06033152 0.0531455 0.04328673 -0.24670856 -0.022552019 -0.07363995 -0.15832867 -0.1568017
-0.20263681 0.17470217 0.17771249 -0.03878546 -0.010931466 0.1934142 0.18441379 0.14216888
0.064409256 -0.03580012 -0.096633956 0.02382237 0.07816973 -0.19587521 0.0933803 -0.2796135
0.055458073 0.14592747 -0.091773264 -0.097413704 -0.24403253 -0.070392296 -0.031021204 0.046304792
0.078692086 0.09464207 -0.0972868 0.23160231 -0.15436566 -0.18683979 0.018911997 -0.1614313
-0.011094202 -0.14444807 -0.2192527 0.3784846 0.06589654 -0.069451645 -0.050590266 -0.014079261
0.1857648 -0.15918414 0.056199446 0.22300793 0.1672299 -0.24503256 0.0020041023 -0.10095546
0.11965734 0.024014318 0.083961226 -0.05646781 0.06608233 0.07656139 0.0358053 0.25042823
-0.024378086 -0.18275112 0.045102764 -0.016438883 0.14993285 0.05122984 -0.17744595 -0.053098455
-0.18195546 -0.21801975 0.13721752 -0.105103575 0.16098864 0.18853003 -0.09882803 0.059569217
0.18745753 0.21066871 0.12068937 0.24389502 0.16402853 0.18418406 0.19907118 -0.06580483
0.19780442 -0.17503253 -0.06183064 -0.032385256 0.19316207 -0.03271346 -0.082559526 -0.13431974
-0.07175741 -0.17901662 -0.12443703 0.17874898 0.30243164 -0.20937826 0.13453135 0.0039297184
00000000: 6be4 263e c6c4 5c3d d83e 91bd 39ba 9fbd
00000010: 6132 0a3d 6841 26be 8fc5 9f3c f23f 2bbe
00000020: d767 48be c7c9 03bd bbd8 a1be f949 3dbc
00000030: a8bd e1bd e6db 2d3e 4299 aa3d e383 b73c
00000040: 685a 4d3d 65cc ed3d 23fe 57bb d17f f83d
00000050: da38 c53d 3d95 57be c5ec 0d3e 3e0b 3fbe
00000060: 5a55 d23d d6b7 9dbe 57fd 1cbe 8004 17bd
00000070: d7b6 593d ebf2 f63d b23c d13c 0e76 e7bc
00000080: c394 373e 9367 36be 173b efbd 56ac 12bc
00000090: 8829 0c3e 0822 433d f875 6e3e a85c f03d
000000a0: 2443 b43b 78dc dbbd da3a 7b3e b360 82be
000000b0: 1b03 71be 1495 f7bd 7e04 123e 7449 273e
000000c0: f95b c93d fdf6 88bd 55da 32bd 9188 a9be
000000d0: 76d5 9b3d c237 26bd 03c6 fe3c ac8f fdbd
000000e0: 5214 70be 3f48 8bbd 957d 523e 7b56 80be
000000f0: dc46 b1bd 3c81 83be afe0 1a3e 80ac 613d
00000100: e622 2cbe ec31 91be 8590 59be 820c 0cbe
00000110: 451d 343e 8383 abbb ec98 dcbd fef2 80bd
00000120: 2388 7cbc a755 b6be 8179 b23d 0c9a c1bd
00000130: 8a26 0c3e f53e 37be 7bb9 203e 8d6c 033d
00000140: 0c2d 48be e136 ab3c 61b0 043e 17d6 4f3b
00000150: 7ac4 3d3c de6d a03e b712 153e 026e a5bd
00000160: 3623 4bbe 22d4 17be c42e 79bd 547c 1a3e
00000170: 1d58 53bd 900b 67bd 4ff0 373d 15a4 153c
00000180: e9ec 9c3d aeeb 453e 0f1a fcbd 8ca9 963d
00000190: bc22 c7bd 70b2 333b 4091 41be 7991 c93d
000001a0: 79b2 cdbd e003 2fbe a903 c3bb f969 1e3e
000001b0: 23c7 563e dbd3 363c c09f 89be 0545 f63d
000001c0: d69a 153e 0d9a c13d c6d3 f4bd d90a 29be
000001d0: 3b33 573d 04d2 96be 4786 63be ee3d 0f3e
000001e0: f232 df3d 1d6f 3abe 06d8 7b3d 53b6 923c
000001f0: 56a1 483d 229e 6abe 2a17 18be 1487 283e
00000200: 8056 ca3d 08fe bd3d 047f 063e ef5d 80be
00000210: edf5 c2bd 3d23 83be ee20 9d3d 51c3 b03d
00000220: f2ba 283d dc46 c4bb 9d44 47be f839 593e
00000230: 49a1 6b3d c5aa 3cbe 14ed e2bd 3c14 83bd
00000240: 75c2 243d 1cf4 4cbe d385 68be f2c3 a33d
00000250: 29fc 613e 655d 3d3e 9f96 b63d b55f b73a
00000260: 2f1e 77bd 19af 593d 6d4d 313d 2ba1 7cbe
00000270: 03bf b8bc 8bd0 96bd e920 22be a090 20be
00000280: 0680 4fbe 20e5 323e 43fa 353e 81dd 1ebd
00000290: e419 33bc 5f0e 463e f8d6 3c3e b894 113e
000002a0: 00e9 833d 26a3 12bd 06e8 c5bd 2227 c33c
000002b0: 7417 a03d 8393 48be 2c3e bf3d 8029 8fbe
000002c0: 0128 633d 036e 153e 9ff3 bbbd d680 c7bd
000002d0: aae3 79be d629 90bd 2e20 febc 18aa 3d3d
000002e0: 5129 a13d b4d3 c13d 4d3e c7bd 2829 6d3e
000002f0: 0812 1ebe ee52 3fbe 55ed 9a3c 3f4e 25be
00000300: 75c4 35bc 32ea 13be c883 60be bcc8 c13e
00000310: c4f4 863d aa3c 8ebd bd37 4fbd b3ac 66bc
00000320: 2139 3e3e 2b01 23be 6431 663d 315c 643e
00000330: 513e 2b3e d1e9 7abe 4257 033b bcc1 cebd
00000340: e80e f53d adb9 c43c ddf3 ab3d ca4a 67bd
00000350: 2c56 873d 38cc 9c3d 94a8 123d 2138 803e
00000360: 8db4 c7bc 1c23 3bbe adbd 383d d6aa 86bc
00000370: ff87 193e 61d6 513d 64b4 35be c47d 59bd
00000380: 8852 3abe 9240 5fbe c082 0c3e 8b40 d7bd
00000390: 35da 243e 040e 413e 5a66 cabd dafe 733d
000003a0: def4 3f3e 8ab9 573e fd2b f73d 9ebf 793e
000003b0: 18f7 273e bf9a 3c3e 51d9 4b3e afc4 86bd
000003c0: 3e8d 4a3e ba3b 33be 2042 7dbd 67a6 04bd
000003d0: 47cc 453e 8dfe 05bd f814 a9bd 1d8b 09be
000003e0: 8df5 92bd 2250 37be d7d8 febd f909 373e
000003f0: 52d8 9a3e 4167 56be 96c2 093e dec4 803b

encoder.dcrnn_cells.0.update.linear.bias f4 [64]
0.4681965 0.37154356 0.553479 0.74056244 0.5650342 0.0958665 0.020731758 0.5658639
0.2348249 0.20526466 0.4431991 0.61774236 0.74956757 0.46661496 0.9166884 0.6540216
0.087767035 0.22506253 0.24339645 0.21285377 0.84846157 0.5128593 0.36982703 0.8416492
0.375785 0.07411803 0.5146355 0.27270353 0.7779877 0.063786246 0.4975665 0.14733094
0.27134207 0.2667698 0.24139246 0.3156972 0.55303735 0.40326062 0.3354248 0.59620905
0.7511688 0.3454393 0.74685264 0.5327226 0.7485902 0.1073316 0.93013775 0.5810665
0.124195464 0.69518304 0.91836375 0.41142654 0.36267933 0.8589537 0.5962475 0.8040751
0.31839868 0.3979335 0.16613436 0.8694814 0.27846554 0.24607196 0.7111803 0.8612795
00000000: 74b7 ef3e f53a be3e cdb0 0d3f 8095 3d3f
00000010: 15a6 103f a855 c43d a6d5 a93c 75dc 103f
00000020: f075 703e e630 523e feea e23e 5d24 1e3f
00000030: a9e3 3f3f 28e8 ee3e 17ac 6a3f f66d 273f
00000040: 34bf b33d cb76 663e eb3c 793e 57f6 593e
00000050: c734 593f bf4a 033f f859 bd3e 5276 573f
00000060: e466 c03e 32cb 973d 27bf 033f cc9f 8b3e
00000070: 342a 473f 5da2 823d 09c1 fe3e ecdd 163e
00000080: 59ed 8a3e 0d96 883e 962f 773e 10a3 a13e
00000090: db93 0d3f 2d78 ce3e cdbc ab3e 28a1 183f
000000a0: 994c 403f 6cdd b03e bc31 3f3f 8260 083f
000000b0: 9ba3 3f3f abd0 db3d 821d 6e3f c6c0 143f
000000c0: 315a fe3d 84f7 313f e319 6b3f 80a6 d23e
000000d0: 1bb1 b93e 64e4 5b3f ada3 183f ded7 4d3f
000000e0: 2705 a33e f1bd cb3e 201f 2a3e 5596 5e3f
000000f0: 0993 8e3e 4afa 7b3e ea0f 363f d07c 5c3f
