mo/TARGCN/model/model_para/PEMSD8/epoch_5.pth (torch, 597909 bytes, 48 tensors)

node_embeddings f4 [170, 2]
00000000: 7faa 193c e4a0 63be 2385 c13d 6dea 27be
00000010: 447c b13d 3f5b a6bd fbdb f43c b3b0 5cbe
00000020: 7d19 ad3d 820e 32be 7d6b 6b3d faed 13be
00000030: 3eab 873d e91a 36be 478d d13d ca32 37bd
00000040: f7bb cc3d 6fd2 c0bc 9f15 113d 814e acbe
00000050: b73e af3d 622c 19be b385 0e3e 44fd ffbc
00000060: f4e5 353e 694b 5cbd 35dc 0a3e 33f6 c7bd
00000070: c5c3 b03d d16e 14be c8bf 793d 1fef 0dbe
00000080: 36a8 1a3e df30 d93c 844e 583d 2eb7 28be
00000090: 5471 e93d bc73 d1bd 1183 15bd 6b17 72be
000000a0: 785a 283e 5a25 1abd d27d b33d 8fe8 bfbd
000000b0: 5a69 f23d 882c 1abe 1be2 053e 1795 bfbd
000000c0: ad58 783e d99a e83d a670 0c3e dd6c 4bbd
000000d0: c4e9 e13d 1617 e0bd 28d6 b53d 523e 02be
000000e0: c31a f93c 52f9 42be 05ef 7f3d bfcc e4bd
000000f0: 537b e53d e0a3 69bd bed5 843d 7967 b5bd
00000100: 7a13 623e 519b 113d 7f29 3a3e 6516 8bbe
00000110: c51f 393e 58c1 053d 8673 6dbd 6615 8dbe
00000120: d8f9 df3d 7365 bdbd 7baf 4fbb 7bda 01be
00000130: 497f 0f3e 1ee2 5fbd 9f50 1c3e 4e20 91bd
00000140: ede5 003d c8cd 0dbe c138 9f3d 45c8 1abe
00000150: c18c 473e d7e8 6d3c 3a60 ef3d da28 fabd
00000160: 8958 153e 443f eebc 97fb 153e ac75 d3bd
00000170: 1deb c23d caa9 12be 7b99 9b3d 982a 01be
00000180: 9f1a ebbb 2f2d 96be b438 e039 5277 ffbd
00000190: b8c4 3e3e c8b0 fc3a 4003 633d 1941 fcbd
000001a0: 133b c93d 8e0d 3cbe 94da aa3d 831f e8bd
000001b0: dd52 143e ec88 15bd ac82 b13d 5945 12be
000001c0: e070 a83d d2df c0bd 2b20 5b3e 5af0 263d
000001d0: ef96 943d dc99 87bd ae03 cd3d 1e18 5dbd
000001e0: 24a5 dc3c 0929 f5bd 9b22 eb3c 2c37 81be
000001f0: dce1 98bb a87f 23be 9f5f d5bd 7a3a afbe
00000200: 48d7 493e c673 55bd d26f ad3d c83d a9bd
00000210: a59a 903d ff53 b5bd 96ec dc3c 4bc8 f3bd
00000220: 4441 063e 2345 313c 1ed6 bb3d 7ec4 d6bd
00000230: 14e2 473d f97d 37be 1a24 343c cf32 2cbe
00000240: cbfa a43d c1ca a4bd b5fb 9d3d 3c74 1bbe
00000250: a0b8 2e3e 697d 42bc 7038 e33d 96af 8abd
00000260: 8559 823d 932b debd a2a1 c83c a6d1 20be
00000270: 5a05 e73d 510f 90bd 08e0 9d3d 3c9e a5bb
00000280: 67e0 8cbc 9400 9cbe a0d7 173e 0050 b5bd
00000290: 4dbf 63bd fc23 6dbe 527d cc3d d346 06be
000002a0: 85f7 913d 55f9 20be ef96 f23d 7e06 08bd
000002b0: 8f73 013a 9e2f 2ebe c0c6 933d 3180 17bd
000002c0: 1542 d43c 28b4 e6bd 916d 8f3d 52fd bcbd
000002d0: 2732 a83d e59b c4bd 19e8 1e3e 2177 d4bc
000002e0: bc3a 133e f032 9fbd 5d32 dc3d 1909 f6bd
000002f0: accc 373e e389 7e3c ebf2 163d b372 f0bd
00000300: 6d58 9cbd 37a1 50be e0e5 a93d f8dd a2bd
00000310: 26a5 c9ba 869c 0bbe c1e0 7e3c c041 0bbe
00000320: 1305 ff3c 769f cabd e7d0 f03d 1287 6ebd
00000330: f2b2 643e cc5a c03d 52c7 653e 5eda b83d
00000340: 3943 6d3d 3fce d6bd 2228 e93d bf8f 873b
00000350: 5e21 7e3d 9397 f2bd 312d 6a3d 7ab2 a5bd
00000360: 51b0 223e 4cd9 cbbd 919f 083d 4b0d f9bd
00000370: e30e a8bc 4d5e 1bbe eedd d43d c9b2 c4bd
00000380: aefe fe3d 4cc5 e63b b32f b93d 04d5 01bd
00000390: 5bae 6e3d b876 9cbc eecb 113e 00e9 19bd
000003a0: 4a6e 3d3e 9ae4 103d eeba c83d 0de1 a1bd
000003b0: fed4 383d aaa8 c4bd 009e 2d3e 80cd e9bc
000003c0: 02fb f13d 7d8c 69bd cf06 873d 2882 5abe
000003d0: fa94 a93c 8ab4 85be 86e3 f9bb 5a6c 96be
000003e0: 8835 bf3d 61c3 12be ebaa 2e3d aa58 6cbe
000003f0: 61e7 673d b668 40be 1004 42bc 6fd9 77be
0.009379028 -0.22229344 0.09449222 -0.1639802 0.0866628 -0.081228726 0.029890051 -0.2155178
0.08452127 -0.17388347 0.057475556 -0.1444625 0.06624459 -0.17783703 0.10232025 -0.04472617
0.09996789 -0.023537843 0.03542101 -0.33653644 0.08556884 -0.14958337 0.1391819 -0.031248696
0.17763501 -0.053782854 0.13560565 -0.09763756 0.0863109 -0.14495398 0.060973912 -0.13860749
0.1510323 0.026512561 0.052809253 -0.16476128 0.11398569 -0.10227153 -0.036501948 -0.23641746
0.16440761 -0.037633277 0.08764233 -0.09370529 0.118365005 -0.1505605 0.13074534 -0.093546085
0.24252577 0.1135766 0.13714847 -0.049664367 0.110309154 -0.10941903 0.08878738 -0.12719086
0.030408269 -0.1904042 0.062483806 -0.11171865 0.11205163 -0.05704105 0.064860806 -0.088576265
0.22077742 0.035548512 0.18179892 -0.27165523 0.18078525 0.03265509 -0.0579715 -0.27555388
0.10936326 -0.092478655 -0.0031690288 -0.12681 0.14013399 -0.054659 0.1526513 -0.0708624
0.031469274 -0.1384803 0.07774497 -0.1511546 0.19487287 0.014520845 0.11688276 -0.12214823
0.14584555 -0.029082902 0.14646755 -0.103251785 0.095175005 -0.14322582 0.075976335 -0.12613904
-0.0071748043 -0.29331347 0.00042766856 -0.124739304 0.1862973 0.0019278759 0.05542302 -0.12317104
0.09825721 -0.18364546 0.08342472 -0.113341354 0.14484735 -0.036507532 0.08667502 -0.14284267
0.08224654 -0.0941769 0.2139899 0.04075656 0.07255351 -0.06621143 0.100104675 -0.053978078
0.026934214 -0.119707175 0.028703025 -0.25237405 -0.0046655964 -0.15966666 -0.10418629 -0.34224302
0.1971103 -0.052112363 0.08468594 -0.08263737 0.07060746 -0.088539116 0.026968282 -0.11903437
0.13110834 0.010819706 0.09171699 -0.10486697 0.04879959 -0.17919149 0.010994935 -0.16816257
0.080556475 -0.08046485 0.07714025 -0.15181059 0.17062616 -0.01187072 0.11094749 -0.067717716
0.06364731 -0.10848155 0.024491135 -0.15704975 0.112803176 -0.070341714 0.07708746 -0.0050542634
-0.017196847 -0.3046919 0.14828348 -0.088531494 -0.05560236 -0.23158258 0.099848405 -0.13112955
0.07127289 -0.15720113 0.118451945 -0.033209316 0.0004938179 -0.17010352 0.07215643 -0.036987487
0.025910417 -0.11264831 0.0700332 -0.092280045 0.08212691 -0.09600047 0.15518226 -0.025935711
0.14377874 -0.077733874 0.107517935 -0.12013454 0.1794917 0.015535804 0.03685276 -0.11740627
-0.076340534 -0.20373999 0.08295798 -0.079524934 -0.0015384301 -0.13633928 0.015556515 -0.135993
0.03113035 -0.09893696 0.11758595 -0.05823428 0.22333887 0.09392318 0.22439316 0.09026025
0.057925437 -0.10488557 0.11384608 0.004137009 0.06204354 -0.11845317 0.057172004 -0.08090682
0.15887572 -0.099535555 0.0333553 -0.121607386 -0.020514911 -0.15172692 0.10393892 -0.09604413
0.1245092 0.0070425626 0.09042301 -0.03169729 0.058271747 -0.019099578 0.14237949 -0.03757572
0.18499103 0.03537426 0.09801279 -0.07904253 0.045125 -0.096024826 0.16954803 -0.028540373
0.11815454 -0.057018746 0.065930955 -0.21338713 0.02070092 -0.26114303 -0.007626 -0.2937954
0.09336382 -0.14332344 0.04264347 -0.23080698 0.056617144 -0.18789944 -0.011841789 -0.24204038

encoder.dcrnn_cells.0.gate.weights_pool f4 [2, 65, 128]
00000000: 0971 87be b8cf bbbd ca4d 663e f223 8b3d
00000010: 3e44 e63c 6fba 8c3c b745 213e ae09 bbbe
00000020: e903 ac3d fd13 423d 6681 7ebd d7ce 16bd
00000030: b9ae b03d 8e34 d4bd 1e7f 9e3e 3f8f 183c
00000040: 8ccc 313d 2371 bc3c 6a99 c63d 56b2 773d
00000050: 9880 033e 7e1c 57be 46ab 30be 1ea6 81be
00000060: e996 1f3e fe81 d8bb 5768 8c3d a5b0 c33d
00000070: b6cb bfbe 9475 05bc 3082 0bbe 2ce8 7fbe
00000080: 436b 91be fe05 c7bd c128 f4ba 6833 f53d
00000090: 11e3 b23d dea9 59bc b09c e23c 5213 353e
000000a0: 0816 61be b83c 783c 5868 533e 7e0d 05be
000000b0: e394 b73d 5cd8 d73d 7a92 8dbd de2a bebd
000000c0: e34c 01bd a703 8b3c a8d0 0a3e 5492 573d
000000d0: 0486 ffbd 433c 70be da8d f0bd 7ada 393d
000000e0: 2089 8fbc 149a 3cbd 8acb 96bd 8c71 0fbe
000000f0: 2a87 3c3e 9e2a 2c3b 19b7 9abd e2d4 23be
00000100: 34aa 21be e9ff ad3d d335 0cbe 0671 56be
00000110: f874 803e ddfd 57be fa0e 8ebe 7e98 6a3e
00000120: 035d 1ebe 52df 8abe 62fd 69bd a130 dbbd
00000130: 4531 383d 5427 c53d a9d9 a8bd 1de4 8dbe
00000140: 0718 13be d482 fcbd 9618 57be 4cd5 aabe
00000150: e211 0dbc ad34 e13d fefa 1a3e 8a60 143e
00000160: 1d75 a1bd 9012 80be 6360 22be 7df3 42be
00000170: 098d ae3e 2507 c6be 4c8e 5a3e cf09 e9bd
00000180: ce5c f5bd bd92 143c 37ea 813d 25b8 6abe
00000190: 4be0 4f3d 5514 91be 987e 77be 43ac b63c
000001a0: 77b3 8ebd f7ba a5be d025 07bd 7245 5e3e
000001b0: 3063 1abd 89be 8ebe 3ceb 51be b3b3 463e
000001c0: 5abd 193e 549f 2fbe b83b 18be f0ba 283e
000001d0: 1d89 cd3d 9217 9abc 23d2 bbbc 2141 0abe
000001e0: 259e dd3c 61b5 87bd 84ba 443e 4d21 b73d
000001f0: 4b7e 383e 9460 04be 757f 8e3e 0cc7 4c3e
00000200: 2ced 2e3e 83ec 93be 37d0 37bc 94b3 b1be
00000210: d5c4 abbc 6872 873b bc9a d6bd 18e5 fe3a
00000220: f968 c6bd f05f aebd 6c8e 73bd 4c9c 0ebe
00000230: 8bdc bdbe eed0 013e 66ed 9dbe c4d8 60bc
00000240: 775a b8bc d155 92be 23fd 93bd 5670 4ebd
00000250: 956a 9abe 13e1 b83c 8da3 bebd 07c7 3fbe
00000260: c43b b8be 5884 afbd 5235 89bd f56e 0cbd
00000270: 97f2 39be 7ad5 d0bd f848 64be 503f fd3b
00000280: b041 673d 79e9 8dbe 2e74 033e 153d 68be
00000290: 6b55 4cbe 1ccc e3bd e1a2 65bd 5afc 423d
000002a0: 2722 a4be 4e35 c9bd 38d3 55bd d9a6 bdbe
000002b0: 7648 07bd 9ddc edbc 9a52 c1be 4f02 92bb
000002c0: f8a3 413d 263d 14bd 2db6 8d3c a6b6 88bd
000002d0: 0d24 bd3c 21c0 703c 34af 1ebe 077f d4be
000002e0: b374 31be 6347 1bbe feee fdbc 834b 803d
000002f0: bc9b 9ebe 5d11 20bd f007 f9bd d247 8a3d
00000300: 82c2 72bb 6a20 8e3d 6a8f 86bc 428e d3bc
00000310: 4c89 28be c9f9 ad3d 5dfc 1bbc 28df 93bd
00000320: 779b cc3d 170f 0abd f4ff f53d 84b2 96bc
00000330: ded2 c0bc 9194 5dbd e7ca 613d d3ca 903d
00000340: 37ec ce3d cb9d c9bd 076a c33d a578 7d3d
00000350: f782 3b3d 7df2 00bd d616 4cbd c9da 4cbe
00000360: 31ba f03c d498 203d 131f d73d b240 c83d
00000370: 16bf 4dbd 5052 c33d 13da 89bd 288f 8cbd
00000380: 306c 77bd e35f 8f3d 30ac e9bc 0e07 56bd
00000390: f876 c73c aca2 583d dbf6 a93d 30e8 b5bc
000003a0: fc47 07be 0e42 ccbc bdb2 cfbd d5a9 433d
000003b0: 7a80 87bd 88c3 c43c 46ac f7bc f6a4 433c
000003c0: 9788 2dbd b174 c4bc c82d 76bc f5de 72bd
000003d0: be05 c93c 4c26 04be 6c98 2ebd fe14 cabc
000003e0: 12f9 5c3d cee2 023d 35ab 86bd b519 843c
000003f0: 549d 6c3d 9628 8bba 23cc a0bc 09f0 d8bc
-0.26453426 -0.091704786 0.22490612 0.067939654 0.028108712 0.017178742 0.1574925 -0.36530823
0.08399183 0.047382344 -0.062135123 -0.03681835 0.08627076 -0.103615865 0.30956358 0.009311496
0.04340796 0.023003167 0.0969723 0.06047281 0.12842023 -0.21006963 -0.17252836 -0.2532205
0.15584911 -0.006607293 0.06855839 0.09555177 -0.37460107 -0.008145709 -0.13623881 -0.2499091
-0.28402147 -0.0971794 -0.0018627868 0.119726956 0.08734716 -0.013285128 0.027662605 0.17683151
-0.2198106 0.015151195 0.20645273 -0.12993428 0.08963945 0.10539314 -0.06912704 -0.0928552
-0.031567466 0.016969515 0.13556159 0.052629784 -0.12476733 -0.23460488 -0.11745806 0.04537437
-0.017521441 -0.046045378 -0.07363041 -0.14008158 0.18410936 0.002627052 -0.07554454 -0.15999177
-0.15787584 0.084960766 -0.13692407 -0.20941553 0.2508924 -0.21092935 -0.277458 0.22909734
-0.15465169 -0.27123505 -0.05712641 -0.107026346 0.044968862 0.09626642 -0.082446404 -0.277131
-0.14364634 -0.12329641 -0.21005473 -0.33365858 -0.008610221 0.10996375 0.15134808 0.14489952
-0.07883666 -0.25014162 -0.15857081 -0.19038196 0.34091976 -0.38677326 0.21343344 -0.11378824
-0.11980592 0.009068188 0.06343501 -0.22921808 0.05075101 -0.28335825 -0.24169385 0.022298938
-0.06967824 -0.32369205 -0.032995045 0.21706179 -0.03769225 -0.27879742 -0.20499891 0.19404487
0.15013638 -0.17150623 -0.14866531 0.16477561 0.10035918 -0.018810067 -0.02292735 -0.13501407
0.027052948 -0.06626392 0.19211775 0.089418985 0.18016927 -0.12927467 0.27831617 0.19997805
0.17082661 -0.28891382 -0.011219076 -0.3470732 -0.02096788 0.0041335113 -0.10478732 0.0019446937
-0.09687991 -0.085143924 -0.059461996 -0.1392681 -0.37082323 0.12677357 -0.30845183 -0.013723556
-0.022504074 -0.28581098 -0.07226016 -0.0504001 -0.3015944 0.022568261 -0.093085386 -0.18728267
-0.35983098 -0.085701644 -0.06699623 -0.034285504 -0.18158947 -0.101969674 -0.2229346 0.0077284947
0.05645913 -0.27717188 0.12837288 -0.22679551 -0.1995446 -0.11122915 -0.056063537 0.047603942
-0.32057306 -0.0982462 -0.052203387 -0.37041357 -0.03302809 -0.02903586 -0.37758332 -0.0044558416
0.047275513 -0.03619113 0.017298782 -0.066754624 0.02308848 0.014694245 -0.15496522 -0.41503164
-0.17329673 -0.1516395 -0.03099775 0.06264403 -0.3097819 -0.03907906 -0.12159717 0.0675198
-0.0037042205 0.06939776 -0.016425807 -0.02582467 -0.16458625 0.08494908 -0.009520617 -0.07220298
0.0999059 -0.033705797 0.1201171 -0.01839567 -0.02353805 -0.054096762 0.055125143 0.07069936
0.10103648 -0.0984455 0.095417075 0.061882634 0.045779195 -0.031481255 -0.049826466 -0.20005335
0.029385658 0.03920825 0.10503974 0.09777965 -0.050231062 0.09537184 -0.067310475 -0.068632424
-0.06040591 0.07000711 -0.028524488 -0.05225282 0.02434872 0.05288951 0.08299037 -0.022205442
-0.13211054 -0.024933841 -0.101415135 0.047769386 -0.06616302 0.024019018 -0.030233514 0.011941185
-0.04236659 -0.023981424 -0.015025564 -0.05929466 0.02453887 -0.12905234 -0.04262583 -0.024668213
0.05394847 0.03195458 -0.06575624 0.01612554 0.057767227 -0.0010616954 -0.01962859 -0.026481645

encoder.dcrnn_cells.0.gate.bias_pool f4 [2, 128]
00000000: 6c14 b13e 0a18 07bf 1647 2f3e 9f10 0abe
00000010: 6654 c63e 0f35 a33d ceeb 05bd cd9e f9bd
00000020: bfd1 283d 5c63 d1bd 8bcc e43d 39a2 08be
00000030: 0cc0 c6be 8118 933d a7f4 4ebd 4853 cfbc
00000040: dcaf 46bd eae6 27be 2fec 813d ccd9 11be
00000050: e92f debc 21bf 52bd 46a3 a53d 6f39 82be
00000060: 62eb 4fbd 3dd8 8abd 8919 9bbd ed0e 1a3e
00000070: fb44 bf3d cfd6 66bd 9c20 82bd fdbe 003f
00000080: 92fa 8e3d 710d 24be 43cc 113e 8988 58be
00000090: 6f85 aabe 8973 7ebe 3cbb 79bd 07f7 f1bd
000000a0: fe30 d0bc 29b8 373e 392e f5bd 949f a83b
000000b0: 62a8 d33d 2ba9 d93d 1096 c1be 2a7d 043e
000000c0: 699a 443e d240 7e3e 7195 403e a3f7 bb3d
000000d0: 7794 5f3e c7ce af3d a51d 3fbe bc11 8dbe
000000e0: 5164 5fbe 1d06 443e 70ff 0c3d ddaf 403e
000000f0: 1784 1bbd 8203 2d3d bf3f 17b9 03db d13c
00000100: 6667 c73d b326 4f3d 9309 ab3d d3f5 6dbe
00000110: 4be7 9abe 097d 293e 62db 1dbe 5300 a9be
00000120: cce1 3b3e a838 2abe f891 f13d 0cd0 cfbc
00000130: d296 9c3d 2a3b 2a3d 754f 183e 1f14 4c3d
00000140: 03e8 25bd ad62 00be 983b 48bd 92b6 e0bd
00000150: f155 16bd 750f 4fbe c061 71bd 5f59 01bd
00000160: a4ce bb3d e02f da3c eb76 333e 5614 633d
00000170: 3462 12be bd10 4cbd 19e4 553e 04b4 8fbb
00000180: e735 123d 37e1 01bd 98ac 02bd a80d 63be
00000190: b9d0 adbd 5bb7 a4bd 1752 f93d e409 2ebe
000001a0: b977 61bd 295c 91be ab9c f1bd 6ad4 02be
000001b0: 0676 89be f048 2abe 0d65 73be a806 213e
000001c0: 67b6 01be b477 4fbe a96f 5abe 8903 553d
000001d0: 4629 4bbe 86d7 eabd e46a 113e dede 203d
000001e0: 9779 3b3e 5779 edbd ff48 5e3c 45da 01be
000001f0: 3d91 56bd 6c35 3a3e 79c3 62be b3b2 fb3d
00000200: 0392 85be aa92 c33e 8437 aebd 293b ae3e
00000210: 9dba 54be 529f c83d de3b 0fbc 5434 c43e
00000220: a8fe 1d3e 3a87 3cbe aa37 82be 68aa 9e3e
00000230: 50de 9d3e 8ec5 773c 9fe5 c03e 0897 ccbd
00000240: ae3d abbd 8192 973d b17e 30be 877c 12be
00000250: b037 39bd 86ad 30bd da6d c63c 358d 5c3e
00000260: 948a b03e f64e ae3d 02d8 48be 6049 a53d
00000270: 7497 233e bf8d a4bd 509b 943d e54c 4a3e
00000280: 21b0 35be 75bb 683e 7b79 1fbe 149c 973e
00000290: b82e 903e 5b51 db3d b450 73be e85c 28bd
000002a0: 9687 383e 7ffb fabd 640f 453c 58d7 8d3c
000002b0: 09fd bcbd 4e2d d13d 2b9b 49bd 89ee 80be
000002c0: b356 07be ffdb 3fbd 764b 29be 15fe da3d
000002d0: 10f0 15b8 7bdd 4cbe b046 4f3e 28ab b33d
000002e0: 1c18 c4bc ed7c 8fbd 67b5 2dbd 56ed 7dbe
000002f0: 5f9d df3d 0ddf 173d cbee 283e d365 233e
00000300: 4716 dabb f0ed 3ebe 98eb e8bd 8e53 6bbe
00000310: 95bd d53d f6fc 553d db5b 033e 6980 943d
00000320: f5b3 c53b 8dc4 163e 558d 80be d1a6 153c
00000330: fb09 4cbe f466 5e3e 44d1 4d3d 73cf 0abe
00000340: 83ff 60be f6a7 823e 9f65 803e a39c 13be
00000350: fb4c e83d 90fd b53e 38f2 0abe 5e42 a73e
00000360: f4f0 35be 8569 8f3b 6316 0ebc 4b45 8a3d
00000370: adfa 93bd f2df 44bd 7da6 52bc 1878 4bbe
00000380: 5295 923e 15d2 5bbd d3ee 733e dd1e 3d3e
00000390: 6e38 1dbe 0b8f babc 551d 25bd 923a 06bd
000003a0: 7f44 c23d dd24 6bbc 62d8 4cbe 3977 6fbe
000003b0: afcc 2f3d 1027 623e b7d9 d33d 8ee8 bd3d
000003c0: 756c 7e3e ad2f c23e 9cdb f43b a36e f5bd
000003d0: 0788 8b3e 7c6d e13d d186 b8bd 3bb6 2a3d
000003e0: 095e 8f3d c847 1cb9 2dbd 633e 295e f73a
000003f0: 6bd6 dabd d0ca ebbd cd90 a4bd f9d5 d63d
0.34585893 -0.52771056 0.17116961 -0.13482903 0.38736266 0.079691045 -0.032695584 -0.12188492
0.041215654 -0.102240294 0.11171826 -0.13343133 -0.38818395 0.07182408 -0.050526287 -0.025308266
-0.048507556 -0.1639668 0.063438766 -0.14243239 -0.027122455 -0.051451806 0.080877826 -0.25434443
-0.050761588 -0.067795254 -0.0757323 0.15044756 0.09339329 -0.0563572 -0.06353876 0.50291425
0.06981386 -0.16020752 0.14238076 -0.21145834 -0.33304927 -0.2484876 -0.060969576 -0.11814695
-0.025413986 0.17941345 -0.11971707 0.0051459763 0.10334851 0.10627969 -0.378098 0.12938371
0.19199528 0.24829414 0.18807007 0.09178092 0.21833979 0.085843615 -0.18663652 -0.27552593
-0.21815611 0.19142957 0.03442329 0.18817087 -0.037967768 0.042239673 -0.0001442423 0.025617128
0.097365186 0.050574016 0.083514355 -0.23238306 -0.30254588 0.16551603 -0.15415719 -0.3300806
0.18347853 -0.16623175 0.117954195 -0.02536776 0.07645954 0.04156033 0.1487406 0.049823876
-0.040504467 -0.12537642 -0.048884958 -0.109723225 -0.036703054 -0.2022074 -0.058931112 -0.03157937
0.09170273 0.026634157 0.17525832 0.055439316 -0.14295274 -0.04982065 0.20887794 -0.004385473
0.035695937 -0.031708922 -0.03190288 -0.22173178 -0.08487076 -0.08042785 0.121738605 -0.1699596
-0.055045817 -0.28390625 -0.1179746 -0.12776342 -0.26847857 -0.16629386 -0.23769017 0.15725195
-0.12667237 -0.20260507 -0.21331657 0.052005325 -0.19839963 -0.11466889 0.14200932 0.039275043
0.18308102 -0.11595409 0.013567208 -0.1268092 -0.052384604 0.18184441 -0.2214488 0.122899435
-0.2608796 0.38197833 -0.085066825 0.3402951 -0.20774312 0.09796013 -0.008742301 0.38321173
0.15429175 -0.1841096 -0.25433093 0.30989385 0.30833673 0.015122784 0.37675187 -0.099897444
-0.08361374 0.0740099 -0.17235829 -0.14305316 -0.045219123 -0.043134235 0.024222303 0.21538241
0.34480727 0.08511154 -0.1961365 0.08070636 0.15975744 -0.080348484 0.07256186 0.19755895
-0.17742969 0.22727759 -0.15573685 0.29611266 0.28160644 0.10708877 -0.23761255 -0.041104227
0.18020472 -0.12255 0.012027595 0.017314598 -0.0922795 0.10213719 -0.049220245 -0.25181988
-0.13216667 -0.046840664 -0.16532692 0.106929936 -3.5747944e-05 -0.20006363 0.20241809 0.0877288
-0.023937277 -0.070062496 -0.042409327 -0.24797568 0.10918688 0.037077952 0.16497342 0.15956812
-0.0066554877 -0.18645453 -0.11373061 -0.22981092 0.104365505 0.052243195 0.12828009 0.07251055
0.0060334154 0.14723416 -0.25107828 0.00913401 -0.19925682 0.21718961 0.0502484 -0.13555698
-0.2197247 0.2551877 0.2507753 -0.14415221 0.11342808 0.35545015 -0.13568962 0.32667822
-0.17767698 0.0043765926 -0.00867233 0.06751498 -0.07225547 -0.048065133 -0.012857077 -0.19870031
0.28629547 -0.053667147 0.23821573 0.18468805 -0.15353557 -0.022773286 -0.040311176 -0.0327707
0.09485721 -0.014352051 -0.20004418 -0.23385324 0.04291981 0.22085214 0.1034426 0.09272872
0.2484606 0.37927 0.0074724685 -0.11983993 0.27252218 0.110072106 -0.09010089 0.041677695
0.07000358 -0.0001490406 0.22240134 0.0018872666 -0.10685428 -0.11513293 -0.08035431 0.10490031

encoder.dcrnn_cells.0.gate.linear.weight f4 [128, 65]
00000000: a727 3fbe 0db8 dd3d 3b5c 963d 7cee a93c
00000010: 6b2c 0b3e 48bd e63d ca05 6a3e 07d5 d53e
00000020: bd76 31bc 9d86 ad3d e32b c93e 7c74 323d
00000030: 75dd 503d 6894 a33e d699 7fbc da5d 29bc
00000040: 4a23 d23d 867c 22bf b364 b0bd a406 62be
00000050: 6688 c4bc 2e2d 9b3d 9c54 603e 2fdd 223e
00000060: 9537 2c3e 374b a13d a699 393e 91db 063e
00000070: 2c46 e0bd 35f0 723d 8fbc d43e 2668 143e
00000080: 489f 43be ee33 9bbc e8fd 543e bfde 7cbd
00000090: 4f2d 35be a0b5 b23d 759d c63c b052 633e
000000a0: a1fa 713e abaa 2c3e 970b 31be 833f 583d
000000b0: c1cc 353e d42b a13c 9833 d03d 701d 9d3d
000000c0: c0e8 cbbd 9e36 8a3d d852 113e 78cf b63e
000000d0: 7a62 68bd ae98 5f3e 6c70 2a3e b77f 633e
000000e0: 8146 8d3e 0148 77be 9552 2cbe d81c 1c3e
000000f0: bfce 6e3e f8b9 bf3d 0180 85bd 09a3 4b3e
00000100: 1799 f63c bc8c 42bc 10df 4fbd 3fe3 633e
00000110: 78ec 54be e508 a4bd 9807 8dbd 7265 07be
00000120: aa3d 7dbe 96c7 19be 4862 153e 284c 3fbe
00000130: ed88 913e c907 be3d eaef 50bd a04f bfbc
00000140: 18f7 433d f3fd 55be 59cb b8bc 2f97 053e
00000150: d8d8 2fba edb9 f13c 959c 43bd 1693 963d
00000160: 7bdb 35be eca8 08be d5f9 eeb9 bbb6 36be
00000170: 255e 983b ca72 ea3b b33d 3dbe 2493 0dbe
00000180: d5b9 31be 7941 3ebc a84d 963d 5a4d 03bc
00000190: 117d a23d fc2e 383d 66b8 1fbe a36b 973e
000001a0: 0d27 a5bd c321 1fbd 99cd 38be 6575 bd3d
000001b0: 30fa 983d 5b96 d8bd bfa9 92bd a35d edbd
000001c0: fa0f 3ebe c00d 0a3a 25ab 043e 00ec babd
000001d0: c734 11be 98ba b6bd 7cc4 9b3d 68ac 5dbd
000001e0: c679 d6bd ed20 893d 2532 6a3e f0d2 0fbe
000001f0: 6000 82be 01d5 14be 9ff5 3bbd e094 603e
00000200: e373 853d c003 55be 3fad 8e3e 2cbb 0dbe
00000210: 14cd db3b 99a1 14be 0473 553e 1e5b bebd
00000220: 5da8 a4bd 4086 ebbd 6c0d 363e d9b5 3b3d
00000230: 2812 55bd b697 7b3d 95ee 91bc d0c0 793c
00000240: d68f 743e 3ba3 993d 93e7 fcbd f669 053d
00000250: 549b 6d3d 3568 733d ca9c 623e fe7f a73d
00000260: 0db5 8fbd e779 c7bd d0cd 203e 0880 0fbe
00000270: 6c85 d9bd 3e84 fdbc e628 85be 3c8a c6bd
00000280: 89ba 6bbe dc81 fc3d 763e 903d 6763 0bbe
00000290: c859 47bd 08ca 9a3e 1f6a 8b3e becb a23d
000002a0: 7d0c 673e 7a52 463e fb20 363e c2d5 14bc
000002b0: 904f e8bd 7721 a6bd 89ba eb3d 1cc5 cbbb
000002c0: b191 083e 8297 2dbd a7a4 da3d 4dd8 4d3d
000002d0: caa8 0e3e 4378 74bd 1de8 3bbe af19 09be
000002e0: c0c4 efbd 4603 9bbd fe11 f33d 04b2 d93d
000002f0: 0216 17be dab5 58be 8de6 0bbe 803f 99be
00000300: 2136 46be 5f2d 3b3d cac5 df3d 01f6 97bd
00000310: 6a37 70be aeed bf3c ff8e 1cbd 3a2f 6e3d
00000320: 3074 66be 0e37 28be 6410 c6bd 335c 403b
00000330: 859c 7e3e 423e 91be 4552 d7bd e2d1 843d
00000340: 04db a43d a896 34be 3950 323e 4c9c 4cbe
00000350: 56fb ab3d 1afb fd3d f65d b73e b8cf a63e
00000360: 8169 413d 0c02 fd3d bd4f 2b3e 97cc 51bc
00000370: ca20 b5bd cd55 febd b805 5bbe e7c0 20be
00000380: 4439 1bbe 84de 1dbe 107c 5c3e f01b f23e
00000390: 75d6 90be 4b72 503e 5261 91bd 3306 5a3e
000003a0: 0620 5bba 566d 933e 43b8 30be 6d4c 4bbd
000003b0: 196e 263d 5ee6 7f3e 14f0 243e b5a1 48bc
000003c0: 7b23 4dbc a6bf 9bbe 67ce 6b3e e39c 40be
000003d0: f28e e4bd 8b1a 59be a179 39be 3921 273d
000003e0: 7e0d 76be b438 d23d 4bf4 e2bc c39e b03d
000003f0: 4d33 b73e 1a13 54bd 85a0 21be 3e8a 63be
-0.1866747 0.108261205 0.0734181 0.020743601 0.13591163 0.11266571 0.22853771 0.4176409
-0.010831532 0.08472941 0.39291295 0.04356812 0.050992448 0.31949162 -0.015600642 -0.010337317
0.10260637 -0.6347126 -0.08612957 -0.22072846 -0.023990821 0.07576977 0.21907276 0.15904687
0.16818078 0.07875674 0.18125018 0.13169695 -0.10950884 0.05931111 0.4155011 0.14492854
-0.1910373 -0.01894566 0.20799983 -0.061735865 -0.17693065 0.087260485 0.024245003 0.22199512
0.23630764 0.1686198 -0.17289577 0.052794944 0.17753889 0.01967422 0.10166091 0.076716304
-0.09956503 0.06748699 0.14191759 0.3570516 -0.05673454 0.21835586 0.16644448 0.22216688
0.27592853 -0.24148561 -0.16828378 0.15245378 0.23321055 0.093616426 -0.065185554 0.19886412
0.030102296 -0.011874374 -0.05074984 0.22254656 -0.2079333 -0.08009509 -0.06886214 -0.13222292
-0.24730554 -0.15017542 0.14588273 -0.18681395 0.2842478 0.09278829 -0.05101005 -0.023353398
0.04784307 -0.20897655 -0.022557901 0.13045953 -0.00067080325 0.029507602 -0.04775675 0.07352273
-0.17759506 -0.13345689 -0.00045581037 -0.17843144 0.004649895 0.007154797 -0.18480568 -0.13825661
-0.17356046 -0.01161229 0.073390305 -0.0080140475 0.07934011 0.044966683 -0.15597686 0.29574308
-0.08064089 -0.038850557 -0.1804718 0.09250907 0.074695945 -0.10575553 -0.07161283 -0.115901254
-0.18560782 0.0005266331 0.12955911 -0.09127045 -0.14180289 -0.08922309 0.07605836 -0.054119498
-0.10472445 0.06695733 0.22870691 -0.1404531 -0.2539091 -0.1453438 -0.04588854 0.21931791
0.06516244 -0.20802212 0.2786655 -0.13840932 0.006707797 -0.1451477 0.20844656 -0.09294723
-0.08039925 -0.115002155 0.17778558 0.04582772 -0.05201927 0.06142398 -0.01781396 0.015243724
0.23882994 0.07501837 -0.12348857 0.032571755 0.05800946 0.05942555 0.22130123 0.081787094
-0.070169546 -0.09740048 0.15703511 -0.14013684 -0.10621151 -0.030946847 -0.26007766 -0.09694335
-0.23020376 0.12329456 0.070431635 -0.13612138 -0.048669606 0.30232263 0.272294 0.07949017
0.22563358 0.193674 0.17786019 -0.009084167 -0.113433 -0.08111852 0.11510188 -0.0062185656
0.13336827 -0.042380817 0.10675936 0.05025511 0.13931575 -0.059685003 -0.18350263 -0.13388704
-0.11707449 -0.07568984 0.11868666 0.10629657 -0.14754489 -0.21163121 -0.13662167 -0.2993126
-0.19356586 0.045697566 0.10926397 -0.074199684 -0.23458639 0.023428764 -0.03822231 0.058150508
-0.2250526 -0.16427252 -0.09671095 0.002935183 0.24864395 -0.2836781 -0.105137385 0.064853445
0.080495864 -0.17635596 0.17413415 -0.19981498 0.08397548 0.124014094 0.35813874 0.32580352
0.047219757 0.12353906 0.16729636 -0.012805126 -0.08844145 -0.12418709 -0.213889 -0.15698586
-0.15158564 -0.15416914 0.21531701 0.4728694 -0.28288618 0.203561 -0.070986405 0.21291427
-0.0008358959 0.28794354 -0.1725779 -0.049633432 0.04063234 0.24990222 0.16107208 -0.012245585
-0.012520666 -0.30419654 0.23027955 -0.18809848 -0.11160077 -0.21201532 -0.18112804 0.040803168
-0.24028584 0.102647215 -0.027704379 0.086240314 0.35781327 -0.05177603 -0.1578389 -0.22220704

encoder.dcrnn_cells.0.gate.linear.bias f4 [128]
00000000: b71a 003f af5e 933d fd78 233e 343c 2dbd
00000010: 4707 6c3f 1b4e 093f 4dc0 e63e 0527 d83e
00000020: 64b3 503f f0e2 613e a5dc 423f 7765 053f
00000030: bb73 403e ae5a ff3e 06a9 143f 1095 7a3f
00000040: c7d6 533f 47a8 bb3e a214 413e db71 2c3f
00000050: fc72 aa3e 7428 0d3f 7642 623f 6f00 bc3e
00000060: fd6a 0ebd 9b73 f23e f562 493f 2a92 523f
00000070: 9572 dc3e 27d8 e13e 7a67 523f 0380 09be
00000080: 7c09 a83e 2bd6 e23e 8f69 6b3e 7dff 203f
00000090: bc37 e03e 6354 2b3d a8c6 c83e 4f1a 0b3f
000000a0: 07fe 683c a091 903c 6d04 823e 4944 813e
000000b0: 15e8 5b3f c8f7 1e3f a3ce d83e 8b67 7e3f
000000c0: f122 603f 7234 503f 444b 003f 8d7e fb3e
000000d0: cfb1 cf3e 676c 843f d110 c03e a367 f13e
000000e0: 8afa 193f e49f 283f 93ac 4f3e df14 653f
000000f0: 84a5 363f 14b4 863e 2b99 053e d2d7 763f
00000100: 7fa0 c83e 100a 843e 3c3b 163f 939f a53e
00000110: be72 1a3f 7582 863f 0b54 5c3f 91af 2c3f
00000120: a9df ee3e 0020 493f 0a20 943f d8bb a53d
00000130: 4c01 4c3e bfc7 fa3e c72a 9dbc c0e1 063f
00000140: 3569 1f3f 79e0 2f3f 4fb7 5e3f 5771 243f
00000150: 9aaf ec3c 0649 4fbd fba2 283f 0fbb 423e
00000160: 51e5 b63d a5a7 bc3e d5ff 443f b3eb 053f
00000170: d4a5 2dbe c063 5c3f fece 2b3f 6cc0 2b3f
00000180: 0fcf 663f 7653 193f c768 e63d 1754 183f
00000190: f4d6 cb3e a5fd 953e c47e 143f 69d1 a13e
000001a0: d864 6a3f a06c 5e3e 0d55 5a3f 7303 8f3d
000001b0: 72bc e03e 7879 343e c6a0 063f 3727 833f
000001c0: 53f2 193f 5d98 e93d be5c bc3d b38d 773e
000001d0: 4809 1b3f dc56 ff3e 5496 2c3f 356b 063e
000001e0: aebd 5a3f 6b9b 4c3f c6de ab3d 8044 1b3f
000001f0: e28f b33e 8be4 f13e 0dec e7bc 5d28 1d3f
0.50040764 0.07195794 0.15964122 -0.042293742 0.92198604 0.53634804 0.4506859 0.4221727
0.8152373 0.22059226 0.76117927 0.5210795 0.18794148 0.4987387 0.5807041 0.978837
0.827496 0.36651823 0.18855527 0.6736123 0.3329085 0.5513985 0.8838266 0.3671908
-0.03477 0.47353825 0.7866662 0.8225428 0.4305617 0.44110224 0.8218914 -0.13427739
0.32819736 0.44304022 0.22989486 0.62889844 0.43792522 0.041828524 0.39214063 0.5433702
0.014220721 0.017647564 0.25394002 0.2524741 0.85901004 0.62096834 0.4234515 0.99376744
0.87553316 0.81330025 0.50114846 0.49119988 0.40565345 1.0345582 0.3751283 0.4714938
0.6014792 0.65868974 0.20280676 0.8948497 0.71346307 0.26309264 0.1304671 0.96423066
0.3918495 0.25788927 0.58684134 0.32348308 0.6033133 1.0508562 0.8606574 0.67455393
0.46655014 0.78564453 1.1572278 0.08092469 0.1992237 0.4898052 -0.019185437 0.5268822
0.6226991 0.68701893 0.86998457 0.6423544 0.028892327 -0.05060675 0.6587369 0.1901667
0.089304574 0.36846653 0.7695287 0.52312773 -0.1695779 0.86089706 0.6711272 0.6709049
0.90159696 0.59892976 0.112504534 0.5950331 0.39812434 0.29295078 0.5800593 0.3160508
0.91560125 0.21721125 0.8528603 0.0698308 0.43893772 0.17624462 0.5258907 1.0246342
0.6013538 0.11406014 0.09197377 0.24175148 0.6056104 0.49870956 0.6741688 0.13126834
0.8544568 0.7992465 0.083921 0.606514 0.3507071 0.47244677 -0.0283108 0.61389714

encoder.dcrnn_cells.0.update.weights_pool f4 [2, 65, 64]
00000000: af5c 7f3e a21c abbe de7d 6d3e dbbc 4e3e
00000010: 7cc0 efbd 7440 1dbe 0906 50be 6830 303e
00000020: da44 4c3e 8e9f 20be 9bdf 453e 2247 9a3d
00000030: 3f22 433e 124c 4bbd 42ee 8abe a932 12be
00000040: a16e fc3d 2a26 5d3e 27be 7d3d fdcb 4f3d
00000050: 9ba0 87be 00bc 3b3e 0a0d 9b3d e763 743e
00000060: 5dda 4fbe 8b99 27be 1f41 48be 560a b93d
00000070: 5c5d a13e 6ced 52be a1d3 673e 107a 3bbe
00000080: e13d 903e a4fe a33e c168 64bd 2415 3a3e
00000090: 3348 323e e93d 3a3e 9bed 85bd bc0a 05bd
000000a0: c26b 7b3e f698 dd3d fa82 1e3e 62d2 883e
000000b0: 5ca7 f0bd 9fb7 2cbe 999f 923e 1ad4 143c
000000c0: 5de8 abbe d4a9 21be f341 2dbe 2972 a2be
000000d0: 0d66 53bc 2866 1e3e 18cd ab3e a857 cdbe
000000e0: 1b1a 2b3e 8d7c 533e bf5f 1ebe f711 b63d
000000f0: 2aa6 eebe c72a 153e d206 803e 516d 31bd
00000100: 5f43 18bd a205 afbd 32e2 babd 40e9 66bd
00000110: 0d80 1fbd ff67 1e3c b108 9d3d 6aa7 533d
00000120: e6d9 02bd 6648 203d f2c0 b7bd 22f8 043c
00000130: 03c3 6ebd 6738 99bc 91ed ccbd 61b7 ac3c
00000140: 4791 19bd c576 98bd 656f 16bc 0789 03bd
00000150: 9960 90bc 5f2c 5abd 1105 e9bd b643 e0bc
00000160: c74f 6abd b762 af3c 9208 94bc fdf8 77bd
00000170: 1412 6ebd 17e7 2b3d 91c7 22bd 3ee6 163d
00000180: 50f4 a1bc 50c4 25bd b635 37bb 4b42 ebbd
00000190: cb63 9cbd edbf a8bd 6f94 9b3c 7578 dcbc
000001a0: 2f85 b1bd c128 89bd 99e0 d9bd 0a56 93bd
000001b0: c9ad 52bd 6b8f 453d 379b 7abd 9cf2 03bd
000001c0: 7654 98bd e7b8 bf3d 387d 88bc 7d6d 77bd
000001d0: b31f 91bb 8c4f 1ebd c0ec 63bd 1385 c2bd
000001e0: 528c a6bb f99c 7bbd 034c 5cbd fc95 78bc
000001f0: 709d aebd df75 5ebd 50ae 20bd 141b 82bc
00000200: 7689 73be 9cee d0bd 02de 4b3d e4b5 1b3e
00000210: 5a19 33bc b2db c1bd 4a07 81bd cbf8 71bc
00000220: 2f5d c63d 5468 fdbd 5d39 38be e945 743d
00000230: 3754 223e 599e 073e 72a4 8dbd ff05 29bd
00000240: f5aa c43c 7ad1 033e d723 ed3b 0a29 e53c
00000250: 82ee e0bd 08c2 8b3c 44f3 dd3d 1943 d73d
00000260: d405 c4bd 670a 88bd bf1c c2bc 1025 a23d
00000270: 39ec b93d fe39 89bc 316d 573d 7c59 8b3d
00000280: 684b 11bf 3d5a eb3d d1ca 26ba 095b 833d
00000290: 8b8e c23d fd91 3d3d ea48 873c def9 553e
000002a0: 9970 b43d 13c4 933d 5641 ed3d ff03 cb3d
000002b0: 55c4 4dbc f253 a9bd 94da e53d c5f5 2a3e
000002c0: cc8c 613e 7ceb 8f3c 2c59 4ebd c48d 263c
000002d0: c714 51bc 26b6 83bd 99c3 0b3d dc2c f03c
000002e0: 4f63 ca3d 8eac 193d 978c eebd 31bf 4e3e
000002f0: 71e4 15be 557c c1bd 70f2 ab3d ee3c 103e
00000300: 4139 623c 2263 bbbd 85e0 51ba db30 f23d
00000310: 6375 02be 66f9 763d 3c19 85bd 5020 463d
00000320: d431 1a3e f0ee acbd 7dc8 003e cdfe 4e3d
00000330: aa80 afbc 23c2 3dbd 4a4b 113e 53e3 8a3d
00000340: ada7 82bd 1108 0c3e 79b1 3a3e 2b26 e9bb
00000350: 649b 4abd 06f8 11bd fe3b 7d3d cc1e 32bc
00000360: 41d3 c63c 9808 4f3d 22e2 67bb 908b 0bbd
00000370: 6ac6 b83d 9f48 7b3d d1b9 353d 4f85 c8bd
00000380: 1229 94bd 2a08 7b3e fcfb efbd 0576 5a3d
00000390: eed3 e43d b97d 39bb 9359 da3d 5a42 8ebc
000003a0: 8cd7 de3c c842 713d 14d0 6c3c 74c2 c33d
000003b0: 72fe 06be eb62 293d 4c77 4b3e b6ad 1dbd
000003c0: 610b a83b e93e a73d f4b1 8a3d f838 1abe
000003d0: 6de3 17bc 83fa f53d 639d 013d e277 463d
000003e0: 22bb 183e 9eb9 343e bb0a 95bd 563f 333c
000003f0: 23d5 27be fc28 503d 0598 343d 24d9 8d3d
0.249377 -0.33420283 0.23192546 0.2018923 -0.11706635 -0.15356618 -0.20314802 0.17205966
0.1994814 -0.15685865 0.1932358 0.07533099 0.19056033 -0.049633093 -0.271349 -0.14277138
0.12325788 0.2159659 0.06194892 0.050731648 -0.2648972 0.18333435 0.075708464 0.23866235
-0.20298143 -0.16367166 -0.19556092 0.090351745 0.3151654 -0.20598382 0.22639324 -0.18308282
0.2817221 0.32030213 -0.055763964 0.18172127 0.17410354 0.1818768 -0.0653946 -0.03248094
0.24552825 0.108201906 0.15479651 0.2672301 -0.11750671 -0.16866921 0.28637388 0.009083772
-0.33575717 -0.1578744 -0.16919689 -0.31727722 -0.012902749 0.15468657 0.33554912 -0.4010594
0.16709177 0.20652981 -0.15466212 0.08890145 -0.46611148 0.145671 0.25005203 -0.043317143
-0.037173625 -0.08545996 -0.091251746 -0.05637479 -0.038940478 0.009668349 0.076676734 0.05167333
-0.031946085 0.039131545 -0.08972348 0.0081158 -0.058291446 -0.018703653 -0.1000625 0.021083536
-0.037492063 -0.074445285 -0.009181832 -0.0321131 -0.017624186 -0.05326497 -0.113779195 -0.027376037
-0.057204988 0.021409376 -0.018070493 -0.060540188 -0.05812271 0.04196843 -0.039741103 0.03684067
-0.019769818 -0.04047042 -0.0027955598 -0.11487254 -0.076362215 -0.08239732 0.018991677 -0.026912907
-0.08667981 -0.06697226 -0.10638542 -0.07194145 -0.051435266 0.048232477 -0.06118318 -0.032213792
-0.07437985 0.09361439 -0.016661271 -0.06040715 -0.0044288277 -0.03865008 -0.055645704 -0.09498038
-0.0050826455 -0.061428998 -0.053783428 -0.015172478 -0.085261226 -0.05431163 -0.039228737 -0.015882052
-0.23782906 -0.10201761 0.04977227 0.15206105 -0.010931337 -0.09465732 -0.063002184 -0.0147687895
0.09685742 -0.12373415 -0.17990632 0.059636984 0.15852438 0.13243999 -0.06916131 -0.041265484
0.0240073 0.12872878 0.0072369385 0.02797367 -0.10982992 0.017060295 0.10837415 0.10510845
-0.09571424 -0.06642609 -0.023695348 0.07917225 0.09078259 -0.016751286 0.052594367 0.06804177
-0.56755686 0.11491821 -0.00063626195 0.06413848 0.09499844 0.046281803 0.01651426 0.20896098
0.08810539 0.072151326 0.115847275 0.099128716 -0.012559016 -0.082679644 0.11223331 0.16695316
0.22026366 0.017568342 -0.05037801 0.0101656355 -0.012761301 -0.064312264 0.034122083 0.029318266
0.09882223 0.037518077 -0.11647909 0.20190121 -0.14637925 -0.094475426 0.08395851 0.14085743
0.013807596 -0.091497675 -0.00080061733 0.11825725 -0.12740092 0.06029644 -0.06498954 0.04837066
0.1505807 -0.08444011 0.1257648 0.050535966 -0.021423656 -0.04632772 0.14188877 0.0678164
-0.06379638 0.13674952 0.18231763 -0.0071151457 -0.0494646 -0.035636924 0.06182479 -0.0108716
0.024270656 0.050545305 -0.0035382588 -0.034068644 0.090222195 0.061348554 0.04436666 -0.097910516
-0.07234396 0.24514833 -0.11717984 0.05333521 0.11173235 -0.0028303696 0.10661616 -0.017365623
0.02720239 0.05890158 0.014453907 0.09558573 -0.13183 0.0413541 0.19869727 -0.03849574
0.0051283096 0.08166296 0.06772223 -0.15060794 -0.009270531 0.12010672 0.031644236 0.048454173
0.14915136 0.17648932 -0.07277437 0.010940393 -0.16389899 0.050820336 0.04409029 0.06926182

encoder.dcrnn_cells.0.update.bias_pool f4 [2, 64]
00000000: 87ad bd3d 319c b4bd 8406 523e 2fe1 913e
00000010: e25b 253e 9ee8 143e fa48 66bd e3a7 9e3d
00000020: 6d6a babd 7c83 7abe c20e 2abe 0973 873d
00000030: ac45 56be 6c79 b139 fa87 463d b8a0 5cbe
00000040: ecc2 1f3e 4ebb 093e 0c29 5e3e f1f4 65be
00000050: f1f0 11be 1438 15be f73b 4ebd d997 803e
00000060: 8e6a 593c dd4f 903e 93f9 adbe db7c 593e
00000070: c37f b3be 1172 6b3e 7581 98be 08c9 7bbe
00000080: a0ed cdbe 6c37 00be 529b 8dbe 1009 023e
00000090: c8ab 883e fe5b 91be f141 5c3e bf03 27be
000000a0: 6f05 463e 3014 01be c15f a0bd 6fc1 0fbe
000000b0: e2f1 f33d ecc1 74be 6151 efbc 3d56 cf3d
000000c0: 1f2c 95bb a46b 90be 0ceb 713d a348 b1bc
000000d0: 1bda 66be a965 d1bd d9d9 463e 4aef 80be
000000e0: dd62 a53e 9e11 02be 60e3 3b3c d333 be3d
000000f0: a51a 9cbe 362f 82be bddb 0e3e fdea 8bbd
00000100: 117f 063e 102b f23b 6fd5 a2be 10f9 f43d
00000110: fa48 903e ddb7 633d cf33 13be 78a6 8d3e
00000120: 911b 60be 8592 803e 0c7f 4e3e 600f b33c
00000130: f163 bcbd bfb5 0bbe fcc4 dcbd b8af 60be
00000140: cd6c 4fbe adde 52be 7d05 f9bd 677d 88be
00000150: 973b 41be fefb 37be 8475 433d 6cd0 0dbe
00000160: f90e 57bd 7031 25be eb4c 0e3e f6ee efbd
00000170: 4f2c 323e a191 b6bd 8307 783e 0624 4abe
00000180: 8802 e7bc 2817 203e c975 a83e 052f 0abe
00000190: 1c8c 2bbd 74fb 58bd 582e dc3d 3ce9 7a3e
000001a0: 117e 333e 94c4 103d ae53 243e 9de5 233d
000001b0: b5fd f03d 1a4e 97bc b548 03be 637f abbe
000001c0: 66cc 00be 936d 20be 951c 313e 64a0 8d3e
000001d0: ace9 803e 2008 a13e 38ec 213e 9bcd aa3e
000001e0: 32f4 2b3e 9431 7b3e 7caa 8a3e 229b 75bd
000001f0: 0966 46bd 0089 623e 8a87 813e 8a77 483e
0.09261613 -0.08818854 0.20510298 0.28492114 0.16148332 0.14541861 -0.05622194 0.077468656
-0.0910233 -0.2446422 -0.16607192 0.06613738 -0.20925015 0.00033850537 0.04846952 -0.21545684
0.156017 0.13450357 0.21695346 -0.22456719 -0.14252068 -0.14572173 -0.050350156 0.2511585
0.0132700335 0.2818593 -0.33979473 0.21239035 -0.35058412 0.22992732 -0.29786268 -0.24588406
-0.40220356 -0.12521142 -0.27657562 0.1269877 0.2669356 -0.28390497 0.2150953 -0.16310023
0.1933801 -0.12605357 -0.078307636 -0.14038633 0.1191137 -0.239021 -0.02921361 0.101238705
-0.004552379 -0.28207123 0.05906205 -0.021641081 -0.22544138 -0.10224468 0.1941904 -0.25182563
0.3230199 -0.12702033 0.011467785 0.092872284 -0.30489078 -0.25426644 0.13951011 -0.0683193
0.1313441 0.0073903874 -0.31803462 0.119615674 0.28180677 0.055595268 -0.14375232 0.27666068
-0.21885516 0.25111786 0.20165652 0.021857917 -0.0919875 -0.1364355 -0.10779759 -0.21942031
-0.20256348 -0.20592757 -0.1215925 -0.26658174 -0.18870388 -0.17967221 0.047719494 -0.13849038
-0.052504513 -0.1613214 0.1389653 -0.117155 0.17399715 -0.08914495 0.24221615 -0.19740304
-0.02819945 0.15633833 0.32902363 -0.13494499 -0.041881666 -0.05297418 0.10751027 0.24503034
0.1752856 0.03534372 0.16047546 0.0400139 0.11767141 -0.018469859 -0.12820704 -0.33495626
-0.12577972 -0.15666799 0.1729606 0.2766143 0.25178277 0.3145151 0.15812767 0.3335999
0.16792372 0.24530631 0.27083194 -0.0599624 -0.048437152 0.22122574 0.2529872 0.1957685

encoder.dcrnn_cells.0.update.linear.weight f4 [64, 65]
00000000: 10a0 233e 5116 563d 26e8 9ebd c6cd 9fbd
00000010: 5fa1 063d 9cf5 24be 2e59 c33c f284 27be
00000020: 606e 4dbe c045 09bd 8813 a0be 0051 34bc
00000030: 3993 eebd e726 2b3e ae4a a03d 91fe 933c
00000040: 1b4f 573d 113e dd3d 318a 69bb b136 003e
00000050: 4db2 af3d ea06 56be ad23 0e3e 80c9 3fbe
00000060: 22ad d03d 0f43 9dbe 824e 18be 5dac 04bd
00000070: 6fb5 2e3d e9c9 f13d c1a9 fa3c ca1f f5bc
00000080: fdd3 303e df67 40be e76a eebd 6ab2 81bc
00000090: b20c 0b3e faf8 373d 844d 693e d4a5 f23d
000000a0: e78a 523b 6c33 dfbd 65fb 7a3e 8486 82be
000000b0: 8e7d 73be 6590 f5bd 5aa5 153e 417b 273e
000000c0: 87c5 bc3d 5692 64bd a091 29bd 3194 a8be
000000d0: 157a 963d 6a61 3cbd 5d93 fc3c ea3e febd
000000e0: a44c 74be c47a 8ebd 32f7 533e b3a0 80be
000000f0: c576 b9bd 4fdf 84be 60f4 1c3e a85c 573d
00000100: e7cf 2fbe b9d3 88be 2093 5abe ca9a 4abe
00000110: c3fb 243e fe07 79bc b82f d9bd 84eb 6cbd
00000120: b3dc 8abc dd37 a3be 22be 9b3d a350 c3bd
00000130: 425a 053e e979 2fbe 5e89 163e cea0 c53c
00000140: 4cf9 4bbe 5afb a73c 3d2d f63d bc4c 8eba
00000150: 9ae6 b23c 9ddc 9d3e 3ace 0b3e 5018 9bbd
00000160: be88 52be 3dbb 1abe ecd2 6fbd 3562 1e3e
00000170: 91f0 5fbd 392c 4fbd c03d 2a3d 67e2 5f3c
00000180: d8f3 a43d cfd5 313e f924 c6bd d3fb 943d
00000190: 8b78 acbd afff 6d3b eed0 4cbe d32c a03d
000001a0: b6ba c6bd 0bb5 2ebe 998a 1dbc e5b9 013e
000001b0: 2ccb 003e 02a0 34bc 57c8 87be 1099 fe3d
000001c0: 9272 0e3e e1a8 cc3d 07a4 17be 564e 28be
000001d0: 2ae6 5b3d 846b 96be a024 56be a64f 143e
000001e0: a004 d63d a7c5 37be 2572 713d b155 703c
000001f0: add8 523d 3c0b 68be afbf 1cbe 03ae 223e
00000200: 1e64 e43d 9a14 c23d 0c04 033e b9e1 80be
00000210: 4864 d3bd cbf2 7ebe 8cad a63d 4a92 b53d
00000220: 1328 3f3d 36e9 bdba 0933 52be 0114 5d3e
00000230: 9cfb 773d 75a7 38be c972 efbd c21a 70bd
00000240: cc1e 153d 486f 55be 6306 64be 33b3 9f3d
00000250: 91eb 683e 8e63 3e3e b177 ae3d 9458 7fbb
00000260: 6c20 76bd 49ee 533d a92d 483d 7caa 81be
00000270: 90e7 93bc ddf5 91bd 3b28 25be 8640 19be
00000280: 3b22 4abe 4d22 383e 8877 373e 179b 14bd
00000290: 2023 a23b 20c9 1d3e 64f5 4e3e 7682 183e
000002a0: 402b 843d d85c f4bc c2af cdbd 484d bd3c
000002b0: 81a3 a43d a723 4ebe 1f90 c13d fd8b 8ebe
000002c0: 15ef 693d 49c3 1c3e 3809 c0bd 28a1 cabd
000002d0: 97ec 78be 9d09 8dbd 1470 15bd 6609 283d
000002e0: 58f2 ab3d cca8 da3d b2ba dbbd 34af 6e3e
000002f0: 64cd 1abe 2670 36be d744 653c 02d9 38be
00000300: 8d17 40bc 836e 17be 0905 5dbe 9593 be3e
00000310: 608f 833d 6d02 b7bd 2add 52bd 3a72 a3bc
00000320: 04d0 3d3e 8972 22be 4b65 773d 5669 613e
00000330: a36c 2a3e 9576 79be aef0 9e3b 4940 babd
00000340: 3622 f53d 1937 b33c 9f9d a03d bf88 6cbd
00000350: 330a 8d3d a650 923d 1dd9 013d b2bf 803e
00000360: 7e0a e9bc e664 3ebe 89fb 1d3d 9f5f 9ebc
00000370: a4e1 0f3e 4d3e 523d 7ecb 33be 15e1 5abd
00000380: 4947 38be b9ea 5fbe 9ca6 0b3e fbb8 f7bd
00000390: 66b5 293e 4438 3f3e ae81 dabd 788b 823d
000003a0: aa88 403e 4fa3 573e e992 f53d ceba 783e
000003b0: 5b8b 223e 61f4 383e 306e 483e ac52 88bd
000003c0: 2e9d 493e 22e2 35be 2c20 85bd d4c7 13bd
000003d0: b453 423e 7623 0ebd 3f70 acbd 25d9 09be
000003e0: 151f a2bd d093 37be cfa8 00be a6bf 253e
000003f0: e06a 953e 4c32 55be 69a7 0c3e a0a2 a13a
0.15979028 0.052267376 -0.077591226 -0.0780292 0.03286874 -0.16109318 0.023846235 -0.16359308
-0.20061636 -0.033513784 -0.312649 -0.01100564 -0.11649174 0.16714059 0.07826744 0.018065723
0.052565675 0.10802854 -0.0035635347 0.12520863 0.0857893 -0.20901075 0.13880797 -0.1872921
0.101892725 -0.30715224 -0.14873698 -0.03239094 0.042653497 0.118060894 0.030598523 -0.029922385
0.17268367 -0.18789624 -0.11641484 -0.015832145 0.13579062 0.044915177 0.22783476 0.118480355
0.003212625 -0.1089848 0.24509962 -0.25493252 -0.23778364 -0.11990432 0.14613858 0.16355611
0.09217363 -0.05580362 -0.041398644 -0.3292556 0.07347504 -0.04599134 0.030831987 -0.12414344
-0.23857361 -0.069570094 0.20699766 -0.25122604 -0.090558566 -0.2595162 0.15327597 0.0525786
-0.17169152 -0.26724032 -0.21345186 -0.1978561 0.16111664 -0.015199659 -0.10604805 -0.057841793
-0.01695094 -0.31878558 0.07604624 -0.095368646 0.13022712 -0.17136349 0.14700839 0.02412453
-0.19919318 0.020505596 0.12020347 -0.0010856609 0.021838475 0.30832377 0.13652888 -0.075729966
-0.20559976 -0.15110488 -0.05855076 0.1546715 -0.05467278 -0.050579283 0.041562796 0.013664818
0.08054322 0.17366718 -0.09675021 0.07274594 -0.08421429 0.003631573 -0.20001575 0.078210495
-0.09703581 -0.1706125 -0.009615564 0.1266857 0.12577504 -0.011024477 -0.26520035 0.12431538
0.13910893 0.099931486 -0.14808665 -0.16436133 0.0536863 -0.29378903 -0.20912409 0.14483508
0.10450101 -0.17946492 0.058946747 0.014668868 0.05147617 -0.22660536 -0.15307496 0.15886693
0.11151908 0.09476586 0.12794513 -0.25172213 -0.103218615 -0.24897306 0.0813857 0.08865793
0.046669077 -0.0014489058 -0.20527281 0.21589662 0.060542688 -0.1803263 -0.116918154 -0.05861927
0.036406323 -0.20843232 -0.22268061 0.077978514 0.22746111 0.18592665 0.08518923 -0.0038962709
-0.060089514 0.05174092 0.04887167 -0.25325382 -0.018054754 -0.07126973 -0.16128628 -0.1496602
-0.1973962 0.17981835 0.17916691 -0.036280718 0.004948035 0.15408754 0.20210797 0.14893517
0.06453562 -0.029829428 -0.10043289 0.02310814 0.080389984 -0.20130788 0.09451317 -0.27841178
0.057112772 0.1530887 -0.09376758 -0.09894019 -0.24309002 -0.06886599 -0.03648384 0.041024588
0.08395833 0.10676727 -0.10728969 0.23309022 -0.15117413 -0.17816219 0.0139934635 -0.18051532
-0.011724365 -0.1478825 -0.21583952 0.3722197 0.06423831 -0.089360096 -0.05148045 -0.019951928
0.18536383 -0.15864004 0.060399335 0.22012839 0.16643004 -0.24361642 0.0048504686 -0.09094293
0.11969416 0.021876859 0.07842564 -0.0577476 0.06886711 0.07144289 0.031701196 0.25146252
-0.028447386 -0.18593177 0.03856996 -0.019332705 0.14050919 0.051328946 -0.17558095 -0.05343731
-0.17995943 -0.21866883 0.13637775 -0.12095829 0.16573104 0.18673807 -0.10669266 0.06374258
0.18802133 0.21058391 0.119909115 0.2429001 0.15873472 0.18061973 0.19573283 -0.066563934
0.19688866 -0.17762044 -0.06500277 -0.036079243 0.18977243 -0.034701787 -0.08419847 -0.1346174
-0.07916085 -0.1792748 -0.12564395 0.1618639 0.29183102 -0.20819968 0.13735737 0.0012331791

encoder.dcrnn_cells.0.update.linear.bias f4 [64]
00000000: 6384 f03e f874 bc3e 2197 0c3f b58a 3c3f
00000010: cb9f 103f e07e c73d c686 c43c ec7e 0d3f
00000020: 944e 703e f2be 543e b14a e33e 8403 1d3f
00000030: ac8b 3f3f 569b ed3e 278c 693f e348 283f
00000040: 8e21 b03d ddb9 613e 77db 723e 41fb 543e
00000050: a359 5a3f fe9a 033f 46af c13e 3696 563f
00000060: 37a2 c03e 63a3 993d ef13 063f 4ba4 8a3e
00000070: a175 483f 6e45 853d 6cd9 fd3e b670 0d3e
00000080: 0241 8d3e e917 873e 4f60 7a3e 3c8e 9f3e
00000090: fce4 0c3f 8e32 cd3e 2ac8 ae3e ae0f 183f
000000a0: 02c8 3f3f b51a ab3e ccaa 3d3f b44a 073f
000000b0: 3f26 413f 21d1 e23d e6fa 6c3f 041d 143f
000000c0: 5516 fb3d 716f 333f 47cd 6c3f 544c d23e
000000d0: 91c4 bb3e 254f 5c3f f786 173f 5bf4 4b3f
000000e0: 9960 a03e a79b cc3e 8558 2f3e 0c01 603f
000000f0: 7944 903e 6ea4 7b3e fbcd 323f de21 5c3f
0.46976003 0.3680799 0.54918104 0.7364915 0.56493825 0.09740996 0.023990046 0.5527179
0.23467475 0.20775965 0.44392923 0.6133349 0.748225 0.46407574 0.9122948 0.65736216
0.0860015 0.22043557 0.23716532 0.20798971 0.85293025 0.51408374 0.37829036 0.83822954
0.3762376 0.07501867 0.52374166 0.2707847 0.7830449 0.06507383 0.49579942 0.13812527
0.2758866 0.2638543 0.24450801 0.31163204 0.550369 0.40077633 0.34137088 0.59398925
0.7491456 0.33418813 0.7408874 0.5284836 0.75448984 0.110750444 0.9257034 0.57856774
0.12260119 0.7009192 0.9250073 0.4107386 0.36673406 0.86058265 0.59190315 0.7966973
0.31323698 0.39962503 0.17123611 0.875016 0.2817724 0.24574444 0.6984555 0.8598918
