mo/TARGCN/model/model_para/PEMSD8/epoch_3.pth (torch, 597909 bytes, 48 tensors)

node_embeddings f4 [170, 2]
00000000: c05d 80bd c698 7bbe 5dec b23d fab2 f9bd
00000010: f4f5 f93c 62f3 debd 7e6b 3e3c 1ced 3ebe
00000020: b6a4 c73d 5b68 0fbe 9941 6a3d ee0d debd
00000030: 489a f73c 05de 24be 86b0 bc3d 94db b0bc
00000040: 3237 893d f85a 3bbd 15f9 053c 6a86 89be
00000050: 6f22 dd3d f378 b8bd 742d 3b3e cd17 373d
00000060: 2ac2 3b3e 8969 77ba 73a9 c93d 728e b7bd
00000070: e1c3 a63d 4ada eebd ee04 a03d 47cf babd
00000080: 141c d13d e201 aabc 75e6 2a3d 782b 07be
00000090: e931 aa3d a9b6 b4bd 32ce bb3c 7e3f 11be
000000a0: 9996 083e 0b19 d9bc 01e4 5b3d 8315 c0bd
000000b0: 3c66 033e f964 b6bd 0345 b43d 08e5 bbbd
000000c0: 70e3 3a3e 7dc7 383d 8e81 fe3d 7769 95bc
000000d0: 612f 063e 5b2a 77bd 1549 a33d 1140 d3bd
000000e0: 8ecd 183c 87bf 2dbe 8a62 c3bc 3d17 2fbe
000000f0: 4f47 0b3e 1dc2 82bc 620a 563d 4569 9abd
00000100: 73e9 413e bb1a 493d 60ed 0d3e fe0e 83be
00000110: 1ddc 2a3e 6b89 503d 3720 74bd eef8 72be
00000120: da19 e03d 4b1e 78bd 7728 18bd d752 0bbe
00000130: 8676 e93d f4e0 fdbc c2c3 103e 30e3 09bd
00000140: 7a72 3b3c 6788 f7bd 28e3 3b3d 31da 1ebe
00000150: a998 3b3e abe3 3d3d b156 c73d 6671 cdbd
00000160: cc8c 0e3e f5a0 3b3a 3605 323e 23a9 ddbc
00000170: 1aaa 123e fb97 71bd 3730 413d 570b 00be
00000180: 84b7 0ebd 1894 7bbe 95e5 adbc 00b9 f2bd
00000190: 15b3 423e 0c4e 543d 2878 fd3c 66f7 edbd
000001a0: 512e d43d 4b51 01be 2a67 713d 601a cabd
000001b0: bfbc 183e c7e9 843b ca8c 903d f445 ecbd
000001c0: 3d2d 713d 6d43 acbd 075d 453e 7466 863d
000001d0: 58f5 8c3d 3ada 21bd 422a 1b3e bc3f b73c
000001e0: c12a ec3c 33bd c7bd 94eb 233d 22d8 33be
000001f0: e401 3dbd ac17 42be cc30 b7bc 6127 4bbe
00000200: eefa 2e3e baa7 babc 3073 c53d 5a25 5abd
00000210: b76e a73d ccf5 55bd 68a0 00bc 67ad fcbd
00000220: 1b6d cb3d 455c 3b3c 49b8 2c3d 2ed9 e7bd
00000230: d1c8 c53c 5528 23be ebb3 6a3d 6e53 e9bd
00000240: 21cf 743d 761d 9ebd 73c6 773d af54 ffbd
00000250: e10e 163e 8e3b bf3b 4b26 9a3d a874 8ebd
00000260: b7eb 663c 1d4d 14be 8e56 1e3c 2a11 19be
00000270: 7116 c63d 5124 2bbd ad48 c03d b624 243d
00000280: ee19 86bd 2d25 8dbe ae85 103e 3acc 4abd
00000290: e539 90bd 6094 5fbe 88b5 ab3d b4f3 d2bd
000002a0: ca37 5d3d da29 06be 1845 ab3d 8172 0fbd
000002b0: ddd7 4e3d bf7e cabd 610b 823d cfbc 25bc
000002c0: 6cc8 8c3c fa3d bdbd f875 283d 496b bfbd
000002d0: 073b 553d de5b c1bd acba f33d 5bf0 bdbc
000002e0: 47a9 1e3e a407 b1bc b333 903d 35c5 e6bd
000002f0: 3c60 273e 928e 3b3d 31b2 b33b 98d0 f4bd
00000300: af6a a9bd abbb 42be 465d 373d b9c0 a9bd
00000310: 4e90 a9bc 9c06 10be 01a9 013d 8c4e adbd
00000320: d5c4 8c3b e57a c6bd 7c69 9a3d 76d4 6bbd
00000330: fe12 1a3e 5777 8d3b 11a0 113e 5ad6 bebb
00000340: 7743 a43c 6119 edbd 64e6 fb3d f030 353d
00000350: 5ec4 bc3d e838 97bd 9965 353d b7f2 98bd
00000360: 2a90 1e3e 8022 80bd 5109 7ab9 171f 0ebe
00000370: 80f8 01bd 3040 2cbe 5fa1 e23d 6b3d 65bd
00000380: c6b1 ca3d 4a97 5ebb ae12 863d efc5 56bd
00000390: 05de 2f3d f410 afbc 7f63 d43d 87e3 20bd
000003a0: d351 443e 20df b43d bd5a fb3d 0ff1 c1bc
000003b0: b20e 4a3d f512 85bd 2404 4c3e 2104 343d
000003c0: 0878 d53d 92cf 0dbd 17cd b43d 53e0 04be
000003d0: 0fe7 d93c 9858 40be de1a 14bd e3c0 7cbe
000003e0: 70e7 a43d 8c67 e1bd 641d 7e3d 9097 18be
000003f0: e7fd 393d c385 17be cb02 b53b 7e12 37be
-0.062678814 -0.24569997 0.08736489 -0.1219234 0.030512787 -0.10886265 0.011622308 -0.18645138
0.09748213 -0.14004652 0.057191465 -0.108425006 0.030224934 -0.16100319 0.09213357 -0.021589078
0.06699981 -0.04574105 0.008177062 -0.26860362 0.10797583 -0.09007444 0.18279058 0.044700433
0.18335786 -0.0009438028 0.09846773 -0.08962716 0.0814283 -0.11662729 0.0781344 -0.09121566
0.102104336 -0.02075285 0.041723687 -0.13200176 0.08310301 -0.08823902 0.02292547 -0.14184377
0.13338698 -0.0265012 0.05368424 -0.09379103 0.12831968 -0.08905978 0.088022254 -0.091745436
0.18250823 0.04511212 0.12427054 -0.018238766 0.13104011 -0.060343128 0.07972924 -0.10314954
0.009326352 -0.16967593 -0.023850698 -0.17098708 0.13601421 -0.015961701 0.052255996 -0.0753961
0.1893671 0.049097758 0.13860083 -0.25597376 0.16685529 0.050912302 -0.059601035 -0.23727772
0.10942431 -0.060575765 -0.037147965 -0.1360582 0.1139956 -0.030991055 0.14137176 -0.03366393
0.011440868 -0.120865636 0.04587093 -0.15512921 0.18319954 0.0463597 0.09733332 -0.10031395
0.13920897 0.00071574684 0.173848 -0.02705819 0.14322701 -0.05898283 0.047165122 -0.12504326
-0.034842983 -0.24568212 -0.021227637 -0.11851692 0.19013627 0.051832244 0.030941084 -0.11619453
0.10360397 -0.12628667 0.058936276 -0.09868312 0.14915751 0.0040561887 0.070581034 -0.1153678
0.058881033 -0.08411298 0.19273768 0.0656251 0.06882733 -0.039514758 0.15152839 0.022369258
0.02882898 -0.09752884 0.040019587 -0.17562917 -0.04614438 -0.18954343 -0.022362135 -0.1983924
0.1708791 -0.022785056 0.09641111 -0.053258277 0.08175414 -0.052236363 -0.007850744 -0.12337761
0.099329196 0.011435573 0.042167936 -0.113207206 0.024143608 -0.15933354 0.05730049 -0.11392866
0.059767846 -0.07720463 0.06049199 -0.12467324 0.14654113 0.005835957 0.07526835 -0.06955844
0.014094285 -0.14482541 0.009664191 -0.14947954 0.09672249 -0.04178268 0.09388862 0.040074073
-0.065479144 -0.27567425 0.14113495 -0.049511172 -0.070422925 -0.21833944 0.08384234 -0.10300389
0.054008283 -0.13101903 0.08362788 -0.03502131 0.050498832 -0.09887456 0.063498266 -0.010115816
0.017185412 -0.09240337 0.04112813 -0.09346635 0.052058246 -0.094413504 0.11900839 -0.0231859
0.15494262 -0.021610089 0.07041111 -0.11268083 0.16345304 0.045790263 0.0054838886 -0.119538486
-0.082723014 -0.19016902 0.044766687 -0.08288712 -0.020698693 -0.14065021 0.031655315 -0.08462247
0.004295925 -0.09691409 0.07539651 -0.057575665 0.15046307 0.004317205 0.14221217 -0.0058238925
0.020051701 -0.11577106 0.12299803 0.044236124 0.092171416 -0.07383901 0.044286344 -0.07468169
0.15484682 -0.0625658 -0.00023845329 -0.13879047 -0.03173113 -0.1682136 0.11065935 -0.055966776
0.09897189 -0.0033964687 0.065465316 -0.052434858 0.042936344 -0.021370389 0.1037054 -0.039279487
0.19171838 0.0883162 0.12273166 -0.023674516 0.04933042 -0.064977564 0.19923455 0.04394925
0.10423285 -0.034621783 0.0882818 -0.12976198 0.026599435 -0.18783796 -0.036158435 -0.24682955
0.08051956 -0.11006078 0.062039748 -0.14901567 0.045408156 -0.1479712 0.0055240146 -0.17878148

encoder.dcrnn_cells.0.gate.weights_pool f4 [2, 65, 128]
00000000: 93cf 73be 38f1 bcbd 4744 6b3e 2645 7c3d
00000010: 1829 cebc 7ea5 483d 2ec3 2b3e 8fe2 cbbd
00000020: d955 ce3d 211c 903d affb 1cbd 38b1 a3bc
00000030: 31be 0a3d 9c6e cbbd 228c 6b3e b9e2 7a3d
00000040: 1d9a 933d 1e37 bb3c ad2b ee3d c555 ae3d
00000050: fa2e 143e 3320 47be 0917 1abe 4e35 89be
00000060: 6d41 423e 2514 ae3c c5ee bd3d 56e7 e33d
00000070: 4dfb a2be 2d20 f73c 2fa1 e5bd cc63 6ebe
00000080: 87e6 86be a482 b4bd 27f1 63bc 0690 fd3d
00000090: 52b1 e23d 24f2 013d bb55 5f3d efa8 393e
000000a0: 99e3 56be a215 123d 5821 fd3d d94e c0bd
000000b0: a277 c73d c811 083e a178 b0bd e141 aebd
000000c0: e2dd 993a 40ba 823d ffa6 0a3e 1187 4a3d
000000d0: aed9 d8bd 0dc3 5bbe 5824 04be 943a b83c
000000e0: ef3b 5a3b a4ce 17bd a324 04bd d775 f2bd
000000f0: c81c 313e ac69 d23c a460 68bc 5186 2cbe
00000100: 3cdf 27be 2a25 163e 61df 04be baa0 1ebe
00000110: 1cc2 763e 6d96 71be 2972 6fbe 0766 ba3d
00000120: 40eb 20be 46ae 87be b4f4 8dbd b20b dbbd
00000130: ef9d d13d df30 c43d 1923 6fbd 79c7 8cbe
00000140: 37fb 28be 1732 f0bd 7e3f 30be 3e9c a8be
00000150: 7c23 31bd 93d8 cd3d 1dc4 103e 4b14 573e
00000160: de42 c4bd 83e2 7bbe 94bb 8fbe ed0b 4fbe
00000170: e090 943e 2a69 c1be 16dc 6a3e 8c95 6ebd
00000180: 2b6a 05be fe25 ab3c c926 93bc a10f 36be
00000190: 6675 cf3d a341 96be 2534 87be 1538 d63c
000001a0: 30e5 003d 91d8 95be 9b6a ad3d f896 583e
000001b0: 3bc7 f7bd b57f 8bbe 1761 46be a1bd 3f3e
000001c0: 5d17 0a3e 3fc6 6bbe 3337 25be bbb3 233e
000001d0: 8b87 af3d 4792 a3bc 7d7f 213d b291 ebbd
000001e0: a635 1e3d ad73 96bd abd5 333e 4a51 9f3d
000001f0: e107 2c3e c8cb 0ebe eb4e 883e 4a4a 433e
00000200: ff73 253e 7077 72be 2ed8 ce3b 29d1 9bbe
00000210: c028 17bc f04a 923c a9f3 bcbd 31c1 05be
00000220: 8f99 87bd cf53 a5bd 1f4a 97bd 7fe7 ebbd
00000230: 8487 bdbe 45de 093e 7776 97be 559c 04bc
00000240: f421 bfbc 6c66 81be 7893 21bd c108 07bd
00000250: 8d0c 8abe b24b d83c f477 acbd 2664 22be
00000260: d213 b0be ad6e ccbd d4ed 1bbd d89d e4bc
00000270: 096b eebd b261 a3bd 4dca 58be 727c 113d
00000280: 7556 883d 00c3 7cbe 045d 8d3d 849f 47be
00000290: 9944 31be 82b4 c3bd 3dfe 56bd 5207 613d
000002a0: 7a7d 97be 47c8 8abd db48 d9bc c340 a6be
000002b0: 30f1 0cbc 1e43 34bd 2e72 b7be ece5 bebb
000002c0: 2915 833d 6e5c 35bd cd71 123b 535a 68bd
000002d0: d1c7 c3b9 fab0 753c f4fc 16be 0a46 c6be
000002e0: 28af 1ebe 857c 15be 50ba 043c ea7b 2f3d
000002f0: 8038 80be 3928 04bd 18dd 9fbd 2624 a33d
00000300: f541 85bc 3892 5d3d 16c9 9bbc 2ae6 f1ba
00000310: d4af 37be ba60 8c3d f0ee 6ebc 8842 3dbd
00000320: 7004 ab3d 7e80 4bbd 3655 d13d 3f67 33bd
00000330: 5337 4c3c 269a 86bd 38a2 493d d460 893d
00000340: d8a5 9a3d cbd8 d3bd ba1a b73d 3c01 4e3d
00000350: 8c50 473b 162c 22bd 9c2e 52bd 40b7 2ebe
00000360: 1a2a b43c 75fd 003d 7e29 893d c63f a83d
00000370: d881 76bd 02e6 a93d 6d36 7ebd 2bd2 61bd
00000380: 4a87 a5bd 01d9 8d3d a1b9 4cbd 1fa2 37bd
00000390: 741c 413d 82ad b93c 4304 9c3d b171 ffbc
000003a0: 4504 acbd 5d30 05bd d78d a0bd 2941 173d
000003b0: c90a b0bd 491e b43c 5a22 e6bc b8b9 a739
000003c0: c2ce 94bd 4463 ffbc 1ea4 4bbc 12f0 8abd
000003d0: 290b 1e3d 497d 0abe e23a fbbc 20b4 65bc
000003e0: 944e 1b3d 080d a33c a46a c4bd 6948 203d
000003f0: a2ac 283d bcee 83bc bc7a 30bd 73f3 e1bc
-0.23809652 -0.09225696 0.22975264 0.061589383 -0.02516608 0.04898595 0.16773674 -0.09955322
0.10074968 0.07036615 -0.03832596 -0.019981965 0.033872787 -0.099332064 0.23002675 0.061251376
0.07207129 0.02285343 0.11629424 0.08512453 0.14471045 -0.19445877 -0.1504785 -0.2679848
0.1897027 0.02124984 0.09274057 0.11128108 -0.31832352 0.03016671 -0.11212384 -0.23280257
-0.26347753 -0.0881398 -0.013912476 0.12380986 0.110689774 0.031725064 0.05452512 0.1813085
-0.20985259 0.035665162 0.123598754 -0.09390039 0.09739615 0.13288033 -0.08616758 -0.08508659
0.00117391 0.063831806 0.13540266 0.049445216 -0.10588394 -0.21461125 -0.12904489 0.02248887
0.0033299883 -0.037062302 -0.032261502 -0.118388824 0.17296135 0.025685154 -0.014183197 -0.16848113
-0.16393751 0.14662614 -0.12975837 -0.15491 0.24097484 -0.23592539 -0.23383392 0.091014914
-0.15714741 -0.26500148 -0.06931439 -0.1069559 0.102352016 0.09579634 -0.05838308 -0.27495936
-0.16502081 -0.11728304 -0.1721172 -0.32931703 -0.04324673 0.10051074 0.14137311 0.21003835
-0.095830664 -0.24598126 -0.28072798 -0.20219393 0.2901678 -0.37775546 0.22935519 -0.058248088
-0.13028781 0.02089214 -0.01796283 -0.177794 0.10129814 -0.29346952 -0.2640697 0.026149789
0.03146857 -0.2926679 0.08467599 0.2115134 -0.12098547 -0.2724587 -0.19372974 0.18724681
0.13485475 -0.23024844 -0.16134338 0.1598653 0.08570775 -0.019967211 0.039428223 -0.115023986
0.038625382 -0.07346282 0.17561977 0.077791765 0.1679988 -0.13944924 0.2662271 0.19071308
0.1615753 -0.23678374 0.0063123917 -0.30433014 -0.009226024 0.017857999 -0.09226162 -0.13061978
-0.06621086 -0.08072626 -0.07387184 -0.11518764 -0.37017453 0.13463695 -0.2958257 -0.008093913
-0.02333162 -0.25273454 -0.039447278 -0.032967333 -0.269627 0.026403282 -0.08421317 -0.15858516
-0.34390122 -0.09982047 -0.038068607 -0.027907297 -0.11641509 -0.07977618 -0.21170922 0.03551907
0.06657115 -0.24683762 0.06902507 -0.19494444 -0.17311324 -0.095559135 -0.052488554 0.05493862
-0.2958792 -0.06776481 -0.026523998 -0.32471284 -0.008602425 -0.04400932 -0.358293 -0.0058257487
0.0640052 -0.0442776 0.0022345663 -0.056726765 -0.00037342173 0.014995808 -0.14744931 -0.3872531
-0.15496504 -0.14598282 0.008101061 0.042842783 -0.25043106 -0.03226492 -0.07805842 0.07965879
-0.016266802 0.054094523 -0.019016784 -0.0018455435 -0.17938167 0.06854387 -0.014583334 -0.046206027
0.08350456 -0.049683087 0.10221331 -0.043799635 0.012464362 -0.0657237 0.04922697 0.067079216
0.075511634 -0.10344084 0.089406446 0.050294146 0.0030413 -0.039592825 -0.05131398 -0.17062092
0.021992732 0.031491715 0.06697367 0.08215289 -0.060182422 0.08295824 -0.062063623 -0.055132072
-0.08082445 0.06926156 -0.049981717 -0.044832345 0.047146276 0.022665743 0.07618 -0.031182142
-0.08399252 -0.032516826 -0.07839554 0.036927376 -0.08595807 0.021987097 -0.028092552 0.00031991093
-0.072659984 -0.031175263 -0.012429265 -0.06784071 0.038584862 -0.13524355 -0.030667726 -0.014019996
0.037916735 0.019903675 -0.095906526 0.039131556 0.04118026 -0.016105048 -0.0430858 -0.027581906

encoder.dcrnn_cells.0.gate.bias_pool f4 [2, 128]
00000000: 4f63 9f3e e635 b3be 7b3c 2b3e 8529 d1bd
00000010: 343e be3e ff5a 8a3d 305d 09bd 9e8d bdbd
00000020: a0fc 1c3d 7f23 e6bd 8805 c43d 3153 83bc
00000030: 7dfd b4be 9408 883d 5b2f 313b 14f0 60bd
00000040: a444 5abd 96e6 0bbe f464 793d 6813 15be
00000050: e574 60bb bfb2 7bbd c403 863d cfcd 5fbe
00000060: a848 e9bc 38bc a9bd 685e a3bd 768e 143e
00000070: bc68 ed3d f275 92bd d01d 58bd 4c19 053f
00000080: d937 803d a189 11be cd33 1b3e 9481 3abe
00000090: 3149 98be e84b 70be 3222 a4bd debc 06be
000000a0: e283 793c 3b0f 393e e522 06be 8af4 bd3c
000000b0: 7d33 da3d 0b6f b93d 7e4e abbe f956 043e
000000c0: 011d 653e 10f0 633e 3013 303e e2dc b83d
000000d0: 5d56 4d3e 32c4 7d3d ad73 1cbe ad73 62be
000000e0: 117e 5fbe 7aea 353e 43ea db3d 88d1 203e
000000f0: c76d a33b 19bf eb3c 62bd 063d bf8a 2d3d
00000100: 171f c83d 9f1c 663c 9d56 a63d eecd 64be
00000110: 7b1a 97be 158d 2e3e a881 1cbe f5a7 82be
00000120: 5fb5 363e 9e4c 1cbe 5b5d f03d 8f56 b3bc
00000130: ffd4 c03d 408b 133d f49e 173e 4634 6e3d
00000140: 35b7 b4bc 00bb 02be cec2 25bd 70f2 d7bd
00000150: 6bf6 c0bc f440 4abe e26d 38bd e161 cfbc
00000160: 8b82 c83d 005a e93c e814 393e 4297 7e3d
00000170: 3b3f febd bf0e 52bd c0d1 513e 5285 62bc
00000180: c3b4 e03c c45f 01bd c8cf a4bb 1605 65be
00000190: 6592 b6bd 2ad4 d0bd 6335 033e d6cc 2bbe
000001a0: aba1 83bd d212 91be 7219 0dbe 7b81 05be
000001b0: 0bd6 8cbe 3873 18be 0faa 6fbe bb0e 1e3e
000001c0: bd02 13be 18b2 e0bd a40c 4dbe cfcf 5a3d
000001d0: 2a1a ddbd fa6d dcbd 5618 163e b3a9 fc3c
000001e0: 4eac 293e 8cb3 f3bd c198 943c 2322 e6bd
000001f0: 2841 72bd 33d2 383e 2213 72be 4e0a ef3d
00000200: d834 6dbe ec17 213e 4201 c9bd d9a5 9e3e
00000210: 886f 38be 05fc ef3d eea9 d33a 6f63 633e
00000220: 9eee 1e3e e7fc 2dbe 29c4 74be 43c0 4c3e
00000230: ca86 8f3e 3c01 a43c f645 823e c528 77bd
00000240: 7b91 a0bd 1f7a 4f3d 5c29 30be 49c7 10be
00000250: a24d 9abd 315c c7bc ae87 353d 9e2e 3a3e
00000260: 770c ac3e 8302 dd3d 9057 30be 6bc8 ab3d
00000270: 19a0 253e 986b 64bd 4084 993d 284d 413e
00000280: 5e9e 1cbe 48dc 5f3e b103 30be c261 8c3e
00000290: b26b 823e f407 cb3d 2ad2 5bbe 2f9e 10bd
000002a0: b35b 1c3e 6540 00be e659 6ebd 0f95 263c
000002b0: a461 bbbd 0831 f93d fc3c 96bd 7192 82be
000002c0: 9d42 08be e1cc 153c 0ef0 14be f279 d43d
000002d0: 64ed c2bb 49c0 3cbe 6a51 3d3e 4bd6 85bc
000002e0: 3ded afbc d34c 8abd 1669 aabd 52d7 42be
000002f0: 9c15 873d a547 1f3d 90cc 193e e247 183e
00000300: 7206 50bc 21bf 22be eec6 d7bd 4506 73be
00000310: 4935 cd3d 3e71 333d 5bf5 fd3d 9205 9bbc
00000320: 9b9e 453c f979 063e 07f6 81be 290f 263c
00000330: 6423 58be e5eb 603e 2ac3 7a3d 820b 10be
00000340: aebb 6dbe c293 843e 796d 813e f091 18be
00000350: be2e ce3d 3fb5 b03e 6dc6 1abe 2d23 a23e
00000360: b4a3 3fbe 9c1b 0139 004c 77bd c271 853d
00000370: 54ad 9dbd 6397 4abd b52f 9abc 05ca 45be
00000380: a9d8 903e abf5 55bd 30be 603e 2c76 3e3e
00000390: cd5e 22be 26fa 80bc ce70 2cbd ba73 dcbc
000003a0: 0569 ad3d 3f51 22bc d6ad e2bd 87e7 70be
000003b0: cd52 723d 0fdb 4e3e 7267 cb3d f804 c13d
000003c0: a789 7e3e fa11 8c3e 5561 e8bb e208 fabd
000003d0: 384a 813e 2edd d13d dd29 b3bd 56ba 873d
000003e0: 3bac a63d 0f5e e33a 2d17 583e 10ba 80bc
000003f0: 74fa d0bd 7a4d eebd 95ac 8abd 9dde e73d
0.31130454 -0.3500206 0.1672229 -0.10212997 0.37156832 0.067556374 -0.033536136 -0.09255527
0.03832686 -0.11237239 0.095713675 -0.01603088 -0.35349646 0.06642261 0.0027036283 -0.054916456
-0.053288117 -0.1366218 0.060887292 -0.14558184 -0.0034249362 -0.061449762 0.06543687 -0.21855853
-0.028477028 -0.08287853 -0.07976991 0.1450747 0.11592242 -0.071514025 -0.052762806 0.51991725
0.06260652 -0.14212658 0.15156479 -0.18213493 -0.2974334 -0.23466456 -0.08014335 -0.13157985
0.015229197 0.18072216 -0.13099249 0.023187894 0.10654352 0.09054383 -0.33458322 0.12923802
0.22374345 0.22259545 0.1719482 0.09026505 0.20052476 0.061954685 -0.15278502 -0.2211444
-0.21825434 0.17765227 0.10738041 0.1570493 0.0049874517 0.028777646 0.032895453 0.042368647
0.09771555 0.01404491 0.08121989 -0.22344181 -0.2951239 0.17046006 -0.15283835 -0.25518766
0.17842625 -0.15263602 0.11736556 -0.02189186 0.09415626 0.03602147 0.1480673 0.05815532
-0.022060016 -0.12766647 -0.040468983 -0.10544288 -0.023555001 -0.1975134 -0.045026667 -0.025315227
0.09790524 0.028485298 0.18074381 0.06215597 -0.12414404 -0.051283594 0.2049017 -0.013825731
0.027429944 -0.03158547 -0.0050296523 -0.22365221 -0.08914641 -0.10196717 0.12813334 -0.16777357
-0.0642732 -0.2833467 -0.13779238 -0.13037674 -0.27507052 -0.14887702 -0.23404716 0.15435307
-0.14356513 -0.10971469 -0.20024353 0.053420838 -0.10796006 -0.10763164 0.14657721 0.030842638
0.16569635 -0.1189948 0.018139245 -0.1123698 -0.05914417 0.18048935 -0.23640111 0.11671887
-0.2316469 0.15731782 -0.09814693 0.30985907 -0.18011296 0.11717991 0.0016148665 0.222059
0.15520713 -0.16991006 -0.23902954 0.19995217 0.28032523 0.02002012 0.25444 -0.060341615
-0.07840248 0.050653573 -0.17203277 -0.14138521 -0.075343385 -0.024335952 0.044318847 0.18181846
0.3360326 0.10791495 -0.17220902 0.08387836 0.16174354 -0.055766672 0.07495928 0.18877089
-0.15294787 0.21861374 -0.17188908 0.27418333 0.2547279 0.09913626 -0.2146689 -0.035307106
0.15269355 -0.12524565 -0.058191203 0.010167374 -0.09149483 0.12167555 -0.073358506 -0.2550235
-0.13306661 0.009143085 -0.14544699 0.10374822 -0.0059487093 -0.18432726 0.18488088 -0.016337534
-0.021475429 -0.06752934 -0.08320825 -0.1902745 0.065959185 0.038886685 0.1501944 0.14871171
-0.012696849 -0.15893222 -0.1053599 -0.2373286 0.10019929 0.043809168 0.124003135 -0.018923555
0.01206174 0.13132466 -0.25383016 0.01013545 -0.2110725 0.21964987 0.06122128 -0.1406689
-0.23216125 0.2589398 0.25278834 -0.1489942 0.10067509 0.3451328 -0.15114756 0.31667462
-0.18714792 0.00012312684 -0.060375214 0.06515838 -0.07699075 -0.04946078 -0.018821577 -0.19315346
0.282903 -0.05223624 0.21947551 0.18599766 -0.15856476 -0.01574428 -0.042099766 -0.026910651
0.084672965 -0.009907066 -0.11068313 -0.2352582 0.059160996 0.20200752 0.0993184 0.09424776
0.24857198 0.27357465 -0.007091681 -0.122087255 0.25251937 0.10247265 -0.08748219 0.06627338
0.08138319 0.0017346757 0.21102591 -0.015713722 -0.1020402 -0.11635871 -0.06771199 0.11321757

encoder.dcrnn_cells.0.gate.linear.weight f4 [128, 65]
00000000: 093d 39be b7e4 ba3d f491 a33d 79d0 1a3c
00000010: 003d f43d 1fb8 d63d 4b8a 423e 0215 d13e
00000020: e8b6 d53b e319 a33d 2faa c03e c32b 1f3d
00000030: 22b9 7b3d 71b8 983e 9020 bcbb 3c0d 52bc
00000040: 9a2a 8b3d 108e e9be 3d80 d1bd dde6 60be
00000050: d675 703c d664 843d ed83 4b3e 3925 173e
00000060: f665 173e 4c24 913d 2a10 0b3e 2cb3 f73d
00000070: 9923 d0bd 9362 4d3d 0dcb c33e 5559 0e3e
00000080: 5829 4fbe c44a 91bc 2214 4b3e 39c3 58bd
00000090: 74da 3dbe c38d 9b3d 250c d53c 9f88 2f3e
000000a0: 65fa 803e 6c4b 1f3e 84eb 33be a505 303d
000000b0: 745c 313e d84d 483c d02c 863d 0acc 563d
000000c0: 17b0 d3bd f6c1 843d d905 f23d 1479 a93e
000000d0: 82db 59bd 855f 413e 8ee5 003e 54c9 533e
000000e0: 3175 8a3e 453f 7bbe 767d 31be 4baa 173e
000000f0: 59ad 5b3e 1086 be3d 5758 88bd f642 4d3e
00000100: d1c6 b03c fc60 eb3c 7940 2ebd e547 f03d
00000110: 1fde 5abe 36ce 88bd ef41 3bbd fa2b 02be
00000120: 0254 60be adf1 23be 2409 083e fd1a 25be
00000130: 7488 623e 76a5 ba3d e8e8 1dbd b9ff 03bc
00000140: 2bc9 2b3d e3c3 40be 675e 3cbc f282 133e
00000150: 068f 1cbd aac1 a03c cc33 fcbc 7a54 973d
00000160: 0449 2bbe dc8a fabd 4e8c f63b 3043 30be
00000170: ce1e 413c 31f0 423d 8fd8 1fbe 943d f2bd
00000180: d5fa 09be 692e 9d3c 6c0e 7d3d 91a5 3a3c
00000190: 9e27 623d 2f44 1a3d 3129 0ebe 0d63 a33e
000001a0: 0742 8dbd 2bb6 11bd d586 26be 9dc1 ce3d
000001b0: 9992 573d da90 afbd 98c4 00bd 68a7 d0bd
000001c0: 828a 2ebe 8bb2 983d faf6 f33d 08d7 89bd
000001d0: 38fb 09be 68cc 55bd d3dc d43d 00de 31bd
000001e0: 9c2a b7bd 5199 403d 2580 823e 0c5f 26be
000001f0: 17d3 5fbe 08ff dcbd 079c e7bc 7251 223e
00000200: 6920 403d 699e 36be 2fca 803e ff51 12be
00000210: 9b8c 3a3d ffff 13be a956 463e 73c4 dabd
00000220: f066 94bd c47f ddbd db75 053e b34d 0c3d
00000230: a45f 39bd 8da6 863d f107 4bbd fb1e 323c
00000240: 69ec 6c3e 67da 803d b4ca 04be dd12 49bd
00000250: 3bbe 513d 2812 443d 0aca eb3d 1e2a 9f3d
00000260: e078 99bd e09a e4bd d146 183e 9446 0fbe
00000270: e96c bebd 37a7 1fbd d19c 8ebe 4fd3 e5bd
00000280: 4a61 67be 2945 c33d 0944 503d 3c7e 14be
00000290: 0db3 84bd 15c4 893e b5eb 843e b97c 793d
000002a0: 8ee0 4c3e 8485 433e e822 2b3e 29c8 eabc
000002b0: 5b00 0abe eff9 c3bd aae3 bd3d 4de3 3dbc
000002c0: 7ce8 063e c76d 51bd 7c23 c43d a996 4d3d
000002d0: 81ea 083e b10b 81bd 2a03 41be cc7a 09be
000002e0: a484 f4bd 22bf b2bd ab12 013e 3094 a73d
000002f0: bbb8 15be a964 54be c13d 22be 4d66 97be
00000300: 9527 4bbe 8d7d cd3c dbd0 d13d 935c ccbd
00000310: 04ff 4dbe e0a0 26bc aadb 82bc e0b9 b2ba
00000320: d8df 72be 477c 31be ba22 c3bd 5290 c03b
00000330: ec1b 523e 8635 8dbe 0844 dbbd ee48 f33d
00000340: fab2 8c3d ac7f 3dbe 3c31 103e 4fa3 56be
00000350: e015 a23d d439 9b3d 4207 9b3e 4567 9c3e
00000360: 4eb7 de3c 3641 013e 007b ea3d 57ad 3cbd
00000370: d21c 03be b7b1 03be 87c2 66be 94bf 2bbe
00000380: d6a4 14be f693 1cbe 9371 403e 78b0 d63e
00000390: 974f 65be 8246 eb3d 6b5a 2ebc 14f1 343e
000003a0: 5bb7 f2bc 9e1d 823e b536 4bbe e86c 51bd
000003b0: 570f e4b9 8fd3 3a3e bd76 033e 92ef 69bd
000003c0: 6732 4cbc cd75 9dbe c785 393e e426 48be
000003d0: d51b 19be 9e8d 5cbe bc61 3fbe bdc3 1c3d
000003e0: e1d4 47be e568 d93d 9909 8ebd c20e 8f3d
000003f0: 89dc 983e c74e c6bc d591 1bbe 31a4 69be
-0.1808969 0.09125655 0.07986823 0.009449118 0.11925697 0.10484337 0.18998067 0.4083634
0.0065220483 0.07963922 0.3762984 0.038860094 0.061455853 0.29828218 -0.0057411864 -0.012820538
0.06795235 -0.45616198 -0.10229538 -0.21963067 0.014676532 0.064645454 0.19874544 0.14760293
0.14784989 0.07087001 0.13580385 0.12094721 -0.1016304 0.050142836 0.38240853 0.13901265
-0.20230615 -0.017735846 0.19831899 -0.052920554 -0.18540365 0.07595398 0.026006768 0.1714196
0.25191036 0.15556115 -0.17570311 0.042974133 0.17320424 0.012225591 0.06551516 0.05244068
-0.10336321 0.064823076 0.118175216 0.33100188 -0.053187855 0.18884094 0.12587568 0.2068227
0.27042535 -0.24535854 -0.17333016 0.14811055 0.21452846 0.09302914 -0.066574745 0.20045075
0.021579178 0.02873277 -0.042541955 0.11732463 -0.21373795 -0.066799566 -0.045717176 -0.12712088
-0.21907046 -0.1601016 0.13284737 -0.16123576 0.22122365 0.091135904 -0.038552195 -0.0080565745
0.041939896 -0.18824725 -0.011497117 0.1440542 -0.038222335 0.019623596 -0.030786417 0.073891595
-0.16727072 -0.122335166 0.00752405 -0.1721313 0.01178713 0.047592346 -0.15609954 -0.11828151
-0.13474591 0.01918717 0.061781332 0.011392013 0.055213563 0.03766268 -0.13882901 0.31911507
-0.06897359 -0.03557412 -0.16262372 0.100955226 0.05263004 -0.0857255 -0.031437486 -0.1018818
-0.17045024 0.07455929 0.119123414 -0.06730467 -0.13474739 -0.05219689 0.103936814 -0.043424606
-0.08943674 0.047021214 0.25488392 -0.16247195 -0.21857868 -0.10790831 -0.028272642 0.15851381
0.04690591 -0.17833866 0.25154254 -0.14289092 0.045544248 -0.14453124 0.19368996 -0.10682001
-0.07246196 -0.10815385 0.1303324 0.034253787 -0.045257226 0.06574736 -0.04956812 0.010871644
0.23137058 0.06291657 -0.1296795 -0.049090255 0.05120681 0.047868878 0.11513145 0.07771705
-0.07493758 -0.111623526 0.14870764 -0.13991767 -0.09298117 -0.038977828 -0.27854016 -0.112219445
-0.22595707 0.09534676 0.050846133 -0.1450128 -0.06479464 0.2690741 0.2596108 0.06090996
0.20007536 0.19093901 0.16712534 -0.028659897 -0.13476698 -0.095691554 0.09271939 -0.011589837
0.13174623 -0.051130082 0.095770806 0.05019251 0.13370706 -0.06301058 -0.18848863 -0.1342575
-0.11939362 -0.08727862 0.12604778 0.081825614 -0.1462125 -0.20741524 -0.1584387 -0.29570237
-0.19839318 0.025084281 0.10244914 -0.09978595 -0.20116812 -0.0101701915 -0.015973885 -0.0013635717
-0.23718202 -0.17332564 -0.09528108 0.0058765793 0.20518464 -0.27579898 -0.10706335 0.118791446
0.068700746 -0.18505734 0.14081281 -0.20960735 0.079143286 0.07579389 0.30278975 0.30547538
0.027187016 0.12622532 0.11449242 -0.046063747 -0.12803963 -0.12860762 -0.22535144 -0.167723
-0.14516005 -0.15290818 0.18793325 0.4193151 -0.22393642 0.11488058 -0.0106416745 0.17670089
-0.029628446 0.2541322 -0.19845088 -0.05112925 -0.00043498978 0.18244766 0.12838264 -0.057113238
-0.012463189 -0.30753937 0.18117438 -0.19546086 -0.14952023 -0.21538398 -0.18689626 0.038272608
-0.195148 0.1061571 -0.06935424 0.06985237 0.29855755 -0.024207486 -0.1519235 -0.2281654

encoder.dcrnn_cells.0.gate.linear.bias f4 [128]
00000000: d569 f33e c922 3e3e dafa 213e df07 31bb
00000010: fee2 643f e916 083f 8d61 e73e ec81 d83e
00000020: c308 553f c31b 693e 7d3e 403f bc41 0b3f
00000030: 7902 433e 34a0 fd3e 6d88 183f fa28 773f
00000040: 03a0 543f 877e c43e d08a 453e 76d2 2d3f
00000050: c1bf ad3e adff 0a3f 4496 5d3f 537a c03e
00000060: 5b35 04bd a48e f03e fd1e 473f d83c 523f
00000070: 093b da3e c120 dd3e b6bd 533f 2d0f ffbd
00000080: 3a27 a03e 8a34 e53e d09a 743e a599 293f
00000090: 0ae8 ef3e 494e 523d 0db6 c33e ce74 093f
000000a0: b076 113d e844 073d b68b 883e 48fe 853e
000000b0: 31a0 593f 193f 1d3f 8489 df3e 0296 7e3f
000000c0: 6f50 623f 37e4 4a3f 319e fb3e fab5 ff3e
000000d0: c674 d03e 30e8 823f d120 c13e f918 fc3e
000000e0: c2da 233f 7031 273f d40b 733e dd92 5d3f
000000f0: 58c8 3a3f 6644 873e 6b64 1c3e 7a20 793f
00000100: 414f cd3e 3648 583e eb52 183f 68d0 9f3e
00000110: 51e7 1a3f b08e 863f 1b45 5d3f be31 2d3f
00000120: e440 ed3e c08e 4c3f 1389 933f 8105 7b3d
00000130: e80b 513e c570 f83e 9042 8bbc 69d2 073f
00000140: c54e 203f 4bbe 313f 69cb 5f3f e0f4 243f
00000150: d49d 8f3b 63a6 2fbd 18d7 2a3f 93e1 4b3e
00000160: 4eba bd3d 5cca bd3e 46d0 4b3f 64e5 053f
00000170: 901c 04be dce9 5b3f 5680 2d3f 7080 2a3f
00000180: 0d96 653f eb73 1a3f b90b d33d 8af8 183f
00000190: feb3 cb3e 5bb7 923e 31eb 143f 3281 a13e
000001a0: 11f0 683f d9ae 5a3e d1e0 523f aaf9 a33d
000001b0: 17d4 e23e 232f 423e 8cde 073f 1db6 823f
000001c0: fc4a 173f b211 143e c5cf cd3d f6ef 753e
000001d0: 4cd9 1c3f a772 043f 81ba 303f b022 0e3e
000001e0: 6987 583f 3744 4c3f 3c49 a23d 9be5 1e3f
000001f0: fec8 b93e 0971 f43e 1a3d 20bc b4c3 173f
0.4754168 0.18567957 0.15818349 -0.0027012748 0.8940886 0.5315996 0.45191613 0.42286623
0.83216494 0.22764497 0.7509535 0.5439718 0.19043912 0.49536288 0.5958317 0.965469
0.8305666 0.38377783 0.19291234 0.6789926 0.3393536 0.5429638 0.8655741 0.37593326
-0.032277446 0.46983826 0.7778166 0.8212409 0.42623165 0.43189052 0.8271135 -0.124540664
0.31279927 0.44766647 0.23887181 0.6625007 0.4685672 0.05134419 0.3822483 0.53693855
0.03551358 0.0330247 0.2666909 0.26170564 0.8501006 0.61424404 0.43659604 0.99447644
0.8840398 0.7925448 0.49144128 0.49943525 0.4071409 1.0227108 0.3772035 0.49237803
0.6400567 0.6530981 0.23734981 0.8655222 0.7296195 0.2641937 0.15272681 0.9731518
0.40099528 0.21121296 0.5950152 0.3121369 0.6050921 1.0512295 0.8643357 0.67654026
0.4633857 0.7990532 1.1526207 0.061284546 0.20414698 0.48523536 -0.016999513 0.53055435
0.6262019 0.6943099 0.87419754 0.6443615 0.0043828283 -0.042883288 0.66734457 0.19910268
0.092640504 0.3706845 0.79614675 0.5230315 -0.1290152 0.85903716 0.6777395 0.6660223
0.89682084 0.60333127 0.1030497 0.5975424 0.3978576 0.28655514 0.58171374 0.3154388
0.9099131 0.21355762 0.8237429 0.08006604 0.44302437 0.18963294 0.53073955 1.0211827
0.5909879 0.14459875 0.100493945 0.24017319 0.6126907 0.51737446 0.6903458 0.1388042
0.8458162 0.7979159 0.079241246 0.620691 0.36286157 0.4774249 -0.009780193 0.59282994

encoder.dcrnn_cells.0.update.weights_pool f4 [2, 65, 64]
00000000: a92f 6f3e 7ba3 85be 5439 793e 0064 533e
00000010: a145 b3bd ad49 20be f006 60be 8ae1 d53d
00000020: a5af 6b3e 069d 28be 9417 453e 9e81 903c
00000030: d59c 343e 1662 04bd 5c1c 4cbe 0ac9 0dbe
00000040: c8f4 f33d ba7e 563e 5617 003e 849b 723d
00000050: a468 7bbe 6226 413e d90b 953d 86eb 6e3e
00000060: 00d7 46be f491 26be e4c7 53be 5231 ca3d
00000070: 72c9 823e 5366 57be 4d27 643e c2cf 28be
00000080: 0b57 6c3e 884e 9d3e e5f4 8dbd d5ae 413e
00000090: 6ad3 3b3e 6c51 403e 9fe6 86bd dd62 00bc
000000a0: 3e5f 773e 482b 173e 1f0f 333e 8800 873e
000000b0: cae5 f7bd 995d 30be 110d 903e 8fed e23c
000000c0: d662 8ebe c92e 27be e26f 25be 4edc 98be
000000d0: 2ea6 31bd 5124 1f3e 3986 a83e 415f 94be
000000e0: 8fe6 463e 4e29 573e b904 e6bd d01f dc3d
000000f0: 19db a9be de5e 1c3e 09e2 823e 3702 a0bc
00000100: b745 17bd 2fd9 a4bd 5696 86bd fcc0 36bd
00000110: b93b 99bd 2cd2 233c e633 923d 1e44 7f3c
00000120: c59c 62bc c044 123d 069b c0bd b7fa c03b
00000130: a91a 45bd c07e 32bc 3841 f6bd db87 b13c
00000140: 6ca5 1abd 684a 5fbd 125e 50bb b73b 14bd
00000150: bd9d 9abc 17f0 42bd f2ab 50bd 20fc 80bc
00000160: c181 84bd 3c1a a43c da3b 9bbc 33a0 5ebd
00000170: 2832 11bd d8e3 1d3d 0be8 0abd 5e4c 123d
00000180: 154d ecbc 823b e5bc 5ff9 92bb 11b5 dcbd
00000190: 7685 8fbd be6e 9dbd 1c61 c73c 9106 9fbc
000001a0: cf97 a7bd 6693 7dbd 8106 d8bd 2b8b 78bd
000001b0: 46e4 52bd 7940 493d 07d2 36bd cb55 b0bc
000001c0: 8687 72bd b6c5 ab3d 085e 72bc f865 6cbd
000001d0: 2dea 453c d832 08bd 40ef 33bd ce6f 05be
000001e0: c0ea dc3a 09b8 72bd c94e e8bc 0af5 ac3b
000001f0: 0b4d d3bd 3c00 71bd 1a79 e6bc 742a e9bb
00000200: 1f7f 48be 7c57 36be af3e 26bb eaa8 ac3d
00000210: d1bc e3bc 22ef 5cbd e04c 36bb 6801 413d
00000220: cf5f 473d e33e 7cbd 0a84 11be 10aa b23d
00000230: a793 de3d 549d b23d 6881 afbd 7022 0bbc
00000240: bc22 62ba c4c5 863d 65cc 39bd 4e63 b4bb
00000250: 99e3 afbd c85d 91bc 3783 213d 4be8 5b3d
00000260: bb6c 83bd d51b dabc 6a10 723c ab43 d93c
00000270: 0c2a 953d c1b0 a53c 0223 0a3c e3e4 173d
00000280: 80de dabe 3b98 843d a643 cb3c b69b d83b
00000290: 1861 2a3d 4913 903b 2987 493d eedf 143e
000002a0: 4a84 093d e2bf f93c 2077 433d d993 5a3d
000002b0: b742 693c fc0b 01bd 6e18 3b3d 882b ef3d
000002c0: 9608 c33d 0643 2f3d b5ca ddbc 2461 183d
000002d0: 21a7 11bc 4b24 58bd fa7f 66bb 0eb0 03bd
000002e0: 8b3d 463d 5c2f 95bb e0e8 d7bd 441c 0a3e
000002f0: 6ba1 02be 2d80 d6bd 06eb da3c 5906 a63d
00000300: eade ba3c 8806 c5bd fc3d c23c 5d6a f13d
00000310: b305 1dbe 9a22 823d 458e 84bd 2077 043d
00000320: 9056 193e a93c a6bd 0225 023e b54b 3f3d
00000330: c49a a4bc 260f 37bd 6b55 de3d 9d4c 933d
00000340: 9d24 8abd b2dc 103e 76bd 293e 66b1 5fbc
00000350: e61d 3dbd a965 02bd ba90 953d 7155 00bc
00000360: d4e4 a63c e7fb 5c3d 3ecd b4bb aa6e 0bbd
00000370: 92f1 c03d 5704 803d 95ce 2a3d c325 d7bd
00000380: ad13 8fbd d939 7c3e 38d3 c0bd 9e57 523d
00000390: a3cb e03d 5329 b4bb a4d7 e43d aaa0 89bc
000003a0: 41e1 b13c 50d6 603d fb25 3338 c0c7 c83d
000003b0: 2293 f9bd 7b8b 2f3d f287 4c3e 1cc4 0cbd
000003c0: 9f8f a53b c5c7 933d c228 923d 764c 1bbe
000003d0: b780 4dbc f683 fa3d 5e80 0c3d f1b8 9c3c
000003e0: c878 123e b3c8 343e fd03 62bd 0b3d b73c
000003f0: a08f 3dbe 983c 593d 4ad9 b43c f0e0 8a3d
0.23358025 -0.26101288 0.24338275 0.20643616 -0.08753515 -0.15653105 -0.21877646 0.10443409
0.23016222 -0.1646615 0.19247276 0.017639931 0.17637952 -0.032320105 -0.19932693 -0.13846222
0.11911923 0.2094678 0.12508902 0.059230343 -0.24551636 0.18862298 0.072776504 0.23332033
-0.19417953 -0.16266614 -0.20681721 0.09872688 0.25544316 -0.21035127 0.22280617 -0.16485503
0.2308008 0.30723977 -0.069314755 0.1891435 0.18342367 0.1878106 -0.06586956 -0.007836071
0.24157426 0.14762604 0.17486237 0.26367593 -0.12104376 -0.17223205 0.2813497 0.027701167
-0.2780978 -0.16326441 -0.16155961 -0.2985558 -0.043371372 0.15541197 0.32914904 -0.28978923
0.19423889 0.2101185 -0.112313695 0.10748255 -0.3317497 0.15270564 0.25563076 -0.019532306
-0.03693172 -0.08049237 -0.06571643 -0.044617638 -0.07482094 0.009998839 0.07138805 0.015580205
-0.013831322 0.035710096 -0.094045684 0.0058892625 -0.04812113 -0.010894477 -0.12024158 0.021671226
-0.037755415 -0.05451432 -0.0031794352 -0.03618976 -0.018874044 -0.04759225 -0.05094523 -0.015745223
-0.06470061 0.02003204 -0.018949438 -0.054351997 -0.035448223 0.038547367 -0.0339127 0.03571736
-0.02884535 -0.027982477 -0.0044852938 -0.10776723 -0.070078775 -0.07687138 0.024338298 -0.01941231
-0.08183252 -0.06190815 -0.105481155 -0.060679596 -0.05148723 0.04913375 -0.04463389 -0.021525284
-0.059211276 0.0838732 -0.014792927 -0.057714432 0.012079758 -0.033251613 -0.04392934 -0.13030931
0.0016854629 -0.05925754 -0.02835788 0.0052782344 -0.10317429 -0.058838114 -0.028133918 -0.0071156565
-0.19579743 -0.1780681 -0.0025366952 0.08430655 -0.027799996 -0.053938992 -0.0027816817 0.04712048
0.048675355 -0.06158341 -0.14210525 0.08723843 0.10868006 0.08721414 -0.08569604 -0.008492097
-0.00086263916 0.065806895 -0.04536094 -0.005505002 -0.08588333 -0.017744914 0.039431777 0.05368833
-0.06417223 -0.0266246 0.014774421 0.026521524 0.072834104 0.020225884 0.008431198 0.037083518
-0.4274788 0.06474348 0.02481253 0.006610359 0.041596502 0.00439683 0.049201164 0.14538547
0.033573426 0.030487005 0.04772103 0.053363655 0.014237097 -0.03150557 0.045677595 0.11678225
0.09523122 0.042788528 -0.027074197 0.037202016 -0.008889944 -0.052768987 -0.0035171495 -0.03215032
0.048398536 -0.004552765 -0.10542464 0.13487345 -0.12756889 -0.10473666 0.026723396 0.081066795
0.022811372 -0.09620386 0.023711197 0.11787865 -0.15334205 0.06354256 -0.06472448 0.03234017
0.14974427 -0.08117039 0.1270943 0.04670306 -0.02009333 -0.04469218 0.10856136 0.07192347
-0.06745265 0.14146689 0.1657618 -0.013653135 -0.04617109 -0.031835232 0.07302995 -0.007832871
0.020372786 0.05395117 -0.005517631 -0.034041084 0.09421076 0.06250828 0.04170092 -0.10505249
-0.06986175 0.24631442 -0.09415287 0.05135309 0.109763406 -0.0054980903 0.11173943 -0.016800243
0.021713855 0.054891884 4.2712298e-05 0.09803724 -0.121862665 0.04285763 0.19973734 -0.034366712
0.0050525214 0.072158374 0.0713668 -0.15165886 -0.012542895 0.12232201 0.034302108 0.019131156
0.14303887 0.17654686 -0.055179585 0.022367975 -0.1851182 0.053036302 0.022076268 0.06781185

encoder.dcrnn_cells.0.update.bias_pool f4 [2, 64]
00000000: ae54 c63d 1671 b4bd fa96 453e 232e 8e3e
00000010: c81e 243e a410 1c3e 2dc3 37bd 948b 7a3d
00000020: faec cebd 9ab6 72be 37dc 28be f291 9a3d
00000030: c789 55be 88ef f6ba aee3 203d 060b 56be
00000040: 7319 1c3e 9ac5 f03d 3836 3e3e 2022 73be
00000050: 1a11 09be 2dc3 17be f94a 38bd 68fe 7e3e
00000060: 8199 8b3c e53f 923e ac52 a3be ecee 543e
00000070: 12ed a3be a92a 723e cba0 99be 0fbe 91be
00000080: 3f8e cbbe 602f 0bbe 791a 89be 3c0d f03d
00000090: 53f4 853e 91cd 94be 4f0f 653e 8759 2bbe
000000a0: 1bf5 423e 1627 25be 31c3 b5bd 16cc 18be
000000b0: 3a82 1d3e 44a3 6bbe dc4e 2bbd 1551 d13d
000000c0: ab88 563a f02c 8abe 78bb 923d ee55 9bbc
000000d0: fd71 51be 2cb6 ccbd 1560 3e3e c71f 7bbe
000000e0: 32fe 9d3e 641b 03be 1239 2f3d 5a16 da3d
000000f0: 4e7e 83be a83f 84be b52d e63d 708c 8ebd
00000100: f349 063e 9684 f23c cb19 96be beb1 093e
00000110: 1f8e 8f3e c0b4 513d 9ad1 1fbe da70 833e
00000120: 1b4b 3abe 5f59 753e 27cf 4f3e f4b1 3e3c
00000130: f2b1 b8bd 87a3 07be 5507 ecbd 578d 66be
00000140: 5857 4dbe 9d8f 34be 58bc b7bd 1bd9 82be
00000150: c947 48be c372 3abe bccc 393d a146 03be
00000160: 1f40 63bd ac7f 27be 779d e73d 20dd eabd
00000170: a3c6 143e c1da c6bd e3cb 803e cc0c 22be
00000180: 844b 16bd 2862 2b3e 09a1 a13e 8046 f9bd
00000190: c70e 0abd 9c9c 2ebd 1547 cf3d b2d2 7f3e
000001a0: ed4f 3c3e d8fa 913d 6eb9 323e 7dcc 6f3d
000001b0: d402 c13d 7688 d4bc 9404 b9bd e15e abbe
000001c0: 7a95 f6bd 50ed 2dbe f2ee 273e 2b4b 8d3e
000001d0: 0ecd 763e bd23 a23e 86fe 2f3e d1b9 a83e
000001e0: 4921 433e a4cd 7d3e f31a 853e 0b6e 79bd
000001f0: 03d2 81bd 7d61 653e ac48 8f3e 3654 513e
0.0968412 -0.08810632 0.19295874 0.27769575 0.16027367 0.15240723 -0.04486387 0.06116827
-0.101037934 -0.2370247 -0.16490255 0.07547368 -0.20853339 -0.0018839696 0.039279632 -0.20902643
0.15244083 0.117564395 0.1857537 -0.23743486 -0.1338543 -0.14820547 -0.044993374 0.24901736
0.01704097 0.28564373 -0.3189901 0.20794266 -0.32016808 0.23649086 -0.30005488 -0.28465316
-0.39756963 -0.13592291 -0.2677801 0.11721274 0.26162967 -0.29063085 0.22369121 -0.1673337
0.19038813 -0.16128191 -0.088751204 -0.14921603 0.15381709 -0.230115 -0.041823253 0.10220543
0.0008183817 -0.2698741 0.07164663 -0.018961873 -0.2045364 -0.09995684 0.1859134 -0.24523841
0.30857998 -0.12803417 0.042779036 0.106487945 -0.256823 -0.25829816 0.11239187 -0.0696038
0.13114147 0.029604238 -0.29316553 0.1344671 0.28038117 0.051197767 -0.156073 0.25672036
-0.18192713 0.23959874 0.20293866 0.011639107 -0.090183154 -0.13245974 -0.11524836 -0.22514854
-0.2005285 -0.17632909 -0.089714706 -0.25556263 -0.19558634 -0.1820784 0.045361266 -0.12819912
-0.055481073 -0.16357297 0.11309331 -0.114679575 0.14528899 -0.09709693 0.25155553 -0.15825194
-0.03669311 0.16736662 0.31568173 -0.1217165 -0.0337055 -0.042629823 0.1012098 0.24982718
0.18389864 0.07127923 0.17453548 0.058544625 0.094243675 -0.025943976 -0.09034076 -0.33470824
-0.12040229 -0.16985059 0.16399744 0.2759641 0.2410166 0.3166789 0.17186937 0.32954267
0.19055666 0.24785477 0.25997123 -0.06089596 -0.06338885 0.2240047 0.27985132 0.2044228

encoder.dcrnn_cells.0.update.linear.weight f4 [64, 65]
00000000: 0b53 1d3e ac29 3b3d 7a3f 6dbd 63f4 a1bd
00000010: d4c3 e63c ad0f 24be d149 fb3c 243a 23be
00000020: ddb3 6abe 9753 1fbd 89fb 9dbe 2c9c 2dbc
00000030: 1f69 07be 7dc8 253e ffad 8b3d 8aed 0c3c
00000040: 3d6c 633d edae c03d fa00 02bc 3c55 023e
00000050: 3683 8e3d 0ea8 51be 8bdd 0b3e 14e3 44be
00000060: bea9 c93d 1a1f 9dbe 8b6d 11be 382c d4bc
00000070: c9e3 d23c 2d92 e23d 2c14 193d 8175 18bd
00000080: f92c 223e d0a9 52be b510 f8bd c1c1 dabc
00000090: d878 063e 90f4 1e3d 8099 5a3e fe8f f23d
000000a0: fadb 543b 3720 ecbd 6a13 743e 4a4f 83be
000000b0: 4ef4 7bbe e0ff f1bd 4334 1a3e 8a15 253e
000000c0: 50fc a13d 5e9c efbc ac7a 20bd c642 a7be
000000d0: 12d7 933d 60ac 63bd e4db e53c c393 02be
000000e0: 6983 79be f343 a4bd 061b 563e 2dca 79be
000000f0: abae cbbd e301 84be d54f 1e3e c72d 2e3d
00000100: 921b 3abe 7609 67be 9e24 57be 6ef4 8bbe
00000110: 8baf 133e 693a 28bd a083 eebd d6dd 80bd
00000120: 9438 9dbc 0436 89be 94a1 813d 66cd c9bd
00000130: 07a6 e83d b393 35be cfcf 063e 20fb ab3c
00000140: f0d7 5ebe 1b46 493c cad1 f53d b55b d8bb
00000150: 783e 943c b14b 9e3e 234d fc3d 16fb a0bd
00000160: 32ba 55be 35dc 22be 8a84 85bd c79a 183e
00000170: 1690 84bd 88cd 45bd 3f9c 203d 04aa 103c
00000180: 923f 993d 4e23 2f3e df30 82bd 16d0 5f3d
00000190: 0dc7 93bd 0a7d 6cbc a7ae 66be 3c39 883d
000001a0: 5b11 d1bd 0933 33be 6771 e8bc e623 d93d
000001b0: 2981 9c3c da43 1dbd 9bdf 88be 57e5 fd3d
000001c0: 1fd2 fe3d 8e60 db3d 0275 56be 1251 2ebe
000001d0: 356c 393d 2c0b 93be 2b66 42be 053d 123e
000001e0: e55f be3d 6912 49be 40ca 413d 4d99 2c3b
000001f0: 01ed 493d b571 69be 00ba 1ebe 71cf 1a3e
00000200: e3fd d63d 9d8b c03d d119 053e 655a 81be
00000210: f00b ffbd 02be 7ebe 3c22 843d e699 a23d
00000220: 2faf 613d 6f9c 333c f8dc 81be 325d 4d3e
00000230: 7437 923d a139 45be 28a1 00be d357 72bd
00000240: 5f0b b43c 0ae9 6fbe 862c 5cbe 3c50 993d
00000250: a09d 743e 5c0e 2f3e cf97 933d 5074 73bc
00000260: 3629 82bd 126a ee3c 6ff6 583d 3967 89be
00000270: 4350 38bc bc6e 91bd f0d1 2bbe e1cd 0ebe
00000280: d650 3ebe 4f81 393e 50ab 2b3e 6505 0abd
00000290: 474c 233c bd61 c33d 7865 563e 2dc4 143e
000002a0: b474 623d 5fd0 bebc 870d ecbd 5c7f ed3b
000002b0: 58c3 8f3d 46fd 69be be8b ac3d ee4c 8cbe
000002c0: 4b1e 863d d4af 1c3e e275 c9bd 72e5 d3bd
000002d0: 9b72 73be 130b 90bd 97e7 15bd bd46 223d
000002e0: 8f73 b93d 7aea f23d 53eb 05be b1b2 643e
000002f0: fbac 1ebe 9867 20be 049f 23ba b0eb 44be
00000300: 2f73 12bd 00fd 2bbe 0600 65be a024 ba3e
00000310: 3919 833d 45ba e0bd 2fe8 54bd 4611 e2bc
00000320: 2a37 3b3e ede5 21be 33dc 813d 9511 483e
00000330: 6741 293e 3461 78be af7a 263c 93fd a3bd
00000340: 025c f43d dd95 573c 9610 7f3d 5615 75bd
00000350: b8ca 963d e233 8d3d 1677 e83c 3d22 823e
00000360: 26b7 15bd f33f 40be feef fd3c ce4d a7bc
00000370: 9124 f43d 0068 523d ef94 35be bc60 63bd
00000380: 7706 37be cb05 61be 5a75 0b3e 4268 0cbe
00000390: 055c 323e 3894 3f3e 292a e8bd 05e3 953d
000003a0: e160 423e 475e 5a3e 9661 f33d 509b 723e
000003b0: 9344 1c3e 760a 3b3e ccd5 453e 6428 88bd
000003c0: fe0b 453e c74d 39be 8f0e 8cbd 076c 34bd
000003d0: a385 3e3e 85b8 1cbd e1e3 b3bd a859 0dbe
000003e0: 78a8 b9bd 1307 37be 1ea8 00be f85a 0b3e
000003f0: 62e1 8f3e c2bf 51be b12f 0d3e 41c9 8abb
0.1536371 0.04569404 -0.057921864 -0.07907941 0.02816955 -0.16021605 0.030674847 -0.15940148
-0.22920175 -0.038898077 -0.3085597 -0.010596316 -0.13223694 0.16189761 0.068202965 0.008601556
0.055523146 0.094083644 -0.007934803 0.12727827 0.0695862 -0.20474264 0.1365873 -0.19227248
0.09846829 -0.3068779 -0.14201944 -0.025899991 0.025743382 0.11063037 0.037372753 -0.037221435
0.15837468 -0.20572591 -0.121125616 -0.026703717 0.13132036 0.03880745 0.21347618 0.118438706
0.003247975 -0.11529582 0.23835531 -0.2564643 -0.24604914 -0.118163824 0.15058999 0.16121498
0.07909453 -0.029249366 -0.03917949 -0.32668132 0.07218756 -0.05558431 0.028058954 -0.12751679
-0.24366535 -0.08020773 0.20908746 -0.2439353 -0.09945425 -0.2578269 0.15460141 0.042524125
-0.1817458 -0.22562203 -0.21010062 -0.27334923 0.14422433 -0.04107133 -0.11646199 -0.06292312
-0.019192018 -0.26799023 0.06329647 -0.0985363 0.11359792 -0.17732124 0.1316521 0.02099377
-0.21762061 0.012284781 0.12002905 -0.006602729 0.018096194 0.30917123 0.123194 -0.07860391
-0.20871809 -0.15904315 -0.065194204 0.14902793 -0.06472795 -0.048291713 0.039211508 0.008829597
0.07482828 0.17103311 -0.06356978 0.054641806 -0.072157 -0.0144341085 -0.22527562 0.066515416
-0.102083884 -0.17499937 -0.028374387 0.1060255 0.019104557 -0.038394786 -0.26733097 0.12397259
0.12442421 0.10711776 -0.20943072 -0.17023113 0.04526921 -0.2871946 -0.18984286 0.1428109
0.09295634 -0.19635929 0.04731202 0.0026336492 0.04929829 -0.22797282 -0.15500641 0.15118195
0.10497644 0.09401629 0.1299813 -0.25264278 -0.12453449 -0.2487717 0.06451842 0.0793951
0.05509871 0.01096259 -0.25363898 0.20055082 0.07139483 -0.19260265 -0.12561476 -0.059165787
0.021978078 -0.23428741 -0.2150136 0.074860066 0.23888254 0.17095321 0.072066896 -0.014859274
-0.063555166 0.029103313 0.052969392 -0.26836565 -0.011249605 -0.07101199 -0.16779304 -0.13945724
-0.18585524 0.18115734 0.1676457 -0.03369655 0.009966916 0.095401265 0.20937145 0.1452796
0.055287078 -0.023292718 -0.11526018 0.0072478484 0.07019681 -0.22850522 0.08425091 -0.27402443
0.06548747 0.15301448 -0.098369375 -0.103464976 -0.23774187 -0.07033362 -0.036597814 0.039618243
0.09055244 0.11861129 -0.1307805 0.2233379 -0.15495674 -0.15664518 -0.0006241652 -0.19230533
-0.03575438 -0.1679573 -0.2236329 0.36356068 0.06401295 -0.10973028 -0.05197924 -0.027596127
0.18282762 -0.15810366 0.06340828 0.19537957 0.16528855 -0.2425583 0.010161086 -0.0800735
0.119316116 0.013158289 0.062271677 -0.0598348 0.07362884 0.068946615 0.028377097 0.25416747
-0.036551617 -0.18774395 0.030998226 -0.020422842 0.11921037 0.051368713 -0.17732595 -0.055512175
-0.1787356 -0.21974866 0.13618985 -0.13711646 0.17417915 0.18708885 -0.113361664 0.07318691
0.18982269 0.21325026 0.118838474 0.2369206 0.15260534 0.1826571 0.19319838 -0.06648329
0.19242856 -0.18096076 -0.06838714 -0.044048335 0.18605666 -0.03826191 -0.08783699 -0.13803732
-0.09065336 -0.17873792 -0.12564132 0.1360892 0.2810164 -0.20483306 0.13787724 -0.004235417

encoder.dcrnn_cells.0.update.linear.bias f4 [64]
00000000: 7273 f23e 41be b53e 4376 073f c641 3a3f
00000010: 3818 113f c595 cb3d df2d e23c 3f0c 0b3f
00000020: 34ad 5d3e cb80 573e f7d4 e23e 514a 1d3f
00000030: 62f5 3e3f cbab eb3e 8514 683f a805 293f
00000040: 028a ac3d a1de 4c3e ef99 5d3e da7a 4d3e
00000050: 7b7e 5b3f 42ed 033f 6cb3 c53e c95d 553f
00000060: 649f c03e ac46 993d 5454 093f 0e15 893e
00000070: a175 4b3f 4df0 843d f40e fc3e 06d2 ea3d
00000080: dd81 8f3e f4b7 813e 371d 833e 8c81 9a3e
00000090: cca8 0b3f 63ac ca3e cdd6 b13e fc59 173f
000000a0: 2ad4 3e3f 5a17 9c3e 8e7b 3a3f 00f0 043f
000000b0: 94ad 423f 1956 eb3d 0bba 673f 27f4 123f
000000c0: 25ea fb3d e0d7 343f 5ca5 6e3f cfdc d33e
000000d0: 551d bf3e c0ae 5c3f d4e8 143f 9adf 4b3f
000000e0: dd5f 9a3e 9efd cb3e f573 333e 9e29 623f
000000f0: 9b3d 903e 51ce 783e 2f5c 2e3f 2356 5b3f
0.47353703 0.35496715 0.5291483 0.7275661 0.5667758 0.09940676 0.027609764 0.5431556
0.21648103 0.21045224 0.44303104 0.6144152 0.74593174 0.46029505 0.9065631 0.66024256
0.084247604 0.20006801 0.21640752 0.20066395 0.8573987 0.515339 0.3861345 0.8334623
0.37621605 0.07484183 0.536443 0.26773876 0.7947636 0.06491146 0.49230158 0.1146584
0.28028765 0.25335658 0.25608227 0.3017696 0.5455444 0.39584646 0.34734192 0.5912168
0.74542487 0.30486566 0.7284478 0.5192871 0.7604611 0.11491031 0.90518254 0.57403797
0.12300519 0.706419 0.9322107 0.413794 0.37327066 0.8620415 0.5816777 0.79638064
0.30151263 0.39841932 0.17524703 0.8834475 0.28172 0.24297453 0.6810941 0.8567831
