mo/TARGCN/model/model_para/PEMSD8/epoch_2.pth (torch, 597909 bytes, 48 tensors)

node_embeddings f4 [170, 2]
-0.09751106 -0.2346598 0.07667038 -0.08757741 -0.002155493 -0.09907889 -0.003176948 -0.16545868
0.080171034 -0.09676042 0.033449072 -0.09373324 0.015060324 -0.14300713 0.07906967 -0.010692048
0.054475818 -0.047779422 -0.026188824 -0.21627657 0.09935028 -0.05677426 0.17862876 0.074914314
0.17387429 0.03426371 0.07836948 -0.07519078 0.072683565 -0.0895107 0.06519658 -0.058777764
0.08708923 -0.026561106 0.021423783 -0.11520241 0.060364664 -0.06881856 0.014329563 -0.11034815
0.11502599 -0.0056080404 0.032957204 -0.07951912 0.12684852 -0.05474771 0.062888615 -0.079206176
0.16876867 0.01768931 0.11218889 -0.005980075 0.12919417 -0.027808703 0.060571596 -0.075964265
-0.01649418 -0.15586174 -0.060329236 -0.1679591 0.13066669 0.019363914 0.042181782 -0.056891534
0.16878125 0.06428124 0.13686651 -0.2589455 0.16087069 0.050813656 -0.06761186 -0.2127012
0.09553306 -0.030027967 -0.05424369 -0.13211784 0.09914137 -0.014987066 0.13046844 -0.0032615715
-0.013741003 -0.11492366 0.015892318 -0.12875709 0.16736563 0.06613108 0.07820485 -0.07355077
0.12112109 0.021300368 0.16903056 0.018153569 0.13975476 -0.008928245 0.036448754 -0.0984138
-0.040895432 -0.20618331 -0.030784335 -0.119487114 0.17777282 0.075726494 0.011938474 -0.10431705
0.086792625 -0.08422737 0.036445666 -0.0869613 0.14117534 0.025670663 0.053117428 -0.09058995
0.03883813 -0.072102346 0.17093068 0.07578428 0.059961073 -0.022050852 0.160415 0.070341274
0.024055667 -0.078795716 0.04015065 -0.12942232 -0.056466497 -0.19735917 -0.010353682 -0.1549038
0.14682241 0.0011310031 0.09310001 -0.016734244 0.06650663 -0.02673715 -0.025672495 -0.116635814
0.08745057 0.012540482 0.022898385 -0.10356629 0.0031172107 -0.13930449 0.035978757 -0.08847849
0.051735047 -0.05558757 0.04227996 -0.100996464 0.12868269 0.021474253 0.056046564 -0.057460714
-0.025864521 -0.13963309 -0.017673185 -0.14441204 0.07384616 -0.030108396 0.09196604 0.047651444
-0.07729493 -0.24060406 0.12859865 -0.0155087 -0.08337779 -0.20766735 0.066973574 -0.07693985
0.034928136 -0.10793237 0.06672811 -0.027925298 0.04202293 -0.068818636 0.053557847 -0.00883705
0.0042517204 -0.07608174 0.025339771 -0.08813586 0.03224867 -0.0829771 0.099625036 -0.010401767
0.17753741 -0.02306344 0.055220146 -0.08685347 0.14751033 0.055507988 -0.0068105217 -0.11747796
-0.09384121 -0.17353034 0.023266947 -0.07045362 -0.030537743 -0.14133316 0.023178821 -0.06910338
-0.009083769 -0.08956697 0.053499296 -0.04221557 0.13628767 -0.024467034 0.12411899 -0.037196178
-0.00550694 -0.10632693 0.1175289 0.05472821 0.08398351 -0.0329643 0.030019358 -0.06216434
0.1774622 -0.064499475 -0.008805024 -0.14365122 -0.045061316 -0.17638674 0.09326303 -0.02544434
0.08800415 -0.005525543 0.05881553 -0.05720131 0.036257368 -0.02868785 0.08420379 -0.027181512
0.18569718 0.091408394 0.11675845 0.008239692 0.039454218 -0.04333642 0.18826188 0.07353636
0.08616177 -0.019755712 0.0900722 -0.082684755 0.02605406 -0.14287834 -0.042469583 -0.20751935
0.06690343 -0.081093505 0.058985114 -0.10334502 0.032357983 -0.11218191 0.0040949695 -0.14392741
00000000: e1b3 c7bd a94a 70be 5c05 9d3d c95b b3bd
00000010: 2c43 0dbb e0e9 cabd 5834 50bb 006e 29be
00000020: b630 a43d 542a c6bd e501 093d 37f7 bfbd
00000030: 94bf 763c 7670 12be 47ef a13d b32d 2fbc
00000040: 0922 5f3d 5bb4 43bd f289 d6bc 9b77 5dbe
00000050: 2978 cb3d 208c 68bd 75ea 363e ad6c 993d
00000060: 1a0c 323e 1b58 0c3d 2e80 a03d a0fd 99bd
00000070: 1fdb 943d 6351 b7bd c985 853d f4c0 70bd
00000080: d75b b23d ad96 d9bc ee80 af3c 3eef ebbd
00000090: f040 773d bff0 8cbd 8bc6 6a3c 36fe e1bd
000000a0: bf92 eb3d a7c3 b7bb 22fe 063d ecda a2bd
000000b0: 94e4 013e 223f 60bd bfcb 803d d936 a2bd
000000c0: b2d1 2c3e 2ce9 903c 4ac3 e53d 81f4 c3bb
000000d0: 7a4b 043e 14cf e3bc ec19 783d 2793 9bbd
000000e0: cd1e 87bc 389a 1fbe ca1b 77bd 78fd 2bbe
000000f0: 7dcd 053e 12a1 9e3c cec6 2c3d 1907 69bd
00000100: fed4 2c3e e2a5 833d bc26 0c3e 8194 84be
00000110: 49bb 243e fb21 503d 1678 8abd 58ce 59be
00000120: d6a6 c33d 36fd f5bc a22e 5ebd e649 07be
00000130: a10a cb3d 508c 75bc 8599 053e 17c0 55bb
00000140: f221 61bc 195d ebbd 9b30 823c e6d8 03be
00000150: e561 2b3e bb6f 873d dd29 a03d c9a1 96bd
00000160: 560e f83d 1c7e ae3c 5916 2d3e cbb6 943c
00000170: df1b 0f3e c647 12bc 4a4b 153d 2d8d c9bd
00000180: f881 27bd b821 53be 6e2f fcbc a9b5 f4bd
00000190: 140a 363e 7e16 9b3d 9799 433c 2da4 d5bd
000001a0: 55c0 b13d 667f acbd 0d48 153d c418 b2bd
000001b0: 4590 103e 484b d23c a991 593d 3987 b9bd
000001c0: bb14 1f3d 65aa 93bd 7408 2f3e ca34 9b3d
000001d0: be99 753d fda3 b4bc d443 243e 160f 903d
000001e0: 6410 c53c a65f a1bd 0275 243d 4987 04be
000001f0: 6a49 67bd 8618 4abe 7da2 29bc 1a9f 1ebe
00000200: 9d58 163e 2b3e 943a 38ab be3d 4116 89bc
00000210: a134 883d de07 dbbc 204f d2bc c2de eebd
00000220: 4919 b33d 9876 4d3c 6595 bb3c 901a d4bd
00000230: 1e4a 4c3b d6a5 0ebe 765e 133d 3634 b5bd
00000240: 21e8 533d cbaf 63bd c02d 2d3d 3cd7 cebd
00000250: 65c5 033e c6ea af3c 1591 653d ed5b 6bbd
00000260: d5e1 d3bc fafb 0ebe 5bc7 90bc c0e0 13be
00000270: a83c 973d e2a5 f6bc b158 bc3d 292e 433d
00000280: ce4c 9ebd e960 76be 5daf 033e 3418 7ebc
00000290: fac1 aabd c0a6 54be 7129 893d a492 9dbd
000002a0: ce10 0f3d a50b ddbd bfa8 883d 98c3 e4bc
000002b0: 3c20 2c3d c9f0 8cbd 795f 5b3d 46c9 10bc
000002c0: 0452 8b3b bed0 9bbd 5a95 cf3c 9380 b4bd
000002d0: 2e17 043d e6ef a9bd 3608 cc3d 2c6c 2abc
000002e0: 5ecc 353e 8aef bcbc 852e 623d 3be0 b1bd
000002f0: f30c 173e 585c 633d cc2a dfbb 4998 f0bd
00000300: d22f c0bd f0b1 31be 539a be3c fd49 90bd
00000310: 4a2a fabc a4b9 10be 83e1 bd3c 1386 8dbd
00000320: 17d4 14bc e36e b7bd 1422 5b3d 3cea 2cbd
00000330: ff8e 0b3e 176f c8bc 1932 fe3d 055b 18bd
00000340: 9073 b4bb efc1 d9bd feb2 f03d b02a 603d
00000350: 8cff ab3d 9305 07bd 28eb f53c 09a0 7ebd
00000360: a7b8 353e 4d18 84bd f342 10bc 4e19 13be
00000370: 3792 38bd ba9e 34be b000 bf3d a670 d0bc
00000380: 853b b43d 9d0f b5bb 8ee8 703d ec4b 6abd
00000390: 9b82 143d c802 ebbc 0973 ac3d c3ab debc
000003a0: 6727 3e3e 5334 bb3d 0e1f ef3d c6ff 063c
000003b0: bf9a 213d 8881 31bd b9c7 403e 3b9a 963d
000003c0: 9575 b03d bbd6 a1bc c677 b83d a056 a9bd
000003d0: 536f d53c b34e 12be 96f4 2dbd f47f 54be
000003e0: aa04 893d 5a14 a6bd 609a 713d 8ea6 d3bd
000003f0: ce89 043d a1bf e5bd 182f 863b b561 13be

encoder.dcrnn_cells.0.gate.weights_pool f4 [2, 65, 128]
-0.21612404 -0.06257789 0.24129388 0.069389604 -0.02275275 0.06962133 0.1792405 0.073151216
0.11699636 0.09500679 -0.008058296 0.028163787 0.0037536416 -0.0941559 0.19083875 0.091635264
0.092625804 0.037396476 0.13727105 0.10211518 0.16820434 -0.18141696 -0.13205396 -0.20525678
0.20599408 0.042699978 0.1072558 0.12393184 -0.2515139 0.057871304 -0.08085884 -0.21057744
-0.24366152 -0.068304054 -0.022514012 0.14136925 0.1471576 0.07002653 0.06855725 0.18946369
-0.180344 0.056361765 0.03479396 -0.039555784 0.10232653 0.15632573 -0.060823645 -0.070635036
0.036962025 0.09985795 0.13415176 0.067095295 -0.04021327 -0.19958743 -0.10657639 0.032158587
0.025733592 -0.01757254 0.024302272 -0.1141171 0.18111081 0.051865254 0.037143555 -0.16618018
-0.1724911 0.150964 -0.12936495 -0.13420211 0.23193085 -0.24335743 -0.1905677 -0.00048952125
-0.15651262 -0.24906367 -0.076010086 -0.111061625 0.13083644 0.09601982 -0.061827272 -0.27178162
-0.17433186 -0.11991798 -0.16432758 -0.31973767 -0.06533807 0.09403815 0.130612 0.2324058
-0.10315932 -0.23671122 -0.32963726 -0.206984 0.20741937 -0.35068628 0.23791902 -0.021160843
-0.13997309 0.02614424 -0.09095459 -0.14506711 0.12521897 -0.29766375 -0.27582657 0.029398333
0.098566875 -0.2753757 0.12429268 0.20447296 -0.14647284 -0.26180556 -0.19507863 0.18509294
0.12596783 -0.23397079 -0.17005599 0.1567539 0.09350719 -0.020787666 0.07411654 -0.1282169
0.043754518 -0.07563624 0.16497113 0.06250365 0.15254568 -0.14508472 0.2504758 0.18079463
0.14740251 -0.14060488 0.017849129 -0.23559596 0.019580534 0.018116266 -0.06795213 -0.14221258
-0.043678496 -0.054816525 -0.09678939 0.022703703 -0.2950756 0.14642102 -0.2532697 0.01121248
-0.0221792 -0.19611186 -0.01113192 -0.01803801 -0.18710862 0.019332059 -0.06896387 -0.09303393
-0.25806552 -0.08967046 -0.020967452 -0.03009728 -0.04214153 -0.06958648 -0.17253229 0.05973156
0.07562132 -0.19181632 0.07261854 -0.12671998 -0.12013885 -0.0643449 -0.04567493 0.06765469
-0.25223896 -0.044050276 -0.03558649 -0.27103928 0.018352909 -0.025364527 -0.31646296 -0.014221394
0.072377056 -0.019243173 -0.012768122 -0.05601644 0.0022188523 0.02205702 -0.08852717 -0.3109688
-0.140494 -0.13668302 0.054886308 0.029593967 -0.171359 -0.032049075 -0.034774445 0.09182771
-0.02960232 0.0144586675 -0.023801418 0.009869866 -0.19278054 0.05432922 -0.016842298 -0.0072839595
0.07026142 -0.058318865 0.0868193 -0.05149999 0.033189654 -0.07519972 0.036247 0.061216332
0.05552863 -0.11085621 0.070956066 0.041942503 -0.05339888 -0.046415452 -0.060201887 -0.13727292
0.016570024 0.022809906 0.04271824 0.07010875 -0.069836624 0.07450721 -0.049014144 -0.056072142
-0.10069511 0.068204425 -0.047665816 -0.039018255 0.08580827 0.005418978 0.06858712 -0.038167186
-0.0487219 -0.04246126 -0.053513166 0.034538403 -0.10067679 0.016911246 -0.027598673 -0.003631674
-0.0886566 -0.03801966 -0.01852428 -0.07116681 0.044758838 -0.14224115 -0.023857081 -0.007967828
0.025878148 0.01158685 -0.10866196 0.054450523 0.02391952 -0.03174251 -0.059252266 -0.028555498
00000000: 9f4f 5dbe d628 80bd be15 773e 231c 8e3d
00000010: fa63 babc a195 8e3d d28a 373e 4ed0 953d
00000020: ca9b ef3d eb92 c23d f106 04bc beb7 e63c
00000030: a8ff 753b cfd4 c0bd 3c6b 433e 45ab bb3d
00000040: 99b2 bd3d 0c2d 193d c890 0c3e c321 d13d
00000050: c23d 2c3e 5ec5 39be 2739 07be d52e 52be
00000060: 1df0 523e 2ce6 2e3d eea8 db3d facf fd3d
00000070: 6ec6 80be 760a 6d3d 5299 a5bd 9da1 57be
00000080: 6882 79be ffe2 8bbd 4e6f b8bc 1ac3 103e
00000090: 7bb0 163e 126a 8f3d be67 8c3d c502 423e
000000a0: 19ac 38be 98db 663d 1d84 0e3d 3f05 22bd
000000b0: 9290 d13d da13 203e 3722 79bd 1aa9 90bd
000000c0: 7e65 173d 5382 cc3d 145f 093e 4269 893d
000000d0: abb6 24bd a660 4cbe b944 dabd b9b8 033d
000000e0: 41cf d23c 4af4 8fbc 8f15 c73c 3ab6 e9bd
000000f0: 1d75 393e a970 543d d723 183d 232b 2abe
00000100: 82a1 30be 4f96 1a3e 3f78 04be 476c 09be
00000110: 487f 6d3e b132 79be 2e24 43be 3753 00ba
00000120: d844 20be 8c0a 7fbe 2dab 9bbd 4774 e3bd
00000130: fdf9 053e 0aa6 c43d 983e 7dbd f626 8bbe
00000140: 0d84 32be 8f97 f5bd 7d45 28be a8b4 a3be
00000150: f7cf 85bd 1397 c03d 27bf 053e c9fb 6d3e
00000160: 3245 d3bd 6d64 72be 37c6 a8be 9df3 53be
00000170: be65 543e 278d b3be 0ba1 733e 8159 adbc
00000180: 1b55 0fbe 722c d63c 6646 babd 798c 14be
00000190: 6739 003e 6267 98be 2439 8dbe c6d4 f03c
000001a0: 6edd c93d 0bfe 8cbe 298d fe3d 5c61 513e
000001b0: fafc 15be 610b 86be b1c2 47be 0189 3d3e
000001c0: b6fd 003e 0a96 6fbe 2823 2ebe 1884 203e
000001d0: b380 bf3d e54a aabc 6aca 973d 4b4b 03be
000001e0: f037 333d 2ce7 9abd 31ee 283e ea01 803d
000001f0: ef34 1c3e 1791 14be 5d3e 803e 3a22 393e
00000200: aff0 163e bafa 0fbe 5638 923c 1140 71be
00000210: 5b67 a03c 9068 943c 7d2a 8bbd 2da0 11be
00000220: 39e8 32bd 4b87 60bd 8439 c6bd 1efd b93c
00000230: 2614 97be 64ef 153e 91ac 81be 8db4 373c
00000240: 27b1 b5bc 8cd1 48be a862 36bc 73c4 93bc
00000250: 6799 3fbe 445e 9e3c ee3c 8dbd 9388 bebd
00000260: 2a21 84be 25a5 b7bd efc3 abbc 928e f6bc
00000270: 999c 2cbd 5b83 8ebd 4eac 30be 15a9 743d
00000280: 5adf 9a3d 7f6b 44be 07b9 943d e2c2 01be
00000290: 5b0b f6bd 42c7 83bd a315 3bbd 8b8e 8a3d
000002a0: 7725 81be 106e 34bd 24c3 11bd a9c5 8abe
000002b0: d758 963c 45c9 cfbc 6f07 a2be da00 69bc
000002c0: 6c3a 943d dca3 9dbc 6331 51bc 7f71 65bd
000002d0: 2a6a 113b ecb0 b43c bc4d b5bd 4d37 9fbe
000002e0: a9dd 0fbe a2f6 0bbe 77d0 603d 0c6f f23c
000002f0: bc78 2fbe e445 03bd a66f 0ebd 2b10 bc3d
00000300: 9180 f2bc 0ce4 6c3c 31fb c2bc 38b5 213c
00000310: 4368 45be 5188 5e3d dcf8 89bc 48ae eebb
00000320: 38e5 8f3d c3df 6ebd 51ce b13d a7f1 52bd
00000330: e0f1 073d 5002 9abd bc77 143d fabd 7a3d
00000340: fd71 633d 9508 e3bd 6a51 913d e7cb 2b3d
00000350: c9b8 5abd 211e 3ebd 4196 76bd 4691 0cbe
00000360: dcbd 873c d7db ba3c 52f9 2e3d 2d95 8f3d
00000370: 8106 8fbd 3c97 983d 0ec3 48bd e7ab 65bd
00000380: 3d39 cebd c3ae 8b3d 3b3d 43bd 9bd1 1fbd
00000390: 3fbc af3d af91 b13b 6777 8c3d 3255 1cbd
000003a0: 9d90 47bd dceb 2dbd 9f30 5bbd 2478 0d3d
000003b0: a22f cebd 7489 8a3c 9d16 e2bc 6101 6ebb
000003c0: 9791 b5bd 81ba 1bbd 3bc0 97bc e8bf 91bd
000003d0: 0b55 373d aaa7 11be ed6f c3bc 7e8b 02bc
000003e0: 69fe d33c c5d6 3d3c 298a debd 8307 5f3d
000003f0: dff2 c33c 6f04 02bd 81b2 72bd 38ed e9bc

encoder.dcrnn_cells.0.gate.bias_pool f4 [2, 128]
0.28328237 -0.25102293 0.15805152 -0.07630172 0.3531545 0.058323506 -0.029375533 -0.04365067
0.029269312 -0.114943735 0.06886165 0.0975657 -0.3145893 0.060106702 0.03556902 -0.06477507
-0.058988318 -0.118497215 0.059296753 -0.14954829 0.018851273 -0.07191066 0.053677782 -0.19408141
1.7603339e-06 -0.089885324 -0.08459615 0.13605945 0.12242782 -0.08344134 -0.046052318 0.5395819
0.048290968 -0.1279074 0.15383255 -0.15627682 -0.28129464 -0.23548956 -0.089999266 -0.14540546
0.04059829 0.17853563 -0.15360615 0.02680085 0.11231081 0.08682238 -0.31794256 0.116151616
0.2397609 0.21184953 0.16221517 0.072440885 0.18249854 0.04696077 -0.13158745 -0.20733137
-0.22644547 0.16001885 0.14074066 0.14063238 0.02868898 0.017822688 0.044892833 0.039562922
0.098666854 -0.000704002 0.0832101 -0.21633887 -0.29027387 0.17076363 -0.14754693 -0.17758015
0.17509128 -0.13833909 0.11245783 -0.015695767 0.10129942 0.03232753 0.15841189 0.06458442
-0.018825071 -0.12734224 -0.036664944 -0.10011204 -0.014394265 -0.19302465 -0.036618717 -0.004575941
0.10256812 0.028066926 0.18073523 0.061048966 -0.08305652 -0.05145502 0.21061006 -0.024843005
0.019898439 -0.029228047 0.020485157 -0.22148345 -0.07367791 -0.10392426 0.13128057 -0.16508375
-0.07358693 -0.27713847 -0.14405319 -0.11999665 -0.28776392 -0.13687627 -0.22673823 0.14993566
-0.1480638 -0.080018766 -0.194842 0.05422142 -0.07668808 -0.10158467 0.15177558 0.040095404
0.16150795 -0.121747665 0.02202063 -0.104756616 -0.05601501 0.1768305 -0.23731449 0.113929115
-0.2015383 0.04977705 -0.096015334 0.28987703 -0.17015879 0.13041331 0.0029791838 0.12101383
0.16069554 -0.16343208 -0.20171602 0.06576594 0.26336557 0.025184054 0.18092006 -0.041359957
-0.07361586 0.030471688 -0.17232989 -0.13832706 -0.10373422 -0.010533109 0.05590251 0.16409296
0.31218177 0.12048148 -0.157026 0.09126248 0.16556968 -0.039710328 0.07440076 0.17781511
-0.13890047 0.20244028 -0.17579624 0.24825469 0.23747462 0.09188307 -0.20071657 -0.028648915
0.13374981 -0.12692939 -0.06289474 0.01182719 -0.09834637 0.12761532 -0.08150706 -0.2441403
-0.14188263 0.037482385 -0.13072821 0.1126621 -0.0064800736 -0.16899699 0.16778357 -0.05072577
-0.01083798 -0.05900726 -0.12888235 -0.15626898 0.036811158 0.047357474 0.14380959 0.15546034
-0.011827757 -0.12364151 -0.105056405 -0.24630223 0.09974986 0.042921934 0.1096417 -0.07125682
0.015455522 0.1171522 -0.24948283 0.0015768842 -0.22407636 0.22462471 0.06330179 -0.14613147
-0.23214148 0.26029816 0.25410154 -0.15201446 0.092958234 0.34058538 -0.15684278 0.28587422
-0.19752316 -0.0009998789 -0.07921088 0.069326356 -0.09307391 -0.052982498 -0.030804053 -0.19246754
0.29106376 -0.052324988 0.2085699 0.17921212 -0.20166318 -0.018315949 -0.042882495 -0.020511687
0.07610649 -0.012944641 -0.076347746 -0.24469133 0.068298705 0.18928044 0.09346682 0.099590585
0.24967517 0.21609855 -0.013821597 -0.12152297 0.2282312 0.1004448 -0.090328775 0.064536974
0.08305395 0.0052514374 0.20547578 -0.031520586 -0.10251053 -0.113355584 -0.06636557 0.12165593
00000000: 630a 913e 1486 80be 42d8 213e 1444 9cbd
00000010: abd0 b43e a1e4 6e3d f5a4 f0bc 0ccb 32bd
00000020: 32c6 ef3c 9f67 ebbd 5607 8d3d 87d0 c73d
00000030: d911 a1be 7232 763d d2b0 113d cba8 84bd
00000040: bc9d 71bd abae f2bd 27e1 723d 3023 19be
00000050: fc6d 9a3c e545 93bd 3cdd 5b3d 47bd 46be
00000060: 9d44 ec35 cc15 b8bd bf40 adbd 2b53 0b3e
00000070: 70bb fa3d 4be3 aabd 5ba1 3cbd 0a22 0a3f
00000080: c0cc 453d 28fa 02be 4886 1d3e 0807 20be
00000090: da05 90be 2d24 71be 8951 b8bd 2be5 14be
000000a0: 644a 263d 0bd2 363e ee4a 1dbe 758d db3c
000000b0: 3603 e63d efcf b13d 5ec9 a2be e6e0 ed3d
000000c0: e283 753e 15ef 583e bc1b 263e e35b 943d
000000d0: e6e0 3a3e f059 403d dcbe 06be ad4e 54be
000000e0: 52e1 67be fbdb 233e 521e 103e ef01 103e
000000f0: 2705 eb3c e300 923c 8ce1 373d bb0c 223d
00000100: d911 ca3d c68c 38ba 0f6a aa3d f087 5dbe
00000110: c79e 94be a9dc 2e3e 8b16 17be 92d7 35be
00000120: 214b 333e c3a8 0dbe 4a50 e63d 6994 80bc
00000130: 1276 cf3d df69 043d ba36 223e d644 843d
00000140: 0937 9abc 0166 02be fb2d 16bd 8b07 cdbd
00000150: ecd5 6bbc 41a8 45be 82fd 15bd c6f1 95bb
00000160: 3c0f d23d 9cec e53c a812 393e 7b0e 7a3d
00000170: 8919 aabd 80c2 52bd 2aaa 573e 8f83 cbbc
00000180: 0d02 a33c a86f efbc 7dd0 a73c 8fcc 62be
00000190: 72e4 96bd 3ed6 d4bd 6a6e 063e b70b 29be
000001a0: bfb4 96bd 18e5 8dbe ae82 13be cec0 f5bd
000001b0: cb55 93be 4b29 0cbe 112e 68be bc88 193e
000001c0: 099e 17be e1e0 a3bd a984 47be 4817 5e3d
000001d0: a40e 9dbd a00b d0bd 0f6b 1b3e 143b 243d
000001e0: 5762 253e d756 f9bd 9c64 b43c a38a d6bd
000001f0: ff6f 65bd 0e13 353e 9202 73be ab53 e93d
00000200: 0e60 4ebe 05e3 4b3d b0a3 c4bd c36a 943e
00000210: 1b3e 2ebe 118b 053e 693e 433b 19d6 f73d
00000220: 5f8d 243e bd5a 27be a58e 4ebe 4bb0 863d
00000230: dad7 863e ca4e ce3c 1c43 393e 0f69 29bd
00000240: e9c3 96bd c39f f93c 3f77 30be 9ca5 0dbe
00000250: 9b72 d4bd 1093 2cbc 08fa 643d fc07 283e
00000260: 4ad6 9f3e ffbe f63d 6ccb 20be d3e7 ba3d
00000270: 198b 293e 4ca7 22bd 6d5f 983d 2a15 363e
00000280: ed3b 0ebe 814c 4f3e ee03 34be 7a36 7e3e
00000290: 8c2c 733e 312d bc3d a588 4dbe 21b1 eabc
000002a0: b6f5 083e c7f9 01be f5ce 80bd d5c6 413c
000002b0: d269 c9bd 97ad 023e 2ced a6bd eaff 79be
000002c0: ae49 11be 2187 193d 9edd 05be 63bb e63d
000002d0: cc56 d4bb 8c0d 2dbe 75cf 2b3e d3c5 4fbd
000002e0: c891 31bc 99b1 71bd bcf9 03be fa04 20be
000002f0: 4cc7 163d e9f9 413d d242 133e ff30 1f3e
00000300: 35c9 41bc c337 fdbd d027 d7bd a736 7cbe
00000310: a849 cc3d e9ce 2f3d d48b e03d 18ef 91bd
00000320: 2839 7d3c 7eed ef3d 6d78 7fbe 74af ce3a
00000330: 4674 65be 0504 663e 5ea4 813d 7da3 15be
00000340: 7fb6 6dbe cd45 853e 9919 823e aea9 1bbe
00000350: e360 be3d 3561 ae3e 659b 20be 1b5e 923e
00000360: 8343 4abe 5e0e 83ba 5039 a2bd fafa 8d3d
00000370: 899d bebd 2d04 59bd c858 fcbc 3616 45be
00000380: 4f06 953e ba52 56bd 5993 553e 6283 373e
00000390: cb80 4ebe 540b 96bc 8ea5 2fbd 2008 a8bc
000003a0: b8dd 9b3d c215 54bc 355c 9cbd 5d90 7abe
000003b0: 31e0 8b3d bbd2 413e 886b bf3d 26f6 cb3d
000003c0: d9aa 7f3e f048 5d3e fb73 62bc 09e1 f8bd
000003d0: 71b5 693e 01b6 cd3d 4bfe b8bd f62b 843d
000003e0: 3018 aa3d 4014 ac3b 3e68 523e bb1b 01bd
000003f0: 0af1 d1bd f926 e8bd acea 87bd bf26 f93d

encoder.dcrnn_cells.0.gate.linear.weight f4 [128, 65]
-0.17132993 0.07394962 0.06521079 -0.0015995506 0.09717739 0.09476137 0.1548007 0.39761037
0.035347585 0.07677141 0.35894775 0.034995522 0.08738907 0.26857856 -0.0015834505 -0.019856894
0.036069427 -0.30526403 -0.117677405 -0.21393643 0.05791814 0.051377445 0.17379437 0.13930291
0.11758738 0.058680493 0.095987774 0.10602764 -0.097771764 0.036202293 0.35106608 0.12854986
-0.20988724 -0.01564819 0.19016859 -0.031167442 -0.19273691 0.06146593 0.030970242 0.12078133
0.26189443 0.13517413 -0.17331004 0.02291514 0.16692634 0.0018523608 0.03231732 0.020094711
-0.10881312 0.06008775 0.09526205 0.30443907 -0.053278033 0.16188787 0.07614824 0.18702412
0.26189575 -0.2460431 -0.17931125 0.13972242 0.19447647 0.0911304 -0.066119455 0.1992076
0.008557169 0.09317873 -0.0047921706 -0.0057203 -0.17807464 -0.028633168 -0.038199868 -0.10052959
-0.18924536 -0.16415963 0.15135609 -0.12559384 0.20610286 0.096547276 0.0032443933 -0.02090024
0.0127814505 -0.15162277 -0.023455534 0.18000895 -0.06720732 -0.012532006 -0.009792796 0.103252105
-0.14206076 -0.08309606 0.0060107503 -0.14291182 0.024916926 0.05427042 -0.111711435 -0.08249063
-0.08642384 0.04331661 0.09443596 0.049378898 0.028578283 0.06067166 -0.084119976 0.3405778
-0.035976134 -0.058240004 -0.12451049 0.0999386 0.06835613 -0.039928548 0.001085521 -0.07176832
-0.12757997 0.120367736 0.06903545 -0.032916676 -0.10547207 -0.053954598 0.14452282 -0.008716591
-0.04471252 0.029944977 0.28212446 -0.13341105 -0.19719473 -0.06300961 -0.042411473 0.14569089
0.036810864 -0.16915189 0.24655522 -0.14602186 0.026805105 -0.15999787 0.16970097 -0.11638621
-0.08025618 -0.09482376 0.122424796 0.015482105 -0.036811557 0.045135673 -0.05612887 -0.0058040614
0.22829513 0.04872846 -0.14160337 -0.026114302 0.032628383 0.024792956 0.08899 0.075415574
-0.090599485 -0.12789276 0.13079217 -0.14400263 -0.097971894 -0.043519456 -0.27552515 -0.120689504
-0.22911285 0.07431579 0.03217266 -0.13936493 -0.08696512 0.26432675 0.23719226 0.042335603
0.18229215 0.17533782 0.16409579 -0.050496407 -0.15540609 -0.12477118 0.07262025 -0.007909063
0.122726694 -0.0713612 0.09723051 0.04459666 0.12535107 -0.07498162 -0.1788214 -0.13247696
-0.13055809 -0.10785731 0.11887192 0.05741679 -0.15828633 -0.1974729 -0.16940537 -0.2801329
-0.21589218 0.0053811944 0.091166094 -0.12581795 -0.21101496 -0.00078459573 -0.030330934 -0.0849075
-0.24093355 -0.16212513 -0.07706523 -0.015088338 0.15613122 -0.2570265 -0.11785562 0.102753446
0.026099188 -0.19194435 0.12417771 -0.21127672 0.057551708 0.019133683 0.2650633 0.2515585
0.025421586 0.0932666 0.0789917 -0.09740684 -0.13127378 -0.11562268 -0.22320822 -0.17751954
-0.17427191 -0.13770548 0.117626324 0.30896467 -0.20982055 0.014493663 -0.011843601 0.098203495
-0.09174067 0.16815172 -0.2247497 -0.04901513 -0.058485195 0.10652632 0.10153318 -0.13794208
-0.00833545 -0.30143657 0.115137346 -0.20225717 -0.14372762 -0.21826051 -0.19250602 0.047811538
-0.2110009 0.07707957 -0.14135629 0.06178652 0.17283887 -0.030977411 -0.13930424 -0.24808562
00000000: 1d71 2fbe e672 973d 3c8d 853d 03a8 d1ba
00000010: f004 c73d 4012 c23d 1384 1e3e 9693 cb3e
00000020: a1c8 103d 543a 9d3d 00c8 b73e 7757 0f3d
00000030: 0af9 b23d 2183 893e c88b cfba edaa a2bc
00000040: 89bd 133d 914b 9cbe da00 f1bd 2712 5bbe
00000050: 923b 6d3d 2871 523d 27f7 313e 6ca5 0e3e
00000060: a7d1 f03d f55a 703d 3d95 c43d 0525 d93d
00000070: 903c c8bd db48 143d efbe b33e 93a2 033e
00000080: aeec 56be a230 80bc 8ebb 423e dd52 ffbc
00000090: d35c 45be b3c3 7b3d 4eb5 fd3c 345c f73d
000000a0: 0717 863e 166b 0a3e 3078 31be 88b8 bb3c
000000b0: bdee 2a3e eaca f23a 2b5f 043d aa9d a43c
000000c0: 6ad9 debd 931e 763d c018 c33d 70df 9b3e
000000d0: 113a 5abd efc5 253e 9cf3 9b3d 4083 3f3e
000000e0: 3317 863e b9f2 7bbe 5e9d 37be 6513 0f3e
000000f0: d724 473e 93a2 ba3d a369 87bd 14fd 4b3e
00000100: 5e33 0c3c 7dd4 be3d a407 9dbb 5b71 bbbb
00000110: 3359 36be 1b90 eabc 7777 1cbd 75e2 cdbd
00000120: 89c9 41be 7619 28be 17fd 1a3e ac9b 00be
00000130: a10c 533e 94ba c53d e39f 543b fb36 abbc
00000140: 4a69 513c 0043 1bbe d225 c0bc 4454 383e
00000150: fea3 89bd 0b53 4dbc f771 20bc d775 d33d
00000160: 6078 11be 442e aabd d4f5 c43b 7a57 12be
00000170: 951e cc3c a94a 5e3d f7c8 e4bd d9f0 a8bd
00000180: fbfe b0bd c26c 313d a467 c13d 8741 4a3d
00000190: 011d ea3c d982 783d 1847 acbd 3760 ae3e
000001a0: b65b 13bd 128d 6ebd 5bff febd 9cac cc3d
000001b0: 4cfe 8b3d 1e8c 23bd 0a48 8e3a 45fb 92bd
000001c0: 53a4 02be 5c83 f63d 7562 8d3d a3d3 06bd
000001d0: be01 d8bd 7fff 5cbd cafd 133e 08d0 0ebc
000001e0: 7a24 37bd 2b4f f53c 9e72 903e e89c 08be
000001f0: 6aed 49be 2f0b 81bd a7b7 2dbd fe2f 153e
00000200: fdc6 163d 2736 2dbe f978 7c3e c186 15be
00000210: 6196 db3c 7bd6 23be 17c6 2d3e e55b eebd
00000220: 5a5d a4bd f632 c2bd dab9 fa3d a8a8 7d3c
00000230: b7c7 16bd 2fe0 383d 63e7 65bd ff2f bebb
00000240: 33c6 693e 7e97 473d 7900 11be a9ed d5bc
00000250: 57a5 053d 991a cb3c 6440 b63d 7b73 9a3d
00000260: 398c b9bd 52f6 02be 62ee 053e 6d75 13be
00000270: 7da5 c8bd 7541 32bd a211 8dbe 0f2c f7bd
00000280: 8f9c 6abe e032 983d 7bc7 033d aeb5 0ebe
00000290: c51a b2bd d655 873e 87e2 723e 1968 2d3d
000002a0: cbaa 3a3e c28b 333e ba08 283e 52d5 4ebd
000002b0: c622 1fbe 0888 ffbd edb9 943d 0495 01bc
000002c0: 2258 fb3d d225 92bd ca20 c73d fdaa 363d
000002d0: 085c 003e f78f 99bd f51c 37be 0aa8 07be
000002e0: 05b1 05be 4be4 dcbd 1f73 f33d de2d 6b3d
000002f0: d015 22be 5636 4abe 9a78 2dbe 946d 8fbe
00000300: d712 5dbe bb54 b03b 4ab5 ba3d 6cd6 00be
00000310: 4e14 58be 54ad 4dba 9478 f8bc fce3 adbd
00000320: 49b7 76be 2104 26be 60d4 9dbd 1435 77bc
00000330: dde0 1f3e fa98 83be 4a5e f1bd 6670 d23d
00000340: f7cd d53c 0f8d 44be e250 fe3d ed58 58be
00000350: 57bb 6b3d 3ebe 9c3c 60b6 873e 47cc 803e
00000360: ee40 d03c 8f02 bf3d 67c6 a13d 3d7d c7bd
00000370: a26c 06be 95cb ecbd b290 64be afc7 35be
00000380: 5674 32be aa02 0dbe 12e6 f03d 9e30 9e3e
00000390: 33db 56be d476 6d3c aa0b 42bc ea1e c93d
000003a0: 88e2 bbbd f72f 2c3e c924 66be 17c4 48bd
000003b0: 2c8e 6fbd 792a da3d a1f0 cf3d b040 0dbe
000003c0: 6991 08bc e555 9abe 21cd eb3d 811c 4fbe
000003d0: 552d 13be af7f 5fbe 4c20 45be 08d6 433d
000003e0: 9f10 58be e5db 9d3d b4bf 10be dd13 7d3d
000003f0: acfc 303e 57c4 fdbc c5a5 0ebe 280a 7ebe

encoder.dcrnn_cells.0.gate.linear.bias f4 [128]
0.4487748 0.24115376 0.14950778 -0.0013472269 0.8797748 0.5250533 0.45493618 0.43791825
0.83180445 0.23100479 0.72746223 0.5834274 0.17889038 0.49085748 0.5992861 0.95757866
0.82826 0.3758675 0.19742425 0.6774587 0.34198898 0.5328693 0.85091394 0.3782903
-0.029855158 0.4683715 0.76772964 0.814921 0.41888803 0.4189743 0.82640636 -0.11534458
0.2975472 0.44676986 0.24048392 0.67689365 0.48193616 0.05697771 0.3734295 0.52921265
0.04450444 0.047547285 0.23656452 0.26371998 0.84574217 0.61314464 0.4333649 0.98493236
0.89094704 0.7823531 0.4837677 0.49595124 0.40820163 1.0108626 0.37571582 0.49461487
0.6522988 0.64329207 0.2686099 0.8522538 0.7383899 0.26196954 0.16423671 0.9751428
0.40773275 0.18707025 0.59951437 0.29197434 0.6056671 1.0493451 0.87412864 0.6867577
0.46115258 0.80929637 1.1463003 0.07220148 0.21020575 0.48028722 -0.006681066 0.53279686
0.6252462 0.699274 0.8787766 0.6460972 -0.017952928 -0.039957702 0.67485076 0.21105313
0.0959897 0.37064058 0.8098204 0.52036434 -0.111007035 0.8608135 0.6843225 0.6650173
0.88955134 0.6030966 0.10987547 0.5968004 0.41547498 0.29131287 0.5816227 0.3135201
0.8996255 0.2108872 0.810928 0.08259726 0.447679 0.19678204 0.53437483 1.0178156
0.5819973 0.15811294 0.102692045 0.24004865 0.62002736 0.52829975 0.69223255 0.15402186
0.84520674 0.79542 0.0746495 0.63115984 0.3761819 0.47841042 -0.0026106783 0.57836205
00000000: d0c5 e53e 03f1 763e 9118 193e 6f95 b0ba
00000010: ec38 613f e569 063f 65ed e83e d236 e03e
00000020: 23f1 543f 858c 6c3e f73a 3a3f 805b 153f
00000030: 0a2f 373e ac51 fb3e d06a 193f e023 753f
00000040: d908 543f b471 c03e 9529 4a3e ef6d 2d3f
00000050: 2e19 af3e 1f6a 083f 7fd5 593f 44af c13e
00000060: ce92 f4bc 64ce ef3e ee89 443f aa9e 503f
00000070: 7e78 d63e cd83 d63e 5e8f 533f c739 ecbd
00000080: 1b58 983e 05bf e43e 6b41 763e e748 2d3f
00000090: 56c0 f63e 7661 693d 2732 bf3e 7b7a 073f
000000a0: 4a4a 363d f1c0 423d f83d 723e 4e06 873e
000000b0: 8f82 583f 0cf7 1c3f 01e2 dd3e 8724 7c3f
000000c0: 1b15 643f 4b48 483f 66b0 f73e 52ed fd3e
000000d0: ceff d03e f263 813f d35d c03e 293e fd3e
000000e0: 0efd 263f caae 243f 3d87 893e 4e2d 5a3f
000000f0: 1f07 3d3f df20 863e ab2d 283e f5a2 793f
00000100: 59c2 d03e 588f 3f3e c679 193f a97d 953e
00000110: 000d 1b3f f150 863f e5c6 5f3f 5acf 2f3f
00000120: 311c ec3e 0c2e 4f3f f8b9 923f 5fde 933d
00000130: 2d40 573e 35e8 f53e d8ec dabb 6065 083f
00000140: 2310 203f 9f03 333f 81f7 603f a066 253f
00000150: 0512 93bc b0aa 23bd 05c3 2c3f 501e 583e
00000160: 3f96 c43d 9ac4 bd3e 6450 4f3f 9936 053f
00000170: a857 e3bd 465e 5c3f c22f 2f3f 933e 2a3f
00000180: a3b9 633f 8a64 1a3f 6406 e13d e9c7 183f
00000190: 23b9 d43e f626 953e 3ae5 143f b585 a03e
000001a0: db4d 663f d0f2 573e fa98 4f3f c128 a93d
000001b0: 2f36 e53e 3b81 493e cacc 083f c847 823f
000001c0: c6fd 143f 5ce8 213e 3550 d23d 50cf 753e
000001d0: 1dba 1e3f a73e 073f 2736 313f e8b7 1d3e
000001e0: 785f 583f a5a0 4b3f d6e1 983d b193 213f
000001f0: ea9a c03e 36f2 f43e ea17 2bbb 890f 143f

encoder.dcrnn_cells.0.update.weights_pool f4 [2, 65, 64]
0.22344996 -0.23184997 0.23960066 0.20098434 -0.078124925 -0.16092913 -0.22735614 0.0685977
0.23441139 -0.17119056 0.18743436 -0.02173852 0.16626641 -0.013705556 -0.16861062 -0.14255922
0.120192364 0.19901595 0.16255909 0.067724474 -0.24071373 0.18892948 0.075166896 0.22118835
-0.19097114 -0.16496827 -0.21881038 0.10626226 0.22504602 -0.21610402 0.21798785 -0.18209939
0.19456771 0.27143407 -0.09063082 0.18765779 0.18551798 0.19067486 -0.067678496 0.014630049
0.23241802 0.16708174 0.17603306 0.25287008 -0.106011406 -0.17785445 0.25899002 0.046264168
-0.21987455 -0.16993241 -0.16646832 -0.26342082 -0.060011994 0.15720956 0.3046604 -0.23668331
0.20311545 0.20430256 -0.088827394 0.11115308 -0.2122767 0.15226348 0.2509704 0.008014085
-0.041171987 -0.079069674 -0.048995145 -0.03635841 -0.09549142 0.006953225 0.06762785 -0.0031477117
-0.0074719707 0.032724027 -0.09929428 0.0072634746 -0.040098086 -0.001734063 -0.12285413 0.017276306
-0.032505516 -0.039579585 0.002411289 -0.032344658 -0.022424616 -0.04784073 -0.023436368 -0.00844132
-0.07102442 0.016955301 -0.021515395 -0.04556205 -0.028937753 0.03355912 -0.030186966 0.044260744
-0.036374893 -0.020519126 -0.013705161 -0.102238365 -0.06445622 -0.07267937 0.024086917 -0.010298246
-0.07780098 -0.056692608 -0.09990251 -0.05386372 -0.049458556 0.045087747 -0.030752521 -0.0127246445
-0.0494042 0.0766135 -0.018091107 -0.05208154 0.0109289065 -0.029128607 -0.037592757 -0.13015847
0.005213823 -0.061782505 -0.022291802 0.0105026355 -0.109634146 -0.060032755 -0.01758107 0.0016820442
-0.14777769 -0.17145647 -0.036527615 0.042179544 -0.038801998 -0.039006956 0.024524331 0.055769965
0.021996118 -0.0279382 -0.11620386 0.061587237 0.0859836 0.022063248 -0.07836548 0.011124761
-0.013460758 0.015442526 -0.069648966 -0.018345328 -0.04809082 -0.03169329 4.9977898e-05 0.030699007
-0.039074894 -0.006127331 0.028186018 0.0024159239 0.044212732 0.035731837 -0.013807901 0.031114696
-0.28513965 0.030772405 0.029817482 -0.023147237 0.01836146 -0.01667355 0.05856334 0.0692901
0.00441022 0.010448331 -0.014522106 0.03012203 0.029977297 -0.009581501 0.00737393 0.07940014
0.032536224 0.053406682 -0.010565492 0.034742862 0.0023925572 -0.04155616 -0.021796977 -0.02815791
0.023399612 -0.02493563 -0.08105268 0.08808298 -0.10866997 -0.08639774 -0.013800951 0.03655617
0.028108153 -0.089351125 0.027999109 0.11292 -0.16820835 0.06559389 -0.061714984 0.025372803
0.13743065 -0.07637539 0.12904662 0.040825162 -0.01960861 -0.04400601 0.1050296 0.07238065
-0.068587646 0.1397921 0.1552102 -0.015071457 -0.04186652 -0.027830891 0.07965824 -0.009422256
0.020463469 0.0569216 -0.0065043806 -0.033956245 0.08781031 0.06337979 0.037871454 -0.10638354
-0.065034576 0.23584308 -0.09387481 0.047291942 0.10677309 -0.009000731 0.11369145 -0.017108107
0.01522873 0.052914303 -0.012875238 0.09552306 -0.10839789 0.043331422 0.20213568 -0.03539948
-0.0008951238 0.071018174 0.07225975 -0.15510719 -0.012481114 0.12712757 0.030942068 0.019320242
0.13667144 0.17644402 -0.044932436 0.01340342 -0.18974024 0.060732048 0.0064896266 0.06458149
00000000: 11d0 643e 146a 6dbe e059 753e d7ce 4d3e
00000010: f6ff 9fbd 9bca 24be 0cd0 68be f37c 8c3d
00000020: 8a09 703e 944c 2fbe cbee 3f3e fb14 b2bc
00000030: be41 2a3e 458d 60bc 43a8 2cbe 0bfb 11be
00000040: 6a27 f63d d6ca 4b3e e475 263e 21b3 8a3d
00000050: a97d 76be bb76 413e 1af1 993d 337f 623e
00000060: f08d 43be 71ed 28be d40f 60be 07a0 d93d
00000070: 7772 663e 5f4a 5dbe 3538 5f3e 4378 3abe
00000080: c23c 473e 68f9 8a3e a79c b9bd 5d29 403e
00000090: 6df8 3d3e 4540 433e 069b 8abd dfb2 6f3c
000000a0: fdfe 6d3e 7a17 2b3e 0342 343e 3078 813e
000000b0: 821c d9bd 7a1f 36be 579a 843e 7f7f 3d3d
000000c0: cb26 61be c302 2ebe ac76 2abe 18df 86be
000000d0: 23cf 75bd 8bfb 203e 73fc 9b3e 1c5d 72be
000000e0: 7ffd 4f3e b134 513e 23eb b5bd 3aa4 e33d
000000f0: 105f 59be f5ea 1b3e 317f 803e 824d 033c
00000100: f5a3 28bd 48ef a1bd 22af 48bd 8eec 14bd
00000110: 0191 c3bd e1d7 e33b 7880 8a3d d749 4ebb
00000120: 6fd7 f4bb a109 063d cd5a cbbd 7102 ee3b
00000130: e43d 24bd 8049 e3ba f29a fbbd 0a87 8d3c
00000140: 8124 05bd 341e 22bd b706 1e3b d57b 04bd
00000150: d4b3 b7bc a4f4 43bd a0fd bfbc 764d 0abc
00000160: 4075 91bd d8e5 8a3c 0e41 b0bc 469f 3abd
00000170: de0e edbc 4a75 093d a84a f7bc c14a 353d
00000180: d7fd 14bd ba17 a8bc 9d8b 60bc 5962 d1bd
00000190: 9f01 84bd ecd8 94bd ed51 c53c f9b9 28bc
000001a0: 1f56 9fbd 8236 68bd b099 ccbd 34a0 5cbd
000001b0: 0e95 4abd eead 383d b6ec fbbc 077b 50bc
000001c0: 0f5c 4abd 8ae7 9c3d cd33 94bc 7453 55bd
000001d0: 280f 333c 1e9f eebc ddfa 19bd 4348 05be
000001e0: b8d8 aa3b a70f 7dbd 4c9d b6bc 3f13 2c3c
000001f0: de87 e0bd e8e4 75bd 2d06 90bc 0a78 dc3a
00000200: 0953 17be 4992 2fbe fb9d 15bd 75c4 2c3d
00000210: d8ee 1ebd c2c5 1fbd 40e7 c83c 0c6f 643d
00000220: 3431 b43c a7de e4bc 4afc edbd e642 7c3d
00000230: 2b18 b03d fcbd b43c 157e a0bd a144 363c
00000240: 838a 5cbc a602 7d3c 1ea4 8ebd f148 96bc
00000250: e1fa 44bd d3d0 01bd 5c9f 5138 7c7c fb3c
00000260: ff0c 20bd c7c7 c8bb 5de6 e63c 7a54 1e3b
00000270: 6918 353d 8c5b 123d 893a 62bc 3fe4 fe3c
00000280: d3fd 91be 6916 fc3c cb43 f43c 469f bdbc
00000290: c66a 963c f896 88bc 1de0 6f3d f8e7 8d3d
000002a0: 9b83 903b 7a2f 2b3c 21ee 6dbc 7ac2 f63c
000002b0: f392 f53c bafb 1cbc 02a1 f13b 8a9c a23d
000002c0: b444 053d f7c0 5a3d e31a 2dbc 884e 0e3d
000002d0: 73cc 1c3b cb36 2abd 938f b2bc 6bab e6bc
000002e0: 8bb0 bf3c ce45 ccbc f3fe a5bd d964 b43d
000002f0: 5c8e debd 4cf1 b0bd 621d 62bc ecbb 153d
00000300: 1243 e63c b9fd b6bd 635e e53c 9a42 e73d
00000310: cf3e 2cbe 1756 863d dac8 7cbd a0da cf3c
00000320: 9fba 0c3e b36a 9cbd cc24 043e 4938 273d
00000330: 3ca2 a0bc a53f 34bd c219 d73d 4e3c 943d
00000340: ae77 8cbd a925 0f3e 6cef 1e3e 46ee 76bc
00000350: 3a7c 2bbd 9cfd e3bc dc23 a33d ce5f 1abc
00000360: 01a3 a73c a026 693d b322 d5bb b415 0bbd
00000370: e4d5 b33d 43cd 813d 191f 1b3d 9ddf d9bd
00000380: d930 85bd d980 713e 7041 c0bd 32b5 413d
00000390: daab da3d cd77 13bc 10d7 e83d 4d26 8cbc
000003a0: ec81 793c abbc 583d aaf2 52bc 98a1 c33d
000003b0: b7ff ddbd 4a7c 313d a8fc 4e3e 0cff 10bd
000003c0: bea6 6aba fa71 913d ebfc 933d 6bd4 1ebe
000003d0: 967d 4cbc bb2d 023e 387a fd3c 7c45 9e3c
000003e0: 99f3 0b3e bead 343e 130b 38bd 059a 5b3c
000003f0: 444b 42be 2bc2 783d efa6 d43b 4d43 843d

encoder.dcrnn_cells.0.update.bias_pool f4 [2, 64]
0.10083812 -0.08579416 0.191224 0.27373892 0.15941824 0.15788136 -0.035501253 0.059602328
-0.10047892 -0.22941718 -0.1604299 0.07802349 -0.21017377 -0.0071261222 0.04336374 -0.20376547
0.15105554 0.110274665 0.17164393 -0.24192216 -0.12504126 -0.14802435 -0.051008165 0.24656788
0.0218209 0.29074696 -0.30621645 0.20532228 -0.3131813 0.24046612 -0.30302075 -0.26937747
-0.38769734 -0.14229232 -0.27373192 0.11179411 0.25911653 -0.29380465 0.23040129 -0.17329197
0.18784368 -0.17407213 -0.093288705 -0.14977726 0.16935843 -0.2243054 -0.042917814 0.09883549
-0.00093486585 -0.26677686 0.07998019 -0.021482829 -0.19700316 -0.09851375 0.18084091 -0.24351001
0.30158648 -0.124738745 0.054827146 0.10712494 -0.24788451 -0.25427273 0.117506064 -0.07397712
0.12648919 0.032716665 -0.286503 0.1415134 0.2828033 0.047451694 -0.16482873 0.24933362
-0.17059708 0.23146893 0.20118421 0.0036837733 -0.08880968 -0.12925507 -0.120003566 -0.22936633
-0.2000396 -0.1668231 -0.075418636 -0.24916458 -0.20205358 -0.17964885 0.047798842 -0.12273548
-0.057852354 -0.16738288 0.09527623 -0.114076324 0.13497253 -0.101786435 0.2569438 -0.16132621
-0.04580918 0.17251237 0.32121345 -0.11412804 -0.029987397 -0.03873908 0.09528939 0.25547248
0.18787183 0.08845133 0.18520012 0.062005736 0.08659411 -0.031510133 -0.08049552 -0.33349627
-0.117631905 -0.17535159 0.15862249 0.2780877 0.23338643 0.31598148 0.18210946 0.3326985
0.20181336 0.24598384 0.25753018 -0.05981505 -0.06265489 0.22157547 0.27672374 0.20917359
00000000: 3784 ce3d d9b4 afbd 39d0 433e 8227 8c3e
00000010: 893e 233e a7ab 213e c369 11bd 9221 743d
00000020: e4c7 cdbd 56ec 6abe bc47 24be c8ca 9f3d
00000030: cb37 57be 3f82 e9bb 2d9e 313d e5a7 50be
00000040: 4eae 1a3e afd7 e13d 6dc3 2f3e 71ba 77be
00000050: d10a 00be b293 17be f0ed 50bd 4a7c 7c3e
00000060: bec1 b23c c9dc 943e 67c8 9cbe 0140 523e
00000070: 4d59 a0be c03c 763e 8925 9bbe d8eb 89be
00000080: 4480 c6be 14b5 11be 9726 8cbe 4ff4 e43d
00000090: ecaa 843e 906d 96be 51ee 6b3e 7373 31be
000000a0: 185a 403e f73f 32be 260e bfbd 365f 19be
000000b0: 4c6c 2d3e 51b0 65be 97ca 2fbd 436a ca3d
000000c0: c911 75ba fa96 88be a7cc a33d c2fc afbc
000000d0: 32bb 49be 94c1 c9bd 5c2e 393e b05a 79be
000000e0: 8b69 9a3e 0777 ffbd 6e92 603d 5264 db3d
000000f0: 70d5 7dbe 0930 82be 05a7 f03d 5181 97bd
00000100: 6286 013e e901 063d 85b0 92be e4e8 103e
00000110: 98cb 903e b55c 423d ddc8 28be 5051 7f3e
00000120: 00b1 2ebe 3106 6d3e 3c03 4e3e 766b 713b
00000130: d9e1 b5bd 715b 04be 6ec4 f5bd 02df 6abe
00000140: 2ed7 4cbe add3 2abe 1675 9abd 0025 7fbe
00000150: 22e7 4ebe def5 37be b8c8 433d bd5c fbbd
00000160: 97f6 6cbd 6b66 2bbe 2f20 c33d d9a0 e9bd
00000170: 3d36 0a3e 6875 d0bd 238e 833e b332 25be
00000180: 68a2 3bbd 15a7 303e 1776 a43e f6bb e9bd
00000190: 21a8 f5bc dfac 1ebd 1527 c33d 4acd 823e
000001a0: 7961 403e f925 b53d 1aa5 3d3e baf9 7d3d
000001b0: 4158 b13d c510 01bd d6da a4bd 06c0 aabe
000001c0: ffe8 f0bd 5e8f 33be ef6d 223e 8361 8e3e
000001d0: dafc 6e3e 53c8 a13e e77a 3a3e 7557 aa3e
000001e0: 29a8 4e3e 30e3 7b3e ffda 833e a000 75bd
000001f0: 3551 80bd aee4 623e bcae 8d3e 9a31 563e

encoder.dcrnn_cells.0.update.linear.weight f4 [64, 65]
0.15476888 0.038516257 -0.03578641 -0.076771185 0.029756868 -0.15687439 0.03598947 -0.15798391
-0.26010925 -0.044505857 -0.3057226 -0.018665316 -0.13642405 0.16686285 0.074439354 0.0034961666
0.061811697 0.08422596 -0.0061190543 0.124995485 0.055420168 -0.19955933 0.13528651 -0.19418277
0.10265797 -0.30639914 -0.13793734 -0.020388523 0.023564361 0.11093958 0.045096308 -0.03671357
0.15265964 -0.23209086 -0.1205857 -0.038589843 0.13451688 0.042088367 0.20461285 0.12174308
0.010714483 -0.11502782 0.23189998 -0.25319406 -0.24967827 -0.11337675 0.15557446 0.16666064
0.08450678 0.00061345904 -0.034056358 -0.32201853 0.07641246 -0.05709768 0.029127346 -0.12133365
-0.24517103 -0.0867416 0.20827952 -0.23127489 -0.097817 -0.25575086 0.14801139 0.0360848
-0.17743275 -0.19721487 -0.2060224 -0.2930198 0.1430567 -0.052191302 -0.12544346 -0.06489984
-0.021476028 -0.25017726 0.063146986 -0.10174048 0.11406889 -0.19107129 0.123064645 0.016540715
-0.22955394 0.008031373 0.116765745 -0.009441067 0.018778473 0.30932543 0.117452756 -0.07921931
-0.20552038 -0.16518955 -0.06995486 0.14738517 -0.07118803 -0.052584965 0.034066442 0.006079173
0.06324547 0.17420746 -0.051704925 0.044267636 -0.066605784 -0.031785097 -0.23895223 0.046989705
-0.104306415 -0.17883365 -0.038670212 0.10328181 -0.012359264 -0.049147867 -0.27116817 0.122077264
0.11744674 0.10511532 -0.23751019 -0.17487101 0.04048923 -0.2909427 -0.18544841 0.13983956
0.08422481 -0.20707606 0.03238274 0.0027235842 0.040197317 -0.2321168 -0.15961054 0.15553871
0.0961758 0.08372559 0.12566933 -0.25285828 -0.15555567 -0.2468495 0.054178495 0.06653931
0.053096578 0.016124288 -0.25233707 0.19503789 0.07621759 -0.21852691 -0.113144726 -0.052279007
0.0109189395 -0.25628215 -0.21502486 0.079659484 0.24658725 0.15718396 0.06485834 -0.02573555
-0.07024116 0.025064152 0.061481338 -0.28482115 -0.014198939 -0.0729067 -0.1686337 -0.117381044
-0.18544939 0.18349817 0.16455199 -0.026351396 0.009300157 0.08454661 0.21241018 0.15198578
0.058630865 -0.02387139 -0.12792303 -0.001280906 0.06357983 -0.24426304 0.08443612 -0.276475
0.06707793 0.15200111 -0.0994374 -0.112507895 -0.2371137 -0.07531114 -0.029281119 0.039895117
0.09118815 0.1291883 -0.14799415 0.22099276 -0.16078578 -0.15981413 -0.0011736501 -0.19854867
-0.06276382 -0.17638306 -0.23180896 0.35118303 0.064323746 -0.13203408 -0.052212577 -0.03134086
0.18149148 -0.15968344 0.06542953 0.20075084 0.16542867 -0.240688 0.008554046 -0.06886303
0.1208736 0.0069596614 0.050436437 -0.061624933 0.078535 0.06969806 0.025465485 0.2556285
-0.04239993 -0.18918456 0.028393198 -0.019096177 0.10474101 0.049927156 -0.17876981 -0.056705996
-0.17600618 -0.22184835 0.13863899 -0.13792221 0.18057638 0.18874915 -0.11363847 0.08413615
0.19421299 0.22556469 0.11765636 0.23171121 0.1489237 0.18235165 0.1871758 -0.0642832
0.18953124 -0.18218805 -0.07003979 -0.04789382 0.1819526 -0.040445928 -0.09099164 -0.13836205
-0.09546334 -0.17821619 -0.12298742 0.1188651 0.27834576 -0.2037034 0.13655423 -0.0064562038
00000000: bc7b 1e3e 39c3 1d3d c594 12bd 363a 9dbd
00000010: adc4 f33c aea3 20be b269 133d 89c6 21be
00000020: 0a2d 85be c64b 36bd ac87 9cbe 01e8 98bc
00000030: bfb2 0bbe 18de 2a3e a973 983d f11f 653b
00000040: 432e 7d3d a97e ac3d 5982 c8bb a2fd ff3d
00000050: 4200 633d 4859 4cbe 8c88 0a3e d9d7 46be
00000060: 573e d23d 59e0 9cbe 723f 0dbe d505 a7bc
00000070: 0c0a c13c 4a34 e33d e8b6 383d f860 16bd
00000080: cf52 1c3e 3aa9 6dbe a3f5 f6bd 6210 1ebd
00000090: cbbe 093e da64 2c3d 0886 513e 7054 f93d
000000a0: cd8b 2f3c b593 ebbd 3077 6d3e a7a2 81be
000000b0: a9ab 7fbe 1232 e8bd e94e 1f3e 16a9 2a3e
000000c0: e411 ad3d 8ad0 203a ae7e 0bbd 9ddf a4be
000000d0: 237e 9c3d 42df 69bd 799c ee3c c77d f8bd
000000e0: 1d0e 7bbe 94a5 b1bd 3a47 553e 53d3 6cbe
000000f0: 4754 c8bd c7f1 82be 4c90 173e a8cd 133d
00000100: eeb0 35be b2f2 49be 89f7 52be b106 96be
00000110: 757d 123e 8cc6 55bd 4074 00be 35ea 84bd
00000120: 7fee afbc 3c17 80be 3553 813d 505d d0bd
00000130: f39c e93d 31a8 43be 5109 fc3d 6580 873c
00000140: 3010 6bbe 0596 033c e122 ef3d b5ae 1abc
00000150: 50d5 993c e75f 9e3e 128b f03d bc3d a2bd
00000160: ef73 52be 7327 29be 7e44 8fbd 23ec 163e
00000170: 08cb 91bd 5563 57bd 4189 0b3d cd33 c73b
00000180: d786 813d 7163 323e 8bc8 53bd fb51 353d
00000190: 9d68 88bd 1731 02bd e5af 74be 4778 403d
000001a0: 9a9e d5bd 2b20 37be a864 1ebd 6a85 d33d
000001b0: 837e 4abc 464f 49bd 8ed6 8abe a503 fa3d
000001c0: eb87 f03d b346 d73d df35 73be 6311 33be
000001d0: 09d8 253d 71f6 94be 30e6 3dbe 1a32 0f3e
000001e0: 0f7e ac3d bf0b 54be c4a3 043d 297e 323b
000001f0: f1a5 243d 07b0 6dbe f270 23be 8a45 1f3e
00000200: d1f7 c43d 5278 ab3d 76af 003e a476 81be
00000210: fc49 1fbe 1ec6 7cbe 45ea 5d3d c345 883d
00000220: cc7b 593d 1517 843c 5332 81be 03b8 473e
00000230: f817 9c3d 85c5 5fbe 6cb8 e7bd 8322 56bd
00000240: 5ae5 323c 6a37 83be 7a2f 5cbe 8324 a33d
00000250: 5e81 7c3e d5f4 203e 73d4 843d 5cd3 d2bc
00000260: 99da 8fbd 5653 cd3c dbd3 7b3d 14d4 91be
00000270: aba2 68bc 1c50 95bd 50ae 2cbe 7965 f0bd
00000280: 72e6 3dbe f2e6 3b3e 5180 283e e2de d7bc
00000290: b05f 183c c626 ad3d 0e82 593e 29a2 1b3e
000002a0: eb26 703d ef8d c3bc 41fe 02be 13e4 a7ba
000002b0: 2436 823d 1720 7abe d8ec ac3d 228e 8dbe
000002c0: 2760 893d 2ea6 1b3e d6a5 cbbd 8a6a e6bd
000002d0: efcd 72be ba3c 9abd f5de efbc 1069 233d
000002e0: dac0 ba3d f049 043e c78b 17be ed4b 623e
000002f0: 07a5 24be 51a6 23be 2ad5 99ba 5850 4bbe
00000300: 518a 80bd c39d 34be 545f 6dbe 43ce b33e
00000310: 2bbc 833d f133 07be dbdc 55bd 465f 00bd
00000320: e7d8 393e 0e84 23be ebff 853d a191 4d3e
00000330: 2266 293e ea76 76be 4526 0c3c 0f08 8dbd
00000340: 948c f73d df0d e43b 7096 4e3d 6d6a 7cbd
00000350: f5d6 a03d dbbd 8e3d fe9c d03c bde1 823e
00000360: 8dab 2dbd 99b9 41be da98 e83c 966f 9cbc
00000370: 7482 d63d 6b80 4c3d 6f0f 37be 8c44 68bd
00000380: f73a 34be 372c 63be 61f7 0d3e 7b3b 0dbe
00000390: 04e9 383e 7547 413e 49bb e8bd 934f ac3d
000003a0: c5df 463e 6efa 663e d1f5 f03d b445 6d3e
000003b0: 747f 183e 64ba 3a3e 03ab 3f3e e9a6 83bd
000003c0: 7a14 423e 818f 3abe 0571 8fbd 4f2c 44bd
000003d0: c851 3a3e a1aa 25bd d359 babd c8ae 0dbe
000003e0: 4982 c3bd 4e7e 36be d4e0 fbbd 8c6f f33d
000003f0: 5683 8e3e a097 50be dfd4 0b3e 908e d3bb

encoder.dcrnn_cells.0.update.linear.bias f4 [64]
0.48121005 0.3478425 0.51985866 0.7226988 0.5651146 0.099892035 0.02917752 0.5478753
0.20794292 0.2114277 0.44386947 0.6189592 0.74492586 0.45769554 0.90282166 0.661262
0.0848518 0.18594934 0.20576735 0.19820094 0.85977304 0.5163937 0.38983512 0.83159053
0.3753149 0.07415675 0.5440549 0.26751164 0.80457556 0.06303392 0.4907353 0.107996665
0.2856135 0.24642046 0.25867248 0.29464692 0.543768 0.3953385 0.35096565 0.58686584
0.7441013 0.29220623 0.7220048 0.5184726 0.7636163 0.115942486 0.89246297 0.571083
0.1217681 0.7074091 0.93518746 0.41435024 0.37661773 0.86412853 0.57347953 0.7930743
0.29674158 0.39773813 0.17280024 0.88823766 0.27504805 0.2427617 0.68672436 0.8551672
00000000: 2a61 f63e 6a18 b23e 7515 053f ca02 393f
00000010: 5aab 103f 3294 cc3d b205 ef3c 8e41 0c3f
00000020: fdee 543e 8180 583e dc42 e33e 1c74 1e3f
00000030: 76b3 3e3f 1257 ea3e 521f 673f 7748 293f
00000040: c8c6 ad3d 8169 3e3e adb4 523e 30f5 4a3e
00000050: 161a 5c3f 6132 043f 7898 c73e 1ee3 543f
00000060: 4629 c03e 7fdf 973d 2f47 0b3f 49f7 883e
00000070: aaf8 4d3f ee17 813d a841 fb3e 5b2d dd3d
00000080: ef3b 923e a555 7c3e b870 843e f6db 963e
00000090: 6134 0b3f cf69 ca3e c5b1 b33e d73c 163f
000000a0: 6c7d 3e3f 0e9c 953e 4ed5 383f 9fba 043f
000000b0: 5c7c 433f 4173 ed3d 7478 643f 7f32 123f
000000c0: 8e61 f93d c318 353f 7268 6f3f b725 d43e
000000d0: 0ad4 c03e 8737 5d3f 8ecf 123f eb06 4b3f
000000e0: 83ee 973e 55a4 cb3e 8cf2 303e 8b63 633f
000000f0: 19d3 8c3e 8696 783e 2bcd 2f3f 3dec 5a3f
