mo/TARGCN/model/model_para/PEMSD8/epoch_1.pth (torch, 597909 bytes, 48 tensors)

node_embeddings f4 [170, 2]
000000 c5 a6 fe bd 19 7e 52 be 92 d5 74 3d df 34 a7 bc
       -0.124341525 -0.20555915 0.05977399 -0.020410953
000010 ee b9 ff bc e3 81 af bd 70 96 fb bc a1 38 e7 bd
       -0.031216588 -0.08569696 -0.030711383 -0.11290098
000020 ce e8 6d 3d ac 24 b4 bc 94 98 5a 3c d7 1b 9d bd
       0.058083348 -0.021990143 0.0133420415 -0.07671326
000030 89 19 70 ba fd 99 ce bd 2c f6 81 3d c8 df 06 3b
       -0.00091590785 -0.10087965 0.06345782 0.0020580161
000040 6b de 1c 3d 7a 49 2f bd 53 72 3a bd 85 5a 17 be
       0.03829805 -0.042794682 -0.045519184 -0.14780624
000050 84 f6 94 3d 69 f5 8f 3b da 42 22 3e 98 dd de 3d
       0.072735816 0.004393269 0.15845814 0.108821094
000060 1a b5 1d 3e 88 09 9b 3d f2 3f 85 3d e6 d2 f7 bc
       0.15401116 0.07570177 0.06506337 -0.030251931
000070 1a 1f 4b 3d d7 25 0f bd 36 ed 35 3d 44 8c d6 bc
       0.049590208 -0.034948196 0.044415675 -0.02618993
000080 06 db 96 3d e1 34 f2 bc 89 7d 6e bb 7a 96 bb bd
       0.07365994 -0.02956623 -0.0036390743 -0.091595605
000090 18 55 0d 3d 77 93 10 bd c8 ab 96 bb 99 3c a3 bd
       0.03450498 -0.035296883 -0.0045981146 -0.079705425
0000a0 eb 56 bb 3d 2d 64 cb 3c b3 19 38 3c 8a 18 75 bd
       0.09147438 0.024828041 0.011236596 -0.059837855
0000b0 da 67 db 3d 10 da b4 3c 61 fb 0e 3d 5f 63 42 bd
       0.107131675 0.022076637 0.034907702 -0.04745805
0000c0 1d ed 23 3e bc 1c b7 b7 b7 0f ba 3d 93 59 57 3c
       0.1600842 -2.182868e-05 0.090850286 0.013143915
0000d0 b9 83 ee 3d 97 04 21 3d 3d bb 10 3d 13 15 09 bd
       0.11646218 0.039311018 0.035334814 -0.033467364
0000e0 59 27 31 bd df 91 0a be 72 53 d5 bd 1a ee 19 be
       -0.043250415 -0.13532208 -0.104163066 -0.15032235
0000f0 8c 99 e9 3d 01 d1 77 3d 0c 29 68 3c 64 09 fc bc
       0.1140624 0.060502056 0.014169943 -0.030766197
000100 04 44 1f 3e b6 53 90 3d a5 4e ed 3d ec 93 73 be
       0.1555329 0.070472166 0.11587266 -0.23786896
000110 40 05 1e 3e 46 5d 54 3d 33 2e cc bd 51 d8 2b be
       0.1543169 0.051846765 -0.09969749 -0.16781737
000120 58 11 93 3d 12 b1 d0 3b 69 4e 8d bd 17 5f 00 be
       0.071810424 0.0063687647 -0.06899721 -0.12536274
000130 b7 50 9e 3d a0 ae 20 3c 0f c7 e1 3d 71 c9 10 3d
       0.07730239 0.009807259 0.110242955 0.03534836
000140 01 20 4b bd 29 bf d9 bd 22 73 2d 3b 65 81 c2 bd
       -0.04959107 -0.10632164 0.002646633 -0.09497336
000150 50 df 1a 3e bf 50 9e 3d 33 31 5f 3d c8 45 c1 bc
       0.1512425 0.07730245 0.05449028 -0.023592845
000160 09 7f c4 3d cd 0d 34 3d 40 ab 14 3e 01 80 99 3d
       0.095945425 0.043958474 0.14518452 0.07495118
000170 dc d2 f8 3d 9d 40 3c 3d 2e 8b a9 3c 7c 86 60 bd
       0.12149593 0.045960058 0.020696249 -0.054815754
000180 e7 3d 54 bd 7f 0a 15 be 9b de 3f bd 6a 9f f1 bd
       -0.051816847 -0.14554785 -0.046843152 -0.11797984
000190 96 d5 27 3e fa de c2 3d ad bd b8 bb 6f 34 c2 bd
       0.1639007 0.09515186 -0.0056378455 -0.09482657
0001a0 fb 8b 8d 3d 03 86 c7 bc 51 28 a0 3c a5 80 ac bd
       0.06911465 -0.024355894 0.019550474 -0.084229745
0001b0 33 4f ed 3d e3 9e 62 3d 12 41 04 3d 21 33 61 bd
       0.11587372 0.055327307 0.03228862 -0.0549804
0001c0 d9 7d 53 3c b3 ed 63 bd 6b f4 17 3e 66 06 ae 3d
       0.012908422 -0.05564661 0.14839332 0.08497314
0001d0 83 f5 22 3d b9 a5 3e 3b 2d bf 19 3e 86 48 e8 3d
       0.03978492 0.0029090478 0.15014334 0.11341958
0001e0 7e 54 91 3a 96 04 82 bd ba 6f e3 3c 8c 4e 7a bd
       0.0011087803 -0.06348531 0.027763236 -0.061110064
0001f0 61 01 8e bd 55 98 4d be d8 10 db bc 1e d0 f9 bd
       -0.06933857 -0.20077641 -0.02674143 -0.12197898
000200 7a 2c ef 3d 7e 80 3c 3d c9 ee a3 3d da f6 f5 3c
       0.11678405 0.046020977 0.08004529 0.030024935
000210 1a c4 26 3d 87 f9 86 bb 25 13 6d bd c4 26 c3 bd
       0.04071436 -0.0041191014 -0.057879586 -0.09528878
000220 b1 e4 86 3d 2d 09 79 3c a5 0b 48 bb 57 07 a9 bd
       0.06586588 0.015199942 -0.0030524519 -0.08253353
000230 20 5c a0 bc 77 9f df bd c5 e3 ee 3c 3a ae 6c bd
       -0.019575179 -0.109190874 0.029161343 -0.057783343
000240 36 e2 11 3d c2 0a ae bc 08 92 a9 3c fa 8c 88 bd
       0.035616122 -0.021245364 0.020699516 -0.06667514
000250 4a a0 e4 3d 7d 1c 1a 3d 76 0d 1d 3d 15 31 39 bd
       0.11163385 0.037624825 0.038342915 -0.045212824
000260 fb 10 7a bd 89 75 fa bd 24 55 5c bd ea 21 e8 bd
       -0.06105135 -0.12229449 -0.053792134 -0.113345936
000270 1b 79 46 3d f7 7d 80 bc 9f 95 b7 3d 5e d7 38 3d
       0.04845534 -0.015685065 0.08964085 0.045127265
000280 d7 ab bb bd 04 07 3d be 65 d2 e1 3d 45 92 f6 3c
       -0.09163635 -0.18459707 0.11026458 0.030099044
000290 ca 8d d0 bd 74 d6 4d be 26 e2 3c 3d 82 f9 22 bd
       -0.10183294 -0.20101339 0.04611411 -0.03978873
0002a0 89 8b 57 3c 3a 3c 99 bd 9a 65 60 3d d2 22 d8 bc
       0.013155826 -0.074821904 0.054784395 -0.026383791
0002b0 68 aa df 3c 57 35 0d bd 15 79 16 3d d7 44 7b bb
       0.027302936 -0.034474697 0.036736567 -0.0038340592
0002c0 5f b9 4b bc df 96 73 bd 18 31 1c 3c 79 43 ad bd
       -0.012434333 -0.059470054 0.009533189 -0.08460135
0002d0 cb 25 5d 3c 94 ec 93 bd 36 f7 a6 3d e9 f9 80 3b
       0.01349778 -0.07222858 0.081526205 0.0039360416
0002e0 88 f3 3d 3e 0c 94 c6 bc 0a e4 00 3d e3 cf 49 bd
       0.18549931 -0.024240516 0.031467475 -0.04927052
0002f0 9e 8a 07 3e 7c 73 7d 3d 4c 86 a6 bc 9f ef e4 bd
       0.13236472 0.061877713 -0.02032771 -0.111785166
000300 c8 39 e2 bd 5c 95 22 be e9 38 df 39 78 70 70 bd
       -0.11046177 -0.15877289 0.00042576276 -0.05870101
000310 31 b8 2e bd 18 5b 0e be 2b 10 05 3b 1c 1d 45 bd
       -0.042656127 -0.13901937 0.0020303826 -0.048123464
000320 bc 73 17 bd fb 16 93 bd 72 41 05 3d cd 79 e9 bc
       -0.036975607 -0.071821176 0.032533117 -0.028500462
000330 88 8e fa 3d 99 fa 23 bd bd 01 dd 3d a9 a6 63 bd
       0.12234217 -0.04003391 0.10791347 -0.05557886
000340 df e0 25 bd 73 5f b5 bd a8 36 de 3d 1f e9 7a 3d
       -0.040497657 -0.08856096 0.108502686 0.061257478
000350 ee 39 99 3d f0 9b a9 3b f8 d3 9c 3b c5 d2 27 bd
       0.07481752 0.00517606 0.004786011 -0.04097249
000360 11 ed 3d 3e 7d ce 89 bd 8c 9e 9c bc 3b b1 14 be
       0.18547465 -0.06728838 -0.01911857 -0.14520733
000370 40 1a 68 bd 2c 8c 37 be e2 b4 92 3d 52 03 bf 3b
       -0.05666566 -0.17924565 0.07163407 0.0058292532
000380 89 a3 98 3d d4 6d d3 ba d8 03 4e 3d d1 ac 62 bd
       0.07453067 -0.0016130754 0.050296634 -0.05534059
000390 c7 75 01 3d 34 46 fc bc 77 3a 87 3d 61 d0 5f bc
       0.03160646 -0.030795194 0.06602948 -0.013660521
0003a0 c4 c1 38 3e 12 50 ba 3d a6 3e c2 3d 48 43 19 3d
       0.18042666 0.090973035 0.094846055 0.03741768
0003b0 fb b8 68 3c d9 47 a1 bc 32 29 29 3e 89 43 e1 3d
       0.014204259 -0.01968758 0.16519621 0.109992094
0003c0 48 39 82 3d 3e 89 2e 3a 45 ee 95 3d 1a 4c 38 bc
       0.06358582 0.0006658024 0.07320837 -0.011248613
0003d0 f5 85 56 3c 8d 8b 9b bd 97 8f 5a bd 21 c2 16 be
       0.013093461 -0.075949766 -0.053359594 -0.14722492
0003e0 d9 77 45 3d 00 cc 16 bd 07 be 2f 3d 5f 3c 24 bd
       0.04821 -0.036815643 0.042905834 -0.040096637
0003f0 d3 d7 3e 3c 39 26 83 bd ec d4 99 bc 52 fe ca bd
       0.011648136 -0.06403775 -0.018778287 -0.09911789

encoder.dcrnn_cells.0.gate.weights_pool f4 [2, 65, 128]
000000 69 1d 3e be c4 e3 2b bd f9 11 91 3e 00 d8 94 3d
       -0.18565907 -0.04196526 0.28334025 0.07267761
000010 14 77 10 bc 91 40 bf 3d 2d 88 49 3e 59 62 09 3e
       -0.008817453 0.09338487 0.19680853 0.13416423
000020 4a be 22 3e 08 27 0c 3e 92 17 c1 3d dd ca b0 3d
       0.15892902 0.13686764 0.09428324 0.08632443
000030 1d a9 66 3d 05 2a a2 bd f8 c1 e2 3d 4a e3 ee 3d
       0.056313623 -0.07918171 0.11072153 0.11664446
000040 79 d3 0d 3e 27 f6 c4 3d 04 a1 2d 3e 30 3e 09 3e
       0.13850202 0.09617262 0.16955954 0.13402629
000050 aa de 33 3e c9 5d 14 be b6 cf 2c bd 94 82 db bd
       0.17565408 -0.14488901 -0.042190276 -0.10718265
000060 7c e6 3a 3e c3 b4 96 3d e2 77 f0 3d de 48 67 3e
       0.18251985 0.07358696 0.11741616 0.2258639
000070 4e 1a 3e be 9d 9d d0 3d 14 4e 2e bd 38 f2 19 be
       -0.18564722 0.10186312 -0.04255493 -0.15033805
000080 7e 7d 56 be ee ba cd bc 5a d3 39 bd 04 22 27 3e
       -0.20946309 -0.02511355 -0.045367576 0.1632157
000090 04 31 78 3e bd 65 ff 3d 20 24 cb 3d 89 d4 6a 3e
       0.24237448 0.12470577 0.09919 0.22932638
0000a0 d5 59 0f be 04 43 ad 3d ef 3e 47 bc cd cf 42 3d
       -0.13999112 0.08460048 -0.012161001 0.047561456
0000b0 d9 0d a4 3d 6a fa 3f 3e 80 c8 08 3a 99 52 a6 3c
       0.08010454 0.18747869 0.0005217865 0.020303058
0000c0 b3 13 1f 3d 82 64 1a 3e ab df de 3d 6b c0 2a 3e
       0.038837146 0.15077403 0.10882505 0.16674964
0000d0 0b 98 bc bc 23 41 39 be ac c1 4f bd 26 07 38 3d
       -0.023021718 -0.18091254 -0.05072181 0.044928692
0000e0 df 8a a7 3d 3b eb 36 3d 19 75 81 3d bf ba d1 bd
       0.081807844 0.044657927 0.06321163 -0.10240697
0000f0 4b 61 35 3e e6 ab d9 3d 3c 85 d7 3d 85 50 cc bd
       0.17712896 0.1062849 0.10523459 -0.099762954
000100 2f 34 39 be a1 7a ca 3d fb 18 0b be 09 88 e1 bd
       -0.18086313 0.09886671 -0.13583748 -0.11012275
000110 2d 8b 55 3e 16 5c 6c be 33 b4 fb bd a0 e1 08 bd
       0.20853873 -0.23082003 -0.1229023 -0.033418298
000120 71 c1 22 be bf 1e 46 be a8 62 c2 bd 0d b9 ae bd
       -0.15894105 -0.19347666 -0.094914734 -0.085313894
000130 4b b4 17 3e 6d d3 c9 3d 00 f1 83 bd f1 18 80 be
       0.1481487 0.098547794 -0.064424515 -0.2501903
000140 82 5e 3c be ab cd 00 be bc 3c 2c be c6 e6 97 be
       -0.18395427 -0.12578456 -0.16820043 -0.29668254
000150 38 9f 98 bd b1 6a a1 3d 09 db f2 3d 23 44 61 3e
       -0.074522436 0.07881678 0.11858184 0.21998648
000160 73 62 c0 bd df 4f 51 be a8 22 96 be 3d d8 60 be
       -0.09393778 -0.20440625 -0.29323316 -0.21957488
000170 7e a5 f8 3d e6 88 88 be 92 59 70 3e 9d 58 20 bd
       0.1214094 -0.26666945 0.23471668 -0.03914701
000180 5d a6 21 be b6 1f dc 3c e9 47 29 be 02 60 c0 bd
       -0.15786119 0.02687059 -0.16531338 -0.09393312
000190 c9 92 a8 3d 94 8c 9c be e0 1e 8b be 61 76 3a 3d
       0.08231122 -0.30576003 -0.27171993 0.04552305
0001a0 ff 05 10 3e ec 77 83 be 50 83 04 3e 62 30 44 3e
       0.14064787 -0.2567743 0.12940717 0.19159082
0001b0 00 70 70 bd 59 11 6d be c5 53 4b be 49 76 33 3e
       -0.05870056 -0.23151149 -0.19856174 0.17525591
0001c0 ec c2 06 3e 13 6d 32 be 0d 86 23 be 7e 61 12 3e
       0.13160294 -0.17424421 -0.15969105 0.14295003
0001d0 59 39 12 3e 65 ef 5f 3b 5a f9 0e 3e 99 4a 0b be
       0.14279689 0.003416979 0.13962308 -0.13602675
0001e0 37 06 85 3d a6 1b 9f bd 3e ba 19 3e 27 c2 3a 3d
       0.06495326 -0.077689454 0.15012452 0.045595314
0001f0 ef de ee 3d 61 13 1f be 7d cf 5a 3e bf bc e7 3d
       0.11663615 -0.15534736 0.21368213 0.11315297
000200 8e cd e0 3d d0 7f 63 bd f1 64 d6 3c 4c a2 03 be
       0.109767064 -0.055541813 0.02617118 -0.1285488
000210 4e c4 2c 3d 95 88 11 bd fd f8 79 bd 1a 2c 9e bd
       0.0421794 -0.035530645 -0.06102847 -0.077232555
000220 27 5c 15 bd 19 87 39 bd 72 35 8a bd ab 05 bd 3d
       -0.036464836 -0.045294855 -0.06748475 0.09229597
000230 8a 3f 2b be 96 c6 1d 3e 66 64 49 be 22 88 80 bc
       -0.16723457 0.15407786 -0.19667205 -0.015689913
000240 2c e6 5b bd 81 d8 c0 bd 49 ef ed bb 55 d7 27 bd
       -0.053686306 -0.09416295 -0.007261191 -0.04097684
000250 c7 d5 df bd 13 2f 6b bc b4 29 03 bd 58 98 ac bb
       -0.10929447 -0.014354485 -0.032022193 -0.005267184
000260 99 75 36 be 48 f2 c0 bd d2 41 01 bd c0 fa 2a bd
       -0.17818297 -0.094212115 -0.03155691 -0.04174304
000270 73 ae 58 3c 6e bc bc bd d2 c4 c6 bd 56 13 06 3c
       0.013225186 -0.092156276 -0.09705509 0.008183321
000280 47 dd ad 3d 4f 5b a7 bd 1d 46 c8 3d 32 7a 55 bd
       0.08489471 -0.081717126 0.09778998 -0.052118488
000290 3f 50 70 bd 1b ea 65 bd d5 60 65 bd 47 bf 34 3d
       -0.05867028 -0.056131463 -0.05600055 0.04412773
0002a0 bc af 34 be 68 4f 5e bd 9d c9 af bc b7 7f 2f be
       -0.17645162 -0.054274946 -0.021458441 -0.17138563
0002b0 9d 66 1f 3c d8 b7 05 bd 67 c8 5a be 0e f4 45 bd
       0.009729055 -0.03264603 -0.2136551 -0.04832845
0002c0 49 fd 93 3d 6d d9 43 bd f9 fa 93 bd 25 c2 b8 bd
       0.07226045 -0.047814775 -0.072256036 -0.09021405
0002d0 8b 2e 85 bc 38 55 07 3d c1 d5 2e 3b 62 a9 47 be
       -0.016257545 0.033040255 0.00266777 -0.19498208
0002e0 21 c4 cf bd c8 ff e9 bd af eb a4 3d 7a 02 aa 3c
       -0.101448305 -0.114257395 0.080527656 0.020753134
0002f0 bd 75 ef bd 2f 6b 5a bd 6a 48 fc bb 15 8a c7 3d
       -0.11692379 -0.053324874 -0.007699062 0.09743134
000300 19 0f 28 bd b6 c0 12 bd 8a c1 f3 bc 39 94 cc 3c
       -0.041030023 -0.035828315 -0.029755373 0.024973022
000310 c1 c0 48 be 7d 73 18 3d 9d 8d 6f 3c c4 96 43 3b
       -0.1960478 0.037219513 0.014621166 0.0029844502
000320 92 41 7f 3d 3e a3 2b bd 9c b4 8d 3d ba ce 63 3a
       0.062318392 -0.041903727 0.06919214 0.00086901675
000330 2c e3 76 3d 9c 71 ac bd 86 7a 1c 3d fc 3f 4f 3d
       0.06027524 -0.08420107 0.038202785 0.05059813
000340 b9 64 2e 3d e7 08 eb bd 89 43 6a 3d df 17 15 3d
       0.042576525 -0.11476307 0.057193313 0.03639972
000350 15 5e 46 bd e1 b7 52 bd b1 66 73 bd 0b 12 be bd
       -0.048429567 -0.05144489 -0.059424106 -0.09280785
000360 b4 d4 93 3c 31 f3 55 3c 6c 86 60 3d 62 46 a2 3d
       0.01804576 0.01305847 0.054815695 0.07923581
000370 3e 66 9a bd 76 89 99 3d b4 6f 05 bc 14 e8 cc bd
       -0.075390324 0.07496922 -0.008144308 -0.10005203
000380 cb c8 f9 bd 8e e4 84 3d 23 e7 b6 bc af 3a 94 bc
       -0.12196501 0.06488906 -0.022327011 -0.018094389
000390 c0 4e fa 3d 57 1d 4c 3b 87 30 5b 3d 8c 3e 1f bd
       0.122220516 0.0031145418 0.053513076 -0.03887801
0003a0 9d e7 8f bc 2d cf 12 bd a7 ad 25 bb a7 bb 55 3d
       -0.017566497 -0.03584211 -0.0025280507 0.052180912
0003b0 23 c6 97 bd 9e 89 2a 3c 12 1d 06 bd c2 db 54 3c
       -0.074108385 0.010408787 -0.032742567 0.0129918475
0003c0 8d 34 b0 bd 88 ad 05 bd 0f 7f d1 bc 70 91 5f bd
       -0.08603773 -0.032636195 -0.025573282 -0.05458206
0003d0 4e 27 94 3d be 36 1c be 5d 84 4e bb e3 01 2a 3c
       0.07234059 -0.15255257 -0.0031512 0.010376426
0003e0 5f 87 77 3d 3e 32 03 3c bd 2e bd bd 32 89 91 3d
       0.060431834 0.008007584 -0.0923743 0.07106246
0003f0 a1 56 eb bb d6 10 c9 bc d1 bb 95 bd d3 29 ff bc
       -0.007181958 -0.02454416 -0.07311214 -0.031147873

encoder.dcrnn_cells.0.gate.bias_pool f4 [2, 128]
000000 0f e5 6b 3e 68 58 24 be b1 de 03 3e 39 47 30 bd
       0.23036598 -0.1604935 0.12877919 -0.043036673
000010 3b c7 aa 3e cf 86 ae 3c e1 e7 e7 bc 9a d0 87 bc
       0.33355126 0.021304516 -0.02830881 -0.016578961
000020 54 6c 2d 3c 7b 37 ff bd 25 ff ad 3c 90 63 31 3e
       0.0105849095 -0.12461754 0.021239826 0.17323136
000030 e0 03 6a be b7 1a 1d 3d 3c 04 c5 3d 4e 22 c5 bd
       -0.2285304 0.038355555 0.09619948 -0.09625684
000040 3a c1 b1 bd a6 1f b1 bd 1b 56 34 3d 63 bc 38 be
       -0.08679433 -0.086486146 0.04402743 -0.18040614
000050 a6 b4 2d 3d f0 ac ea bd e4 69 91 3c 5c c3 16 be
       0.042408608 -0.114587665 0.017750688 -0.14722961
000060 98 cd 01 3d 32 27 e7 bd a9 b1 d1 bd a5 64 9b 3d
       0.03169021 -0.11286773 -0.10238964 0.07587556
000070 9c c0 04 3e 56 e5 ea bd d9 c7 17 bc cf 23 d3 3e
       0.129641 -0.114695236 -0.009263956 0.41238257
000080 c9 b7 45 3c 20 f5 bb bd 1a 93 39 3e f3 3a cc bd
       0.012067744 -0.09177613 0.18122521 -0.09972181
000090 7e e3 76 be af 56 7d be 67 30 07 be 70 4e 59 be
       -0.24110219 -0.24740098 -0.13202058 -0.21221328
0000a0 6a 1e aa 3d 19 94 17 3e 1d d4 2f be a3 60 39 3d
       0.08306582 0.14802589 -0.17170759 0.045258176
0000b0 2d a5 e9 3d bb 05 66 3d a5 65 98 be 9a 9a 80 3d
       0.11408458 0.05615781 -0.2976505 0.06279488
0000c0 0d 46 7f 3e 11 10 37 3e f3 96 0d 3e 5d 23 92 3c
       0.24929066 0.17877223 0.13827114 0.017839128
0000d0 41 95 02 3e b4 45 9a 3c cb c3 af bd 26 18 36 be
       0.12752248 0.018832065 -0.085822664 -0.1778265
0000e0 a0 93 62 be ac 74 f2 3d eb 4c 1a 3e 1b b8 e6 3d
       -0.22126627 0.1183866 0.15068404 0.11265584
0000f0 79 9d 6a 3d 6b 81 8c bc 4c 60 48 3d f4 0a a5 3c
       0.057279084 -0.017151555 0.04891996 0.020146824
000100 9d fb e8 3d d6 41 cb 3c bc ed b1 3d b1 13 4e be
       0.113761164 0.024811666 0.08687922 -0.20124699
000110 87 c5 8d be d9 27 38 3e 41 f1 cd bd 3e 19 df bd
       -0.27689764 0.1798395 -0.10055781 -0.108934864
000120 6c b4 30 3e 44 ff b7 bd 3e 77 e1 3d 89 2d 05 3d
       0.17256325 -0.08984235 0.11009072 0.03251413
000130 65 b3 ec 3d 95 80 d7 3c 04 33 38 3e 39 61 a0 3d
       0.11557654 0.02630643 0.17988211 0.07831044
000140 06 68 ce bb 65 fc fb bd 0d 84 d0 bb ac fc 9b bd
       -0.0062990217 -0.12304 -0.006363398 -0.07616553
000150 fa d1 bf 3c bf 57 33 be 1b 9a c4 bc fc ee 07 3d
       0.023415554 -0.17513941 -0.023999264 0.033186898
000160 fa f2 fd 3d 59 f8 13 3d d5 e1 5e 3e 94 1f 8a 3d
       0.1239986 0.036125515 0.21765836 0.06744304
000170 9a fc 8f bc 1e bf 1e bd f3 67 6d 3e ef c0 94 3b
       -0.017576504 -0.038756482 0.23184185 0.004539601
000180 9c d9 78 3c 22 45 e5 bc dc 7e 77 3d d2 74 5b be
       0.015188601 -0.027987067 0.060423717 -0.21431282
000190 2f 1c 83 bd 4b 17 9e bd 03 eb 0a 3e 30 8d 14 be
       -0.0640186 -0.077192865 0.13566212 -0.14506984
0001a0 99 df 9f bd e2 79 68 be 4a b5 dc bd 58 0e cd bd
       -0.0780632 -0.22702745 -0.10776766 -0.100125015
0001b0 6b 46 8d be f7 05 f0 bd 23 a7 5f be 51 39 18 3e
       -0.27592787 -0.11719888 -0.21841101 0.14865614
0001c0 5c 1f 22 be e5 28 08 bd 15 b8 39 be b1 98 7a 3d
       -0.15832275 -0.033242125 -0.18136628 0.061180774
0001d0 96 aa 98 bc 85 ec ba bd cf 19 24 3e d7 67 4c 3d
       -0.01863603 -0.09127144 0.1602547 0.049903717
0001e0 ee fb 34 3e 48 1b 02 be 94 1b 08 3d 5a d0 cb bd
       0.17674229 -0.1270572 0.033229426 -0.09951849
0001f0 b4 62 42 bd a4 3d 3d 3e 5b 54 65 be 3b c3 f5 3d
       -0.047457412 0.18480545 -0.2239546 0.12000128
000200 dc 06 fb bd f2 c6 8f 3c 39 42 a0 bd 9f fc 84 3e
       -0.12257168 0.01755092 -0.07825131 0.25973985
000210 31 2b 0c be b8 f6 2f 3e 8f 43 8e 3c e6 dd 25 3d
       -0.13688351 0.1718396 0.017366199 0.040494822
000220 12 f8 40 3e 10 64 10 be d7 3b 29 be 51 5c e8 bd
       0.18844631 -0.14100671 -0.16526733 -0.11345733
000230 b3 68 68 3e 0e dc 92 3d 26 5e ff 3d 51 c3 25 bb
       0.2269619 0.07170878 0.12469129 -0.002529342
000240 ef 01 13 bd c2 8e c6 3b 0a 76 16 be 17 5f d7 bd
       -0.035890516 0.0060594985 -0.14693466 -0.10516184
000250 34 3f ea bd c8 71 02 3d f6 82 ac 3d da 30 06 3e
       -0.11437836 0.03184679 0.08423416 0.13104573
000260 a4 fe 91 3e 99 fa 1b 3e 03 1e 04 be b1 1f 34 3e
       0.28514588 0.15232314 -0.12902074 0.17590214
000270 bd 20 30 3e f2 cb 73 bb d5 b8 74 3d 82 a0 14 3e
       0.17199989 -0.0037200418 0.059746582 0.14514354
000280 fc 0f ae bd b6 f5 2e 3e 1c 35 3d be 69 98 46 3e
       -0.084991425 0.17085919 -0.18477291 0.19394077
000290 07 ab 4a 3e ea 69 81 3d c0 49 18 be f1 39 32 3d
       0.19791804 0.0631903 -0.14871883 0.04351229
0002a0 65 72 cd 3d 6b 27 ef bd 02 ee 4e bd ac c3 19 3c
       0.10031585 -0.1167744 -0.05051995 0.009385031
0002b0 69 e3 e5 bd df 9d 28 3e 90 de bd bd c6 01 46 be
       -0.11225016 0.16466473 -0.09270966 -0.19336614
0002c0 b1 ee 10 be 83 a6 9a 3d c4 7d ce bd 7e 60 2d 3e
       -0.14153554 0.07551291 -0.10082582 0.1693134
0002d0 ae 23 2a 3d 33 e6 03 be fc d4 fc 3d 1a 5d 91 bd
       0.041537933 -0.12880783 0.12345311 -0.07097836
0002e0 ee 2b 28 3c 8e 76 07 bd c0 6e 2c be 1b b5 00 be
       0.01026438 -0.033072047 -0.16839123 -0.12569086
0002f0 d7 f6 79 3c 0a 67 a0 3d 47 f4 22 3e ac e4 3a 3e
       0.015256605 0.07832153 0.15913497 0.18251294
000300 14 d2 ae bc 35 b9 12 be e3 ff ea bd bb 45 8b be
       -0.021340407 -0.14328463 -0.11474588 -0.27201638
000310 50 14 ae 3d aa 3c e5 3c 18 e7 fa 3c bf 1d ed bd
       0.08499968 0.027983028 0.030627772 -0.11577939
000320 a0 c7 d4 b9 ec ae 86 3d 37 4e 86 be 4a b9 fe bd
       -0.00040584523 0.065763324 -0.26231548 -0.12437685
000330 b5 86 79 be 40 f6 57 3e af c5 78 3d 18 cf 1e be
       -0.24367793 0.2109003 0.0607354 -0.15508687
000340 84 45 7d be 72 1a 7f 3e 68 31 4c 3e cb da 32 be
       -0.2473355 0.24912432 0.19940722 -0.17466275
000350 84 49 5d 3d 1a ea 9f 3e d3 df 42 be 1f 2e 5f 3e
       0.054025188 0.31233293 -0.19030695 0.21794938
000360 74 6f 5d be e8 39 80 bc 47 23 04 be c1 bd 70 3d
       -0.21624547 -0.015652612 -0.12904082 0.058774713
000370 49 59 fb bd 05 74 87 bd d0 fc b0 bd 64 6a 4b be
       -0.12272889 -0.06613926 -0.0864197 -0.19864804
000380 aa d5 7a 3e ef 36 99 bd 7e 22 40 3e d9 6c 1e 3e
       0.24495569 -0.07481181 0.18763158 0.1547121
000390 84 1f 99 be 2d a8 95 bd b0 ac 49 bd 6f 78 be bc
       -0.29906857 -0.073074676 -0.049236953 -0.023250787
0003a0 fa b1 5a 3d 55 1b 0d bd 4c 15 e3 bd 0c e0 8e be
       0.053392388 -0.034449894 -0.110880464 -0.2790531
0003b0 61 94 67 3d ce 29 28 3e 8b a9 a3 3d dd c6 bf 3d
       0.05653799 0.16422197 0.07991322 0.09364102
0003c0 b1 d7 66 3e ce a6 2e 3e 3d 4e 00 bd 48 96 0d be
       0.22543217 0.17055818 -0.031324614 -0.13826859
0003d0 ae b2 34 3e a5 96 b3 3d ff e3 e0 bd e9 7e 60 3d
       0.17646286 0.087689675 -0.10980987 0.05480853
0003e0 1e 30 23 3d ec c9 ab bc 7a 6e 49 3e 0d 62 22 bd
       0.03984081 -0.020970307 0.1967105 -0.03964429
0003f0 21 a3 13 be cb 29 09 be e4 87 e2 bd 8d e4 e9 3d
       -0.14417697 -0.13394849 -0.11061075 0.11420546

encoder.dcrnn_cells.0.gate.linear.weight f4 [128, 65]
000000 59 2c 20 be 13 2e 5e 3d 2f 5a b3 3d 54 eb 1d bc
       -0.15641917 0.05424316 0.087574355 -0.009638626
000010 5c c8 93 3d 4f e8 a7 3d 2d 17 ed 3d d3 2f c4 3e
       0.0721595 0.08198606 0.11576686 0.38317737
000020 3d 4a 5e 3d 1e 47 a1 3d 5c 15 ac 3e 89 0c 18 3d
       0.054270018 0.07874893 0.33610046 0.03712133
000030 00 6b 7b 3d e8 6d 6c 3e a8 87 fc 3a 88 bf 80 bc
       0.06138134 0.23088801 0.0019266503 -0.01571633
000040 b1 c5 bc bb 26 61 84 be 21 f7 06 be 6c 11 45 be
       -0.0057608713 -0.25855368 -0.1318021 -0.19244927
000050 db bd ee 3d 38 26 05 3d 89 7e 15 3e 44 8c 05 3e
       0.11657306 0.03250715 0.1459905 0.13041788
000060 48 7b 98 3d cd e3 3f 3d 6e 38 5b 3d 72 fb b0 3d
       0.07445389 0.046848107 0.053520612 0.086417094
000070 2b b8 cb bd 4b 0e 3a 3c 86 02 9e 3e 6a ab ef 3d
       -0.099472366 0.011355947 0.308613 0.117026165
000080 c3 cd 5f be 50 81 27 bc a6 ae 3d 3e 5c 9a 14 3c
       -0.21855836 -0.010223702 0.18523654 0.009070005
000090 e8 7f 49 be 83 6d 2a 3d 9d 6b 02 3d d5 41 56 3d
       -0.19677699 0.041608345 0.03184091 0.052308876
0000a0 5d e7 92 3e 56 4c dd 3d 74 f5 24 be 74 2e 65 3c
       0.2869214 0.108055755 -0.16109258 0.013988126
0000b0 a3 94 1f 3e 7e ad 82 bc 56 8a 1f bc c2 c2 9b bc
       0.15584044 -0.015951868 -0.009737572 -0.019013766
0000c0 73 71 f1 bd 1b 6f 87 3d ad 89 7f 3d 60 fa 8a 3e
       -0.11789217 0.066129886 0.062387157 0.27144146
0000d0 5f 3b 53 bd a0 df 03 3e 1c f1 40 3c 2a 5f 29 3e
       -0.051570293 0.12878275 0.011776235 0.16540208
0000e0 95 58 82 3e ff 3c 78 be 4c 7f 3a be fe 27 06 3e
       0.25458208 -0.24242018 -0.18212622 0.13101193
0000f0 f2 93 20 3e 45 0a bd 3d 0d f7 6d bd ab 61 4a 3e
       0.15681437 0.092304744 -0.058096934 0.1976382
000100 21 7b 34 bc 9d 7c 4a 3e e0 e5 39 3d 94 fe 13 bd
       -0.011015684 0.19774099 0.04538524 -0.036131456
000110 45 ec b4 bd fa dd 55 3b 03 dc 40 bd 33 52 81 bd
       -0.08834127 0.003263353 -0.04708482 -0.063145064
000120 26 00 1e be c9 26 3b be 99 99 17 3e b9 4d ac bd
       -0.15429744 -0.18276514 0.14804687 -0.08413262
000130 be 88 5e 3e 64 00 ac 3d c7 4b 3d 3d 3d 47 68 bd
       0.2173185 0.08398512 0.046214845 -0.056708563
000140 4c ef dc bc b3 82 e2 bd 2f fc 42 bd 83 64 70 3e
       -0.026969574 -0.11060085 -0.047603782 0.23475842
000150 1d 6e d3 bd f7 4f 71 bd 21 c1 69 3c c7 5e 16 3e
       -0.10323737 -0.05891415 0.014267237 0.14684592
000160 92 80 e4 bd c0 94 0a bd d5 39 18 3c e9 98 c9 bd
       -0.11157335 -0.033833265 0.009291132 -0.098436184
000170 fa 09 48 3d ea 7b cf 3c 34 47 9e bd ca 99 1d bd
       0.04883764 0.025327642 -0.07728425 -0.038476743
000180 26 56 61 bd 04 5c e5 3c 42 05 0d 3e 6a 6b ba 3d
       -0.0550138 0.027997978 0.13771537 0.09102519
000190 17 f2 04 bc 73 08 a1 3d 27 e6 82 bc 12 4d 95 3e
       -0.008114359 0.0786294 -0.015978886 0.29160362
0001a0 ed 4d 0d 3c 34 ed d9 bd 0d 4a c2 bd db 3c 7e 3d
       0.008624536 -0.10640946 -0.0948678 0.062069755
0001b0 ed 32 a0 3d b1 40 c3 bb 56 7f 05 3d 51 d2 08 bd
       0.07822213 -0.0059586396 0.03259214 -0.0334037
0001c0 44 2b 92 bd 69 c2 09 3e 6c 7c 97 3b 8c b3 9b 3a
       -0.071371585 0.13453068 0.0046229865 0.0011879071
0001d0 a8 a4 92 bd 18 24 a3 bd 94 0d 37 3e 35 bc 22 3d
       -0.07160312 -0.07965869 0.17876273 0.03973027
0001e0 36 6a 1d 3c 4a 82 a9 3c 9d 31 8c 3e 0a e3 39 bd
       0.009607842 0.02069201 0.27381602 -0.045382537
0001f0 60 c4 2d be 47 29 07 bd b6 a0 6e bd 30 ab 19 3e
       -0.16969442 -0.03299835 -0.058258735 0.15006709
000200 96 a2 72 3b 2c 44 33 be 69 b4 90 3e 13 17 e4 bd
       0.0037023178 -0.17506474 0.28262642 -0.111372136
000210 a3 44 0f bd 56 9a 14 be 05 45 3a 3e 38 7e e4 bd
       -0.034977566 -0.14512 0.18190391 -0.11156887
000220 82 cb be bd 53 0e b3 bd c3 47 20 3e a6 47 be 3c
       -0.0931616 -0.087429665 0.15652375 0.023227524
000230 be 2a ec bc 08 bc 98 3c 0a 11 22 bd ab c2 7a 3c
       -0.028828975 0.018644348 -0.03956703 0.0153052015
000240 77 5c 68 3e c4 cb 12 3d e4 34 0a be ad 38 98 3d
       0.22691523 0.035838857 -0.13496739 0.07432685
000250 81 ec 35 3d e5 f5 ae 3c 51 37 d1 3d 28 4c 9c 3d
       0.044415 0.021357486 0.10215629 0.07631713
000260 c0 07 9f bd 07 38 ed bd 95 4c 1c 3e 12 d2 24 be
       -0.0776515 -0.11582952 0.15263589 -0.1609576
000270 24 c1 e2 bd d7 23 1c bd d4 49 55 be a6 b8 9f bd
       -0.11071995 -0.038120117 -0.20828944 -0.07798891
000280 37 3f 72 be 61 91 da 3d f0 85 44 3d 23 39 d1 bd
       -0.23656927 0.1067226 0.047979295 -0.10215976
000290 ef f4 9b bd 84 c9 88 3e 37 24 7d 3e 60 f7 97 3d
       -0.07615077 0.26716244 0.24720846 0.0742023
0002a0 e5 b1 5a 3e e3 48 41 3e 33 c6 14 3e e4 3a 00 bd
       0.21356924 0.1887546 0.14528732 -0.031306162
0002b0 cb ba 12 be 18 2a e2 bd e9 1f ce 3d b2 1a b5 3b
       -0.14329068 -0.11043185 0.1006468 0.005526864
0002c0 68 3e 05 3e 60 27 4f bd ea 92 1e 3e c8 80 d2 3b
       0.13012087 -0.05057466 0.15485731 0.0064240433
0002d0 b3 30 07 3e 26 2c 98 bd d9 db 24 be 56 d9 ae bd
       0.13202171 -0.07430296 -0.1609949 -0.08537547
0002e0 f0 dd d1 bd fb 94 a7 bd d8 15 db 3d da 67 96 3d
       -0.10247409 -0.08182713 0.10697526 0.07344027
0002f0 a9 45 10 be 51 db 3b be 94 69 04 be 91 17 88 be
       -0.14089073 -0.18345381 -0.129309 -0.2658048
000300 13 f5 61 be e1 0a 86 3c 2c fe e1 3d 9e 60 1b be
       -0.22066145 0.01636261 0.110348076 -0.15173575
000310 fc 3c 6c be 76 ae 24 ba ae b6 4c bd 94 7a 01 be
       -0.23070139 -0.00062821 -0.049978904 -0.12644416
000320 11 61 6e be 0f 12 31 be 84 ce 63 bd 21 5c b6 bc
       -0.23279215 -0.17292045 -0.05561687 -0.022260727
000330 8a 88 f0 3d 79 c8 78 be 7e 45 14 be 90 4c b9 3d
       0.11744793 -0.24295224 -0.14479634 0.09047806
000340 99 a5 d3 bb 75 a8 39 be 64 e5 02 3e 12 34 5c be
       -0.0064589498 -0.18130668 0.12782818 -0.21504238
000350 d9 9f 9c 3d 79 bd 1e bd 8f f4 7e 3e e4 a1 7a 3e
       0.07647676 -0.038754914 0.24897979 0.24475819
000360 db 7d f2 3c d6 e8 55 3d 4c 87 4e 3d e5 78 07 be
       0.029601028 0.052224003 0.050421998 -0.13229711
000370 74 8c f9 bd da ee 05 be bb e9 5e be c4 ae 1f be
       -0.121849924 -0.13079396 -0.21768849 -0.15594012
000380 12 47 3d be 41 6a 0e be 0b bb b8 3d 6b d7 8e 3e
       -0.18484142 -0.1390772 0.090200506 0.27898726
000390 69 0a 65 be 92 aa 2c bd 0a 93 a4 bc 03 82 37 3d
       -0.22367252 -0.042154856 -0.020089645 0.044801723
0003a0 ed c7 f1 bd c3 e1 13 3e 19 d2 82 be 8b a5 0f bd
       -0.11805711 0.1444159 -0.25550917 -0.035069983
0003b0 55 b6 a9 bd ea bc a8 3d d0 0a be 3d 0b 52 29 be
       -0.0828673 0.082391575 0.09279406 -0.16535203
0003c0 68 bb 81 3b ec ac 9b be 68 10 a2 3d db 23 3a be
       0.003959108 -0.30405366 0.079132855 -0.1817774
0003d0 0d d5 ff bd 78 9b 60 be c9 ac 4c be 4a 1a 9a 3d
       -0.12491808 -0.21934307 -0.19987787 0.075245455
0003e0 5e 66 60 be 85 8a 3a 3d 17 26 31 be be 00 6c 3d
       -0.2191405 0.04554226 -0.17299686 0.057617895
0003f0 bd 11 00 3e 04 eb 81 bd 41 90 e8 bd f1 ca 80 be
       0.12506767 -0.06343654 -0.11355639 -0.25154832

encoder.dcrnn_cells.0.gate.linear.bias f4 [128]
000000 6a 78 cc 3e 81 34 8a 3e 7c aa 24 3e fd 26 05 bc
       0.3993562 0.26993182 0.1608066 -0.008126971
000010 da 02 5e 3f 11 95 fe 3e 7f dd e6 3e 91 f3 ea 3e
       0.867231 0.49723104 0.45090863 0.4588895
000020 2e 28 50 3f 9e 7c 64 3e e6 61 36 3f cd 69 2b 3f
       0.8131131 0.22313163 0.7124313 0.66958314
000030 53 f9 3c 3e ad 96 f5 3e 5d 09 1a 3f 18 a6 6d 3f
       0.18454485 0.4796652 0.6017054 0.92831564
000040 56 04 4c 3f 8f 23 b7 3e 3c a3 41 3e 6f 58 25 3f
       0.79694116 0.35769317 0.18909925 0.64588064
000050 41 76 ac 3e aa f8 fe 3e 3e 8d 51 3f e7 ad ca 3e
       0.3368397 0.4979909 0.81856143 0.39585802
000060 5c cf 1d bd 36 b9 e8 3e 6a 4e 3f 3f ad 8c 3a 3f
       -0.03852783 0.45453805 0.74729025 0.72870904
000070 53 9c d2 3e 8f d4 c8 3e 1f 2a 56 3f e6 b1 bd bd
       0.4113489 0.3922467 0.8365802 -0.09262447
000080 06 ac 83 3e 8b 51 db 3e 88 61 78 3e e5 d6 37 3f
       0.2571718 0.4283565 0.24255955 0.7181228
000090 50 b0 02 3f 4a c5 ab 3d 98 e5 a9 3e b7 9d fa 3e
       0.5105028 0.08387239 0.3318298 0.48948452
0000a0 f6 1d 61 3d 44 e7 7e 3d 8c b4 59 3e 09 28 8a 3e
       0.054960214 0.06223227 0.2126028 0.2698367
0000b0 e5 68 59 3f 57 d2 15 3f 36 2f d5 3e 32 1b 71 3f
       0.8492568 0.5852408 0.41637582 0.9418212
0000c0 f2 f0 64 3f 41 ad 41 3f b6 05 ed 3e 3b ae f4 3e
       0.89430153 0.7565499 0.4629342 0.47789177
0000d0 f3 d5 bf 3e 04 1a 7c 3f 85 4a c4 3e f6 97 ff 3e
       0.37467918 0.98477197 0.38338104 0.49920624
0000e0 d2 a2 27 3f dd 11 23 3f 22 bc 99 3e e5 f2 55 3f
       0.6548282 0.6369913 0.30026346 0.8357375
0000f0 0e 32 3f 3f a6 8d 75 3e b3 51 36 3e 55 d1 76 3f
       0.7468575 0.23979816 0.17804603 0.96413165
000100 1c 96 d5 3e 08 40 64 3e d1 c1 1b 3f ca 3c 8b 3e
       0.41716087 0.22290051 0.60842615 0.27194816
000110 71 62 1e 3f 5c 5c 86 3f 17 0e 67 3f 89 ec 3a 3f
       0.6186896 1.0496936 0.90255874 0.73017174
000120 2d 1d e3 3e 2a b3 55 3f 6e f0 90 3f b0 ee ea 3d
       0.44358197 0.8347651 1.1323373 0.11471307
000130 ff 63 6b 3e 6e 4c ef 3e 52 f5 9c 3c 81 fe 09 3f
       0.22987364 0.46738 0.019159947 0.5390397
000140 86 6b 1e 3f 70 14 34 3f 20 d0 66 3f aa 53 27 3f
       0.6188282 0.70343685 0.90161324 0.65362036
000150 bc ed 45 bc 41 fd fc bc f9 9d 32 3f 75 60 68 3e
       -0.012080606 -0.03088248 0.697723 0.22693045
000160 df 6d f2 3d 6d 7e bd 3e aa c4 59 3f f1 72 02 3f
       0.118373625 0.37010518 0.8506571 0.50956637
000170 48 76 a3 bd 8f 90 5d 3f ea fa 33 3f 0f fb 2c 3f
       -0.07981545 0.86548704 0.7030474 0.67570585
000180 3f 94 63 3f 45 9b 18 3f e2 ac 0c 3e d6 e2 16 3f
       0.8889808 0.5961192 0.13737825 0.58939874
000190 65 50 e3 3e f0 f3 95 3e 51 6a 14 3f b7 ee 9b 3e
       0.44397274 0.29287672 0.57974726 0.30455562
0001a0 97 86 63 3f af 31 6d 3e 45 25 55 3f 0a 8e a3 3d
       0.8887724 0.23163484 0.83259994 0.07986076
0001b0 80 97 ee 3e 15 71 56 3e 41 33 09 3f f6 19 81 3f
       0.4659996 0.20941575 0.5359383 1.0086048
0001c0 bc 6b 13 3f 32 8b 3b 3e 0e d9 e2 3d 31 77 77 3e
       0.57586265 0.18314818 0.11076556 0.24166562
0001d0 06 d3 22 3f d5 31 0a 3f 78 c4 2f 3f b1 76 30 3e
       0.63603246 0.5398229 0.6865916 0.17232777
0001e0 29 ed 56 3f 29 fa 47 3f 69 2a 42 3d 45 c2 26 3f
       0.8395563 0.7811609 0.047403727 0.6514018
0001f0 28 b4 d1 3e f4 3e f6 3e 82 f1 c2 3c e3 a8 10 3f
       0.4095776 0.48094904 0.0237968 0.565077

encoder.dcrnn_cells.0.update.weights_pool f4 [2, 65, 64]
000000 a2 0d 46 3e 80 d1 46 be 9b 79 43 3e ed a6 2f 3e
       0.19341138 -0.19415855 0.19089358 0.17153521
000010 5e f4 4e bd 13 11 25 be b8 c3 63 be b6 1e 8d 3d
       -0.050526015 -0.16119795 -0.2224263 0.06890623
000020 e4 11 3f 3e 5a 53 2a be 7f 77 2d 3e 17 ce 70 bd
       0.18659168 -0.16633359 0.16940115 -0.058790293
000030 16 55 15 3e e6 69 9a 3c ae af 11 be 31 da 20 be
       0.14583239 0.018849324 -0.14227173 -0.15708233
000040 f2 1c f1 3d b2 c5 23 3e 2d 31 2f 3e 26 ec 82 3d
       0.11773099 0.15993384 0.17108603 0.06392698
000050 34 20 6c be a3 c1 3d 3e 82 86 a2 3d 1a e5 2e 3e
       -0.2305916 0.18530898 0.079358116 0.17079583
000060 55 70 3a be f4 49 27 be 91 a4 61 be 84 fa e3 3d
       -0.18206914 -0.16336805 -0.22035433 0.111317664
000070 ad f9 3a 3e 25 37 59 be c9 8e 4c 3e 82 97 68 be
       0.18259306 -0.21212442 0.19976343 -0.22714046
000080 ef db 23 3e c7 72 21 3e 32 29 81 bd 5c 01 21 3e
       0.16001867 0.1576644 -0.063066855 0.15723175
000090 78 80 23 3e ca ef 31 3e 56 9a 9b bd 33 ec 4a 3d
       0.15966976 0.17376629 -0.075977966 0.049541663
0000a0 e9 6e 4a 3e 3b 77 16 3e 7e 43 2e 3e a5 2b 54 3e
       0.19768871 0.1469392 0.17017934 0.20719774
0000b0 c4 c8 90 bd ac c2 33 be d8 14 36 3e 6e c7 a2 3d
       -0.07069543 -0.1755473 0.17781389 0.079481944
0000c0 84 ed fc bd a1 e6 3c be ef 68 3d be 1e 7a 48 be
       -0.1234999 -0.18447353 -0.1849706 -0.19577834
0000d0 c3 0f 5d bd 3c d4 18 3e f1 0b 6e 3e fe 2c 3a be
       -0.05397011 0.14924711 0.23246743 -0.18181226
0000e0 bc fe 30 3e a7 ef 2a 3e 38 cd 94 bd ba a5 c4 3d
       0.17284673 0.16692983 -0.07265705 0.09601922
0000f0 aa 9e af bd 71 3b 11 3e 02 b0 48 3e 18 53 85 3c
       -0.08575185 0.14182831 0.19598392 0.016274974
000100 93 53 8d bd 54 7f a3 bd 3e 92 97 bd ca 34 fa bc
       -0.06900706 -0.0798327 -0.0740094 -0.03054275
000110 32 41 7f bd db a2 83 bb 00 89 80 3d 2e c7 16 bc
       -0.062318034 -0.0040172166 0.06276131 -0.009202762
000120 68 a3 ab bc 2f 15 f2 3c 2e 70 f3 bd e3 16 5d 3c
       -0.020951942 0.029551117 -0.11886631 0.013494226
000130 c4 71 ab bc 07 26 7d 3c 8f 7d 04 be d1 06 39 bb
       -0.020928271 0.015450961 -0.12938522 -0.0028232823
000140 d3 29 93 bc b8 b7 32 bd 2b 4d d8 bc a5 90 d5 bc
       -0.01796428 -0.04363224 -0.026403984 -0.026069948
000150 8e 38 eb bc 0c 56 7c bd 4b c1 03 bc e6 5b c1 3b
       -0.02871349 -0.0616055 -0.00804169 0.0059008477
000160 30 e3 ac bd 82 30 c8 3b ba 30 90 bc 29 b4 cc bc
       -0.0844177 0.006109298 -0.01760136 -0.02498825
000170 20 53 f0 bc 95 e1 c1 3c 01 ef b7 bc 5a f3 6b 3d
       -0.029336512 0.023667136 -0.022452833 0.057605125
000180 a0 dd 3a bd 07 b1 e0 bc 53 bf 38 bc 02 59 ce bd
       -0.045621514 -0.027428163 -0.011276084 -0.10075571
000190 13 d5 6b bd 34 dc 86 bd 6d 60 c9 3b 30 83 18 3c
       -0.05757625 -0.06584969 0.006145528 0.009308621
0001a0 df ae 91 bd 52 48 83 bd 47 53 ba bd a9 3a 51 bd
       -0.07113432 -0.064102784 -0.09097915 -0.051081333
0001b0 77 63 39 bd c3 3a 21 3d 22 6b 15 bd 29 3f f9 3b
       -0.045260873 0.03936268 -0.036479123 0.007606406
0001c0 4a fd 31 bd 67 ea 88 3d b8 9d 02 bd a2 06 0b bd
       -0.043454446 0.06685334 -0.031888694 -0.033941872
0001d0 39 9a 85 3c 43 aa 45 bd fb d8 17 bd 90 d8 de bd
       0.01630889 -0.048258077 -0.037072163 -0.1088115
0001e0 3c de 64 3b de 90 b3 bd 3f 0d bb bc ee ca c5 3c
       0.00349225 -0.087678656 -0.022833465 0.024144616
0001f0 e6 dd d1 bd 44 7b 9a bd f1 e3 8d bc 62 dc 34 3c
       -0.10247402 -0.07543042 -0.017320605 0.0110388715
000200 97 58 b9 bd a5 95 1c be b1 1e ca bc 94 ba 87 3c
       -0.090501 -0.1529146 -0.024672838 0.01656846
000210 c8 b9 7f bd 77 1a ee bc b9 55 23 3d 18 5f 5f 3c
       -0.062433034 -0.029065354 0.039876673 0.013633512
000220 5c cc 3c 3c 2f 7a 0d bc 2e de c5 bd fc ff e7 3c
       0.011523332 -0.008635088 -0.09661518 0.028320305
000230 0a eb 9d 3d 9a 87 91 bd b2 3d a4 bd 45 ca ef 3c
       0.07710846 -0.07105942 -0.0801958 0.029271254
000240 d8 5e d5 bc 92 86 78 bb 0c 01 39 bd 1f bf bd bc
       -0.026046202 -0.0037922007 -0.045167014 -0.023162423
000250 37 cb b5 bc 49 0d 13 bd 72 64 1f 3c 99 69 c7 3c
       -0.022191627 -0.03590134 0.009728538 0.024342345
000260 18 42 bf bc a5 f1 2a 3c d4 0f 18 3d fe b7 32 bc
       -0.023346946 0.010433589 0.03712447 -0.010908125
000270 39 30 02 3d 52 1e 35 3d 69 5d cc bc ad aa 0b 3d
       0.03178427 0.04421837 -0.024946885 0.034098316
000280 a0 85 1f be 4f c7 97 3c 88 cd 80 3c 2d 66 19 bd
       -0.15578318 0.018527655 0.015723005 -0.037450958
000290 04 3d ef 3b b1 85 ea bc 1b af 93 3d a7 e3 c1 3c
       0.007300975 -0.028628202 0.07211133 0.023668123
0002a0 84 c0 57 bc 82 e4 d1 3b 98 30 63 bd 4f 75 a4 3c
       -0.013168458 0.006405414 -0.055466264 0.020075468
0002b0 29 99 23 3d c1 78 52 3b 0b f7 44 bb 9e 54 67 3d
       0.039940987 0.0032115432 -0.0030054476 0.05647718
0002c0 76 83 a9 3b a1 d5 69 3d 10 75 51 3b ad 6f 84 bb
       0.005173142 0.057088498 0.0031960644 -0.004041633
0002d0 bc 49 9c 3b 01 88 a0 bc 54 ee d2 bc 95 09 ba bc
       0.004769532 -0.019596102 -0.02574841 -0.022709647
0002e0 20 93 50 3c 5b 37 70 bc 05 91 61 bd 58 78 86 3d
       0.01273039 -0.014661635 -0.055069942 0.065659225
0002f0 27 07 e1 bd 07 62 52 bd de e5 bb bb eb 34 0f 3d
       -0.10987692 -0.051363017 -0.0057341894 0.034962576
000300 c0 ee 27 3c dc fd 99 bd 4e ee 38 bc 38 c9 bd 3d
       0.0102497935 -0.07519123 -0.011287285 0.09266895
000310 b9 dc e9 bd 77 92 69 3d d9 d0 79 bd ce b4 57 3c
       -0.11419053 0.057024445 -0.06099019 0.013165666
000320 bf c7 39 3d f1 b0 93 bd 02 1b d2 3d 69 76 2d 3d
       0.04535651 -0.07211483 0.102590576 0.042349253
000330 c7 fb 78 3a 00 78 be bc 90 f7 b7 3d 49 36 47 3d
       0.0009497967 -0.02325058 0.08982766 0.048635755
000340 f4 a9 6a bd b8 6a d9 3d d8 e9 c6 3d 59 73 59 bc
       -0.057290986 0.10616058 0.09712571 -0.01327213
000350 9f 6d 44 bd 40 48 39 bd 56 e5 a8 3d 99 ff ce bb
       -0.047956105 -0.04523492 0.08246867 -0.0063170907
000360 7b 99 c6 3b a1 f3 3f 3d 28 d7 be ba e1 96 82 bc
       0.0060607768 0.046863202 -0.0014559971 -0.015941085
000370 4e 16 8f 3d ba 53 73 3d 13 41 1f 3d 14 7c d4 bd
       0.06986676 0.05940602 0.03888042 -0.103752285
000380 99 e0 8a bd 8b 37 30 3e d0 fb 9d bd d4 e2 ed 3c
       -0.0678112 0.17208688 -0.07714045 0.029038824
000390 6b 85 ce 3d 2a 22 5e bc 07 ae ba 3d 79 b6 1f 3c
       0.10084041 -0.01355795 0.09115224 0.009748095
0003a0 25 a3 fd 3b 4e 34 ad 3c 68 a9 31 bc d9 74 a3 3d
       0.0077403956 0.021143105 -0.010843612 0.07981271
0003b0 69 61 bc bd 0a 82 1a 3d f2 c1 09 3e 4c 56 4b bc
       -0.09198267 0.03772167 0.1345289 -0.0124107115
0003c0 23 45 81 bb 19 32 84 3d 85 0b 4d 3d f6 37 0b be
       -0.0039450093 0.06454868 0.050059814 -0.13595566
0003d0 2e 24 85 bc e7 46 d5 3d 01 44 a9 3b 27 53 30 3d
       -0.016252603 0.10413914 0.0051655774 0.04304805
0003e0 64 f9 eb 3d 5d b5 04 3e 0e c1 0f bd f7 20 81 3c
       0.11522177 0.1295981 -0.03509622 0.01576279
0003f0 12 ce 38 be e3 84 16 3d 38 48 ff ba c6 9f 80 3d
       -0.1804736 0.036747824 -0.0019476479 0.06280474

encoder.dcrnn_cells.0.update.bias_pool f4 [2, 64]
000000 9c a5 da 3d 4c bd aa bd 71 99 3a 3e 40 22 8b 3e
       0.10676119 -0.08336887 0.18222596 0.27174568
000010 31 c2 3f 3e 89 77 29 3e 2f 1e ba bc ed 6b 63 3d
       0.18726422 0.16549505 -0.02271947 0.055522848
000020 90 b1 dd bd 2c 90 5f be 0a 63 1e be 52 0d 9e 3d
       -0.10824883 -0.21832341 -0.15467468 0.077173844
000030 91 6b 56 be d3 6f 6d bc f8 77 56 3d f8 2e 4c be
       -0.20939471 -0.014491993 0.052360505 -0.19939792
000040 65 b7 18 3e 25 91 c8 3d 0d 29 f9 3d a6 71 81 be
       0.1491371 0.09793309 0.12166033 -0.2528202
000050 d0 f6 e5 bd 8a 76 0f be 27 39 7f bd 6e 07 7c 3e
       -0.112287164 -0.14010063 -0.062310364 0.24612209
000060 82 2e e0 3c 99 09 98 3e ec 4b 92 be b5 15 4f 3e
       0.027365927 0.29694822 -0.2857355 0.20223124
000070 f7 b0 a0 be 53 3c 7c 3e ee 7d 9d be 1c 87 86 be
       -0.31385013 0.24632387 -0.3076014 -0.26274955
000080 b4 59 bf be 17 64 1e be 6f fd 93 be 40 91 da 3d
       -0.37373126 -0.15467869 -0.28904292 0.106722355
000090 90 af 82 3e d3 45 98 be ad d3 75 3e 67 21 38 be
       0.2552457 -0.29740772 0.24006529 -0.17981492
0000a0 98 64 3e 3e 1b fb 4a be b5 b6 cd bd 95 cd 1c be
       0.18593061 -0.19822352 -0.10044614 -0.15312798
0000b0 10 a8 4a 3e 01 60 5a be 75 51 41 bd e1 5d c2 3d
       0.19790673 -0.21325685 -0.047196824 0.09490562
0000c0 09 0c ff bb 83 76 83 be 45 41 bf 3d da f6 ac bc
       -0.007783417 -0.25676355 0.09338621 -0.021113802
0000d0 31 97 42 be 19 f5 bf bd ba 64 2d 3e e5 c2 68 be
       -0.19002987 -0.093729205 0.16932955 -0.22730596
0000e0 ce 4f 95 3e 48 22 fc bd fe ed 85 3d f4 16 e8 3d
       0.2916245 -0.12311226 0.06539534 0.11332503
0000f0 d5 6b 63 be 0e 53 81 be 14 e3 c7 3d c0 f3 a1 bd
       -0.22209103 -0.25258678 0.097601086 -0.0790782
000100 cf 7c ef 3d 46 23 02 3d ac 29 8e be f9 aa 15 3e
       0.11693727 0.03177192 -0.27766168 0.14616002
000110 f3 52 8c 3e e1 65 32 3d d0 ae 32 be 8a c5 7d 3e
       0.27407035 0.04355419 -0.17449498 0.24782386
000120 70 63 25 be 5d d7 62 3e 44 b1 49 3e 24 87 e6 3b
       -0.16151214 0.22152467 0.19696528 0.007035153
000130 50 2e c1 bd 8e 60 f6 bd 20 5f fc bd 7b f4 6b be
       -0.094326615 -0.12030135 -0.12322831 -0.2304248
000140 1e 09 4c be d2 a9 18 be 6b f6 21 bd ac a1 74 be
       -0.19925353 -0.14908531 -0.039541643 -0.23889798
000150 cd 33 59 be 32 f0 3b be 7f 96 4e 3d 95 4a fa bd
       -0.21211167 -0.18353346 0.050436493 -0.12221257
000160 cc c9 7b bd 17 c1 30 be bb cc 81 3d 7d f5 e5 bd
       -0.061471745 -0.17261158 0.06337877 -0.11228464
000170 57 99 f6 3d 85 53 d9 bd 15 a7 84 3e aa 8f 26 be
       0.12040966 -0.10611633 0.25908723 -0.16265741
000180 ad fe 7b bd 2f ec 3d 3e 5e 86 a9 3e cd f5 dc bd
       -0.061522175 0.18547128 0.33110327 -0.1078907
000190 63 22 e9 bc 55 92 12 bd 75 16 b7 3d 83 ee 86 3e
       -0.02845878 -0.035784084 0.0893983 0.26353845
0001a0 33 2c 41 3e f0 06 00 3e 34 ce 43 3e 68 db 7d 3d
       0.18864517 0.12502646 0.19121629 0.06197682
0001b0 7d a4 90 3d 03 44 35 bd d1 e0 96 bd 3c 4a a8 be
       0.07062624 -0.044254314 -0.07367099 -0.32869136
0001c0 50 10 ec bd d4 c8 3f be b9 00 1a 3e 9a 0a 90 3e
       -0.11526549 -0.18728954 0.15039338 0.28133088
0001d0 c5 a9 6b 3e 92 b1 a2 3e be e3 45 3e e4 ab ae 3e
       0.2301398 0.317761 0.19325158 0.34115517
0001e0 9c ef 56 3e 12 66 78 3e 27 9f 7f 3e 18 25 8b bd
       0.20989841 0.24257687 0.24963056 -0.067941844
0001f0 83 8e 8b bd 30 46 61 3e 53 4a 90 3e 58 eb 5a 3e
       -0.06814291 0.2199943 0.28181705 0.21378839

encoder.dcrnn_cells.0.update.linear.weight f4 [64, 65]
000000 d6 fe 01 3e 1a 0a e1 3c 1f 13 49 bc 7f 84 c7 bd
       0.12694868 0.027470637 -0.012272625 -0.097420685
000010 e3 37 d9 3c 47 10 0b be e1 15 23 3d bc 2b 14 be
       0.026515907 -0.13580428 0.039815787 -0.14469808
000020 d2 1f 86 be 1c 23 87 bd 3b bc 96 be a7 d4 2d bd
       -0.26196152 -0.065984935 -0.29440483 -0.04243913
000030 35 bb 0c be fb 81 2a 3e df 13 00 3e 95 67 c5 3c
       -0.13743289 0.16651146 0.1250758 0.024097243
000040 29 fe 93 3d 96 ac b5 3d 49 2b fb bc 48 7d e4 3d
       0.072262116 0.08870809 -0.030660288 0.11156708
000050 34 0b 3a 3d d7 5f 36 be 75 ec ff 3d 5f a5 4f be
       0.04542084 -0.17809997 0.124962725 -0.20277928
000060 a2 55 d7 3d b2 ca 93 be 42 f5 08 be 5b 6c 7d bb
       0.1051438 -0.28865582 -0.13374808 -0.0038669321
000070 5a 09 8a 3d ca f2 f0 3d 08 2e 54 3d 93 52 27 bd
       0.06740065 0.11765058 0.05180171 -0.040850233
000080 77 7f 0b 3e 22 d0 85 be 05 0a 0e be 08 e8 5d bd
       0.13622843 -0.26135355 -0.1387101 -0.05417636
000090 a6 ca fa 3d a9 84 2e 3d ad ba 44 3e 42 35 f9 3d
       0.12245683 0.042606983 0.19211836 0.12168361
0000a0 85 f4 76 3d 7b 81 ee bd 3f 02 5c 3e 2b b5 81 be
       0.060291786 -0.1164579 0.21485232 -0.25333533
0000b0 7e 9e 82 be c3 f5 bd bd 38 75 27 3e b5 30 2f 3e
       -0.25511545 -0.09275391 0.16353309 0.17108424
0000c0 93 42 fd 3d d5 62 8f 3d d0 7b ae bc 38 ec 9d be
       0.12366214 0.070012726 -0.021299273 -0.30844283
0000d0 dc b3 ed 3d e7 63 7a bd c0 a2 da 3c e2 e3 f7 bd
       0.11606571 -0.06113043 0.026688933 -0.12104012
0000e0 4b 9c 6d be c6 67 d9 bd c0 ab 42 3e 35 ff 49 be
       -0.23204152 -0.10615496 0.1901083 -0.1972626
0000f0 e9 94 ad bd 19 85 64 be 9c 49 f4 3d 2e a7 ed 3c
       -0.08475668 -0.22316398 0.119281024 0.029010382
000100 5e ca 21 be 45 5a 2d be 77 9c 4b be de b4 8c be
       -0.15799853 -0.16928966 -0.19883905 -0.2748174
000110 aa 58 24 3e 49 22 48 bd e4 6f 07 be 4a c7 84 bd
       0.16049448 -0.048860822 -0.13226277 -0.06483324
000120 ad 26 ed bc b2 e2 80 be 47 ac a7 3d b7 af df bd
       -0.028949106 -0.25172955 0.08187156 -0.10922187
000130 27 ce 05 3e 46 c7 45 be b8 68 f9 3d 97 a5 95 3c
       0.13066922 -0.19314298 0.12178177 0.018267436
000140 40 d0 69 be c1 08 d2 3b 53 93 db 3d e6 f2 be 3a
       -0.22833347 0.006409735 0.10721459 0.0014568239
000150 81 f7 cb 3c d1 46 9e 3e 45 ca e7 3d 42 7e 93 bd
       0.024898292 0.30913404 0.11317877 -0.07201816
000160 1c ca 43 be cc 76 29 be 1c d4 90 bd 2a 2c 16 3e
       -0.19120067 -0.16549224 -0.07071707 0.14665285
000170 a2 c3 9a bd 8a 3a 82 bd 97 7f 0b 3d 49 82 4b 3b
       -0.07556845 -0.06358822 0.034057226 0.0031052998
000180 23 b7 6e 3d 8d d3 46 3e c0 78 41 bd c6 a0 5b 3d
       0.05828012 0.19416638 -0.047234297 0.053620122
000190 a0 8f 7c bd 91 96 a9 bc 8d 6b 77 be c9 01 bb 3c
       -0.06166041 -0.020701678 -0.24162121 0.022828
0001a0 fb ff d2 bd 7d bb 33 be 15 c1 1d bd 70 8d e4 3d
       -0.10302731 -0.1755199 -0.038514215 0.111597896
0001b0 07 94 21 bc 0a 64 44 bd 8d ba 8d be bb 6d f3 3d
       -0.009861953 -0.047946967 -0.2768139 0.11886164
0001c0 19 a1 f8 3d 4f 63 cd 3d 7b a3 83 be 40 6b 37 be
       0.12140102 0.10028707 -0.25710663 -0.17912006
0001d0 f5 2f 25 3d cd dc 9c be e1 45 3c be 8f 2c 0d 3e
       0.04032894 -0.30637208 -0.18386032 0.13786529
0001e0 ad 23 b0 3d 6d 12 5d be c1 62 36 3d 43 79 9c 3c
       0.086005546 -0.2158906 0.044527773 0.01910079
0001f0 d5 3b 02 3d 0e 09 70 be 02 89 2f be 6f 9c 34 3e
       0.03179534 -0.23440954 -0.17142108 0.176378
000200 74 5b df 3d 55 54 a3 3d 18 a7 c0 3d 3a cf 82 be
       0.10906115 0.079750694 0.094068706 -0.25548726
000210 57 0c 34 be 81 4d 73 be 69 93 31 3d ef 2c 55 3d
       -0.17582832 -0.23760034 0.043353472 0.052044805
000220 15 ef 17 3d 52 c0 52 3c c3 44 77 be 74 a9 46 3e
       0.03709324 0.012863236 -0.24147324 0.19400579
000230 e6 ea 97 3d af 86 70 be 6f d3 d6 bd 68 a7 49 bd
       0.0741785 -0.23488878 -0.104895465 -0.049231917
000240 74 f9 19 bb d3 9e 8e be 1a 0f 66 be f3 80 c7 3d
       -0.0023494633 -0.27855548 -0.22466698 0.09741392
000250 68 16 75 3e c3 8a 1c 3e 6c c1 8f 3d e7 26 25 bd
       0.23934329 0.15287308 0.07019314 -0.040320303
000260 01 21 ac bd 7b 2a d9 3c f1 9e 80 3d 20 a1 9d be
       -0.084047325 0.026509514 0.06280316 -0.3078699
000270 44 68 de bc af de a9 bd 8e fc 0e be c3 9b d8 bd
       -0.027149327 -0.08294427 -0.1396353 -0.10576584
000280 3a 3d 4c be f4 96 37 3e 9e db 31 3e 38 7a 7d bc
       -0.19945231 0.17928678 0.17368934 -0.015471034
000290 17 8f 4e ba 06 53 ab 3d 11 6b 59 3e 39 e4 26 3e
       -0.00078795984 0.08365445 0.21232249 0.16297998
0002a0 5e b9 77 3d b8 14 0e bd 9c 41 f0 bd 3c 40 34 bc
       0.060479514 -0.034687728 -0.11731264 -0.011001643
0002b0 cd d0 71 3d 38 3d 7d be 07 2f ac 3d 9d bc 94 be
       0.05903702 -0.24730384 0.08407407 -0.2905015
0002c0 e4 95 76 3d 9a 46 1b 3e 62 81 d5 bd fb ba f5 bd
       0.06020154 0.15163651 -0.104250684 -0.11998554
0002d0 5d f3 7a be 2d 94 ae bd cf 92 ce bc b1 d9 e8 3c
       -0.24506898 -0.08524356 -0.025216488 0.028424116
0002e0 79 b2 ad 3d be 94 06 3e fb 32 25 be 33 e4 5e 3e
       0.084813066 0.13142678 -0.16132729 0.21766739
0002f0 c9 43 19 be 78 8d 2d be 72 40 6d bc 9e 34 46 be
       -0.14967264 -0.16948497 -0.014480697 -0.1935601
000300 cb 6e a3 bd ea 22 37 be 2c 5d 7e be 54 8f a9 3e
       -0.079801165 -0.17884412 -0.2484023 0.33117163
000310 7c 29 90 3d 53 e6 18 be f5 87 3d bd 2c 85 d5 bc
       0.070391625 -0.14931612 -0.046272237 -0.026064478
000320 0b de 35 3e c7 93 25 be 29 d7 83 3d b3 a2 5d 3e
       0.17760484 -0.16169654 0.06437523 0.21644096
000330 69 58 34 3e ad 7f 74 be bb 7b 2d 3c 72 0a 78 bd
       0.17611851 -0.2387683 0.010588582 -0.060556836
000340 14 b3 06 3e 9c 2d 57 bc f2 44 a4 3c 98 0f 7c bd
       0.1315425 -0.013133433 0.020052407 -0.06153831
000350 fe b9 b2 3d 24 66 9f 3d 2b 13 ca 3c 92 5c 83 3e
       0.087268814 0.07783154 0.024667343 0.25656563
000360 20 7d 4d bd 1d 0e 3d be ef d9 06 3d ec 98 32 bc
       -0.050168157 -0.18462415 0.03292268 -0.010900717
000370 a9 b4 a8 3d 1f 21 50 3d e1 a9 3a be 96 13 6a bd
       0.08237583 0.050812837 -0.18228866 -0.057147585
000380 85 a2 2e be 04 f6 62 be d2 c3 18 3e 22 5f 04 be
       -0.17054184 -0.2216416 0.1491845 -0.12926915
000390 94 58 46 3e ba 31 4b 3e e2 52 eb bd 4e 3c d5 3d
       0.19369727 0.19843188 -0.11490418 0.10411893
0003a0 58 51 56 3e d1 9a 89 3e 40 9f f6 3d 79 1b 5c 3e
       0.20929468 0.26875928 0.12042093 0.21494855
0003b0 96 4f 1d 3e b4 16 3e 3e c3 ec 49 3e e7 61 5b bd
       0.15362391 0.18563348 0.19719224 -0.053560164
0003c0 02 53 3c 3e c0 93 38 be be e9 82 bd 98 1c 62 bd
       0.1839104 -0.18025112 -0.06392239 -0.05520305
0003d0 0a 79 2f 3e 34 09 2b bd 2a 7d c0 bd a4 63 12 be
       0.17136016 -0.041756824 -0.09398873 -0.14295822
0003e0 65 aa c3 bd 96 bb 2e be eb 2f ea bd 10 42 e0 3d
       -0.095539846 -0.17063746 -0.11434921 0.109501004
0003f0 44 39 9d 3e 60 b1 45 be 90 a7 05 3e 24 90 10 bc
       0.30707753 -0.19305944 0.13052201 -0.008823428
