mo/TARGCN/model/model_para/PEMSD8/epoch_11.pth (torch, 598407 bytes, 48 tensors)

node_embeddings f4 [170, 2]
000000 89 61 32 3d 7a fc 80 be fd 08 05 3e d9 c3 46 be
       0.043550048 -0.25192624 0.1299171 -0.19410647
000010 f9 e1 10 3e 2e 17 b6 bd b2 51 b9 3c e6 b7 90 be
       0.14148702 -0.0889114 0.022621963 -0.28265303
000020 a3 5a e4 3d 94 14 80 be 4e fe 1d 3d c4 65 7f be
       0.111501 -0.250157 0.038572602 -0.24941164
000030 15 26 f1 3d 25 3c 3e be d5 56 13 3e 8a 6a 26 bd
       0.11774842 -0.18577631 0.14388593 -0.040628947
000040 f8 ed 47 3e 9e d1 06 3d 80 e0 cf 3d e1 08 b8 be
       0.19524372 0.03291475 0.10150242 -0.35944274
000050 10 64 67 3c fe 6f 90 be 0b 43 21 3e 77 27 7b bd
       0.014122978 -0.28210443 0.15748231 -0.061316933
000060 ae d9 5a 3e 98 19 c4 bd 64 6a 4d 3e b7 46 0c be
       0.213721 -0.09575194 0.20060116 -0.1369885
000070 d3 e4 33 3e 16 4d 3a be 4f 10 d4 3a ec e9 80 be
       0.17567758 -0.18193468 0.0016179177 -0.25178468
000080 d5 c0 82 3e 40 41 96 3d 89 c1 5e 3d 13 36 75 be
       0.25537744 0.07336664 0.05438379 -0.23946409
000090 02 66 58 3e c5 dd e6 bd 33 3d 85 bc ff ea 92 be
       0.21132663 -0.11272768 -0.016264534 -0.28694913
0000a0 43 94 4e 3e 41 ea ad bd c9 19 1d 3e 9e 7a 96 bd
       0.20173745 -0.08491946 0.15341868 -0.07347606
0000b0 fc 19 01 3e 53 0a 67 be 74 89 1f 3e ee 9a fc bd
       0.12607569 -0.22562532 0.15579778 -0.12334238
0000c0 6b 49 94 3e 32 77 19 3e f7 ec f0 3d 59 a7 05 be
       0.28962263 0.14986876 0.117639475 -0.1305212
0000d0 9a e3 d6 3d 54 f6 2f be 99 be ba 3d 38 bf 3e be
       0.1049263 -0.1718381 0.09118385 -0.18627632
0000e0 bc 08 5d 3d a4 ab 7a be 43 67 a6 3d b2 27 ff bd
       0.053963408 -0.24479538 0.08125164 -0.12458743
0000f0 43 49 c3 3d ce 32 f0 bd 8e 5c fa 3d ce 23 a7 bd
       0.09535458 -0.1172844 0.12224685 -0.08161126
000100 c4 00 67 3e f1 f2 6a bc 11 02 3b 3e 19 52 7e be
       0.22558886 -0.014340148 0.18262507 -0.24836005
000110 2b 92 4e 3e 96 f0 c5 3c 6b 80 e2 bd 4f 1d c2 be
       0.20172946 0.024162572 -0.1105965 -0.37912986
000120 98 87 0e 3e 38 ce ed bd ce 2b fb 3d 03 c0 3c bd
       0.13918912 -0.11611599 0.122642145 -0.046081554
000130 68 84 2a 3e 26 91 a7 bd 0f 2b 4a 3e bf db f0 bd
       0.16652071 -0.08181982 0.19742988 -0.11760663
000140 b5 41 5f 3d 3a 18 26 be 3d 44 1b 3e 1c ef 26 be
       0.054506022 -0.16220179 0.1516275 -0.1630215
000150 cf 71 5a 3e 5a 74 9f bc 62 5b da 3d fb e8 4f be
       0.21332477 -0.01946466 0.10661961 -0.20303719
000160 d5 c8 42 3e b5 b6 3d bd 90 47 99 3d da 3e 71 be
       0.19021924 -0.04631682 0.074843526 -0.23559132
000170 7c 46 81 bd f5 a7 b5 be 28 35 01 3e fc a4 0a be
       -0.06312272 -0.35479704 0.12617934 -0.13539499
000180 49 24 9d 3c e7 e4 ad be 21 5c 0e 3e 8d 7b 94 bc
       0.019182341 -0.339637 0.13902332 -0.01812532
000190 a5 15 5b 3e d3 1d df bc 7d 04 5b 3e 29 7c de bc
       0.21394975 -0.027235901 0.21388431 -0.027158814
0001a0 f1 49 48 bd a8 6c dc be fa af d6 3c 67 d7 84 be
       -0.04889864 -0.43051648 0.026206959 -0.2594559
0001b0 55 64 2f 3e 5a 69 6e bd b0 f1 45 3e f1 ba f8 bd
       0.17128117 -0.05820594 0.19330478 -0.12145031
0001c0 58 f7 50 3e bc 48 3f bd b6 2b 6b 3e 8e d2 38 bc
       0.20406854 -0.046700224 0.22965893 -0.011280669
0001d0 7b 8f ef 3d 8d 2e 5e bd e3 42 bc 3d da 48 c4 bd
       0.116972886 -0.054243613 0.09192445 -0.09584208
0001e0 cc 6b 50 3c ca 4f 4e be ee 0b 9d 3c 67 ec ad be
       0.012721013 -0.20147625 0.019170728 -0.33969423
0001f0 32 f1 49 3d d1 b1 3e be cd a3 2e be bb fc e9 be
       0.049302287 -0.18622519 -0.17054673 -0.4570063
000200 48 b6 4c 3d da 78 8c be 8c c7 b6 3d 0d 6c e2 bd
       0.049978524 -0.27435952 0.08924779 -0.11055765
000210 3e 6d 96 3d 7b 70 01 be 0f eb a7 3d 2e 44 c4 bd
       0.07345055 -0.12640564 0.08199131 -0.09583317
000220 59 62 11 3e 9d 24 6f ba a8 e6 23 3e 43 83 bb bd
       0.14197673 -0.0009122582 0.16005957 -0.091558956
000230 27 4e 86 3d 28 12 76 be 2b 6a 89 bd 73 2e 92 be
       0.06557875 -0.24030364 -0.06709703 -0.28551063
000240 88 5b aa 3d bb 25 d1 bd c3 f2 45 3e 62 e7 f8 bd
       0.083182395 -0.10212275 0.19330887 -0.12153508
000250 51 09 5b 3e 0f b3 de bc d7 17 5b 3e ff fc de bc
       0.21390273 -0.027184991 0.21395813 -0.027220247
000260 a3 1d 9e 3d 77 16 0b be 3a d4 f6 bc 8f 15 75 be
       0.077204965 -0.13582788 -0.030130494 -0.23934005
000270 2c 9f d2 3c 15 ef 52 be 12 27 a2 3d 9f 75 34 bc
       0.025710665 -0.20599015 0.07917608 -0.011014371
000280 aa 42 9d 3c 22 e1 ad be de ef 45 3e 6b d3 f8 bd
       0.019196827 -0.33960825 0.19329783 -0.121497
000290 3a 4d 3a 3b 0c 9b 7a be 1b e9 45 3e 91 d5 f8 bd
       0.0028427378 -0.24473208 0.19327204 -0.121501096
0002a0 65 dc 45 3e ee b7 f8 bd 03 4f 58 3e d4 ac 22 3c
       0.19322355 -0.12144457 0.2112389 0.009928901
0002b0 30 24 8e bc f5 87 6f be 99 c1 46 3b 1d ce 12 be
       -0.01735124 -0.23391707 0.0030327796 -0.14336438
0002c0 fb 2a 44 3d 17 58 0d be 70 71 6d 3e dc 9e ea 3b
       0.047892552 -0.13803135 0.23187804 0.007160051
0002d0 09 0e 5b 3e ed 9d de bc 58 06 5b 3e 0f 7e de bc
       0.21392073 -0.027174914 0.21389139 -0.027159719
0002e0 f8 54 cc 3d c1 55 52 be 61 a5 ff 3d 80 9e 27 be
       0.09977144 -0.20540525 0.124827154 -0.16369057
0002f0 0d 72 56 3e 3f 37 bc ba f9 d2 31 3e cf d3 f7 bc
       0.20941944 -0.0014359726 0.17365636 -0.030252365
000300 31 9b 5b 3c 62 78 33 be 3f 9b 64 3e 60 ed c2 bc
       0.0134037 -0.17526391 0.22324847 -0.02379483
000310 15 d6 8a 3d 01 34 11 be e4 8a 5f bc 2c 51 5b be
       0.06779114 -0.14179994 -0.013643954 -0.21417683
000320 87 43 bb 3d a4 b5 96 bd dc be 6c 3e 3a ad 1a bd
       0.09143739 -0.07358864 0.23119682 -0.037762858
000330 0d 69 92 3e 56 6e 1f 3e 0a db 94 3e 75 d6 18 3e
       0.28595772 0.15569434 0.29073364 0.14925559
000340 3e 3d 3b 3e 9c a9 49 bd 33 32 f1 3d 44 af 2f bc
       0.18285081 -0.049234018 0.11777153 -0.010722939
000350 c4 44 16 3d 58 19 38 be 84 9e b3 3d 7b 1a ad bd
       0.036686674 -0.17978418 0.08770469 -0.084523164
000360 c0 71 0d 3e 8b 14 45 be 96 12 4a 3d 0a ba 3e be
       0.13812923 -0.19246118 0.04933413 -0.18625656
000370 b3 86 aa bc 65 e7 6b be d6 a9 e0 3d ba 2a 1e be
       -0.020816183 -0.23037489 0.10969894 -0.15445986
000380 12 dc 3e 3e 59 b1 dc 3c 14 e2 44 3e 1d 57 69 3d
       0.18638638 0.026940035 0.19226867 0.056967843
000390 95 08 cb 3d 2a e6 80 3c a8 02 5b 3e bb 80 de bc
       0.09913746 0.01573475 0.21387732 -0.027160993
0003a0 94 d1 3b 3e 62 1f 39 bb ec 87 b1 3c 81 56 4f be
       0.18341666 -0.0028247465 0.021671258 -0.20247842
0003b0 cb 97 38 3d 15 05 05 be 41 02 37 3e 8a 40 a3 bd
       0.045066636 -0.1299022 0.17871954 -0.07971294
0003c0 6d 89 37 3e 63 fd 51 bd e9 80 9c 3c c2 f2 ad be
       0.17923518 -0.05126704 0.019104438 -0.33974272
0003d0 a7 cd 9c 3c 61 e6 ad be 4c 17 9d 3c f1 e7 ad be
       0.019141031 -0.33964828 0.019176148 -0.3396602
0003e0 1d 55 41 3e 1e 75 09 be 78 8c 29 3d ee 23 9c be
       0.18880124 -0.13423583 0.041393727 -0.30496162
0003f0 ea 13 14 3d ef 5b 97 be f4 78 16 3d 24 b1 8d be
       0.036151804 -0.29562327 0.036736444 -0.2767421

encoder.dcrnn_cells.0.gate.weights_pool f4 [2, 65, 128]
000000 40 fe 8e be f0 f5 25 be fa 5d 7f 3e 4d 84 c4 3d
       -0.27928352 -0.16207099 0.24938193 0.09595547
000010 e5 7c 8f 3d 5a 59 17 bc 4b 16 31 3e 78 2a 11 bf
       0.070062436 -0.009237612 0.1729366 -0.5670543
000020 91 9e 97 3d 4a be 5f 3d fd ca a0 bd d7 2e a7 be
       0.07403291 0.054624833 -0.07851217 -0.32652923
000030 98 5a 29 3e 81 8b a6 bd bb 69 96 3e e5 43 d9 bc
       0.16538465 -0.08132077 0.2937754 -0.026521632
000040 39 4b cb 3b 98 07 6c 3d 83 37 a2 3d cf 9d 17 3d
       0.0062040356 0.05762443 0.07920744 0.037015732
000050 ab 5a e6 3d 3c a8 4a be f2 aa c0 bd 9d 04 23 be
       0.11247762 -0.19790739 -0.09407605 -0.15919729
000060 e5 ad 8c 3d 5b bd ea bc aa 14 9f 3d bb b6 ac 3d
       0.06869105 -0.028654745 0.07767613 0.084332906
000070 b1 48 d6 be 58 c7 25 bd 5d 51 02 be 35 56 87 be
       -0.41852334 -0.040473312 -0.1272635 -0.26432958
000080 26 13 9c be dc 50 a1 bd 89 b1 8c bc 24 5c 1f 3e
       -0.3048336 -0.07876751 -0.0171745 0.15562493
000090 e4 96 a9 3d 62 80 8b bd ab 0f 5e 3c 3c 50 46 3e
       0.08280733 -0.068115965 0.01355354 0.19366544
0000a0 b1 69 43 be 2a 82 52 3b 48 1b a7 3e 56 87 f0 bd
       -0.19083287 0.003212104 0.32638 -0.11744563
0000b0 6b ea cf 3d ee fa a5 3d d6 d0 50 3d 41 d3 ad bd
       0.101521336 0.08104502 0.05098041 -0.08487559
0000c0 c4 6d 98 bd 52 cc 06 bc c8 33 21 3e f5 bf ba 3d
       -0.07442811 -0.008227425 0.15742409 0.09118644
0000d0 a5 bb b3 bd 15 3b 66 be 26 56 49 bd 17 e1 d1 bb
       -0.08776025 -0.22483476 -0.049154423 -0.0064050066
0000e0 04 a3 5e bc 94 54 36 bd 9d d4 a0 bd c0 7e 14 be
       -0.013588671 -0.044514254 -0.07853053 -0.14501476
0000f0 5a 74 5e 3e 48 3e 69 bc c5 02 33 be 42 3c f0 bd
       0.21724072 -0.01423604 -0.17481525 -0.11730243
000100 9f c3 14 be 2a c2 83 3d 1b 01 2f be 1c 4b a8 be
       -0.14527749 0.06433518 -0.17090265 -0.32869804
000110 93 d6 89 3e 7e 9e 56 be 11 d6 a9 be ef ea ac 3e
       0.2692152 -0.20958897 -0.33171132 0.3377299
000120 3c c3 0d be 78 f3 a6 be de cd 5c bd 02 1e 12 be
       -0.13844007 -0.32607627 -0.053907268 -0.1426926
000130 b5 18 cb bd 41 40 cf 3d 74 a1 47 bd 29 f6 90 be
       -0.09916822 0.10119677 -0.048737958 -0.28312805
000140 74 38 0c be a5 4d 13 be 0c f6 63 be 04 a2 aa be
       -0.1369341 -0.14385088 -0.22261828 -0.33326733
000150 dd f1 8b 3d f5 60 f9 3d 41 d0 21 3e 77 93 9c 3b
       0.06833241 0.12176696 0.15802099 0.0047783214
000160 6f 96 27 bd 6a 8f 83 be 65 52 fd bd 7b 40 3c be
       -0.04091495 -0.25695354 -0.12369231 -0.18383972
000170 b0 42 dd 3e 33 29 c3 be 10 d9 4a 3e b7 1b 11 be
       0.4321494 -0.3811737 0.19809365 -0.14170729
000180 5e f1 c4 bd a8 ec 86 bc a5 62 08 3e 01 a8 a3 be
       -0.0961635 -0.016470268 0.1331888 -0.31964114
000190 d6 f4 cb 3c 12 e6 88 be 39 c3 5f be a0 1c c6 3c
       0.02489702 -0.2673803 -0.21851815 0.024183571
0001a0 a5 30 12 be 46 8f c7 be 0c cd 52 be 89 6c 56 3e
       -0.14276369 -0.38976496 -0.20586032 0.2093984
0001b0 81 76 d9 3d 87 5a 99 be f6 8f 8b be 17 87 55 3e
       0.10618306 -0.2995188 -0.2725827 0.20852314
0001c0 a5 9f 37 3e 2c 30 cb bd 5e a8 13 be f6 ee 30 3e
       0.17931993 -0.099212974 -0.14419696 0.17278656
0001d0 60 a9 2d 3e 39 60 fb bc 57 19 46 be 2f f3 11 3d
       0.16959143 -0.030685531 -0.19345604 0.03563231
0001e0 2e 52 28 bb 8a a9 4a bd 11 3e 61 3e a9 ce 07 3e
       -0.0025683749 -0.04947809 0.21996333 0.13262428
0001f0 81 e8 4e 3e 8b c1 e2 bd f8 b1 95 3e 78 dc 74 3e
       0.2020588 -0.11072072 0.29237342 0.23912227
000200 2a 3c 38 3e 62 37 ac be 52 ed f6 3c 19 c0 c1 be
       0.17991701 -0.33636004 0.03014246 -0.3784187
000210 2d 50 72 bd 67 27 bd 3c b5 d9 68 bd da ff 91 3d
       -0.059158493 0.023090078 -0.056848247 0.07128878
000220 1a 01 ec bd 03 00 26 bd 92 1b 5d bd b1 28 a0 be
       -0.115236476 -0.040527355 -0.05398137 -0.31281045
000230 40 f5 9a be c4 b1 17 3e 2c 6e a3 be 3f 1f 46 3d
       -0.30265236 0.14813906 -0.31919992 0.048369642
000240 a3 05 5f bc 1c ff 94 be d5 e8 e5 bd 52 03 50 bd
       -0.013612184 -0.29100883 -0.1122605 -0.050784416
000250 8e b3 8b be 3b 44 70 3d 74 bd 55 bd 92 e7 4b be
       -0.27285427 0.05865882 -0.05218263 -0.19912556
000260 47 ea 63 be 78 63 e5 bc 32 9b 69 bd 73 b8 95 bc
       -0.22257338 -0.028001532 -0.05703277 -0.018276429
000270 c5 e3 41 be 89 f7 f0 bd 49 52 44 be 91 0b 3a 3d
       -0.18934543 -0.117659636 -0.19172014 0.045421187
000280 ab 63 39 3d cd 41 92 be c6 fb 87 3e 71 52 59 be
       0.045261066 -0.28565827 0.26559275 -0.21222855
000290 a6 cb 38 be 9d 3a cc bd b4 82 e1 bb 13 b3 48 3d
       -0.18046436 -0.09972117 -0.006882036 0.048998903
0002a0 74 3b a8 be 0c ac c5 bd 71 37 0d 3c 0d 1e d6 be
       -0.3285786 -0.09651956 0.008619175 -0.41819802
0002b0 da 98 25 bd b1 50 e5 3c 02 5c cb be c1 c5 7d 3d
       -0.040428974 0.027992578 -0.39718634 0.06195617
0002c0 43 52 16 3c a9 2c 84 3d 52 cb 48 3d 15 16 3f bd
       0.009174886 0.06453831 0.049022026 -0.04665192
0002d0 9d aa cf 3d ab 0c 96 3d 93 8b f4 bd b8 59 90 be
       0.10139964 0.07326635 -0.11940684 -0.2819345
0002e0 33 52 1e be 1f a4 0f be f0 b5 ab bd 02 3f a6 3d
       -0.15461044 -0.14027451 -0.08384311 0.081174865
0002f0 28 fc 8e be 21 2c 93 3c 17 b7 5a be 7c db b9 3d
       -0.27926755 0.017965378 -0.21358906 0.090750664
000300 08 cd 93 3c 82 da 91 3d 21 44 b1 bc 15 8d ac bd
       0.018042102 0.07121755 -0.021638932 -0.08425347
000310 79 9b 12 be e5 9d c6 3d 22 ad 4b bc 70 a3 0f bd
       -0.1431712 0.09698085 -0.012431415 -0.035067976
000320 7b d1 07 3e 60 bc ef bc e4 ee 01 3e 91 65 42 bc
       0.13263504 -0.029264629 0.12688786 -0.011865036
000330 eb 59 d4 bd 0e aa 27 bd 72 b3 97 3d be b1 8e 3d
       -0.10368713 -0.04093366 0.07407273 0.069674954
000340 2b c8 eb 3d 46 47 cb bd a7 cc f8 3d e7 76 97 3d
       0.115127884 -0.09925704 0.12148409 0.07395726
000350 c5 d8 81 3d 98 25 9d bc d1 f4 65 bd ca ca 7d be
       0.06340174 -0.019182965 -0.05614168 -0.24784389
000360 f6 e4 52 3d 8d 5e 3d 3d 7f 1c 11 3e b9 ef d2 3d
       0.051487885 0.04623275 0.14171027 0.1029963
000370 ad eb 02 bc 03 83 e1 3d b6 14 81 bd c2 45 89 bd
       -0.00799076 0.110113166 -0.063027784 -0.06702758
000380 1e ea af bc 9a 11 86 3d 2a 18 6f bd af b8 9f bd
       -0.02147394 0.06546326 -0.058372654 -0.077988975
000390 31 2d 90 3c 58 f4 cf 3d 9a 2e aa 3d 8c 13 3b bc
       0.017599674 0.10154027 0.0830967 -0.011418235
0003a0 1a 2f 1e be d6 49 07 bd 02 42 3a be 9c 3d 77 3d
       -0.15447655 -0.0330294 -0.18189242 0.06036149
0003b0 35 b9 29 bd 37 03 c6 3c 28 22 44 bd 7b 9a d3 3c
       -0.041436393 0.024171455 -0.047884136 0.025830498
0003c0 40 96 6e 3c 5c b6 0d bd c5 80 09 bd 35 b3 56 bd
       0.01456219 -0.03459774 -0.03357007 -0.052417
0003d0 54 10 33 bc 48 d0 ff bd 53 4a b3 bd a2 b9 8a 3c
       -0.010929186 -0.12490898 -0.087544106 0.01693422
0003e0 e8 16 8b 3d 15 f7 58 3d a3 33 46 bc 64 8d 6f bb
       0.067914784 0.05297001 -0.012097272 -0.0036552781
0003f0 ad 9a a5 3d d9 51 8d 3c e0 bb 96 3c d9 51 66 bc
       0.08086143 0.017250942 0.018400133 -0.0140576

encoder.dcrnn_cells.0.gate.bias_pool f4 [2, 128]
000000 d8 ae bf 3e 76 3f 2e bf 48 be 21 3e 31 0f 56 be
       0.37438083 -0.68065584 0.15795243 -0.20904233
000010 29 47 be 3e 5f 5c 9e 3d 13 37 3c bd 8a 58 53 bd
       0.37163666 0.07732462 -0.04595096 -0.05159811
000020 4c c9 64 3c dc f8 dc bd 08 a5 ef 3d fc f2 28 be
       0.013964009 -0.10789654 0.11701399 -0.16498941
000030 91 75 c6 be 58 74 a2 3d 31 f7 af bd 54 50 20 bc
       -0.3876157 0.07932347 -0.0859207 -0.009784777
000040 c8 07 99 bd 23 b5 4f be f3 48 2c 3d 6c a7 27 be
       -0.07472187 -0.20283942 0.042061757 -0.1637246
000050 c0 03 37 bd c0 5f 56 bd a3 2e ca 3d 55 17 a4 be
       -0.04468131 -0.052337408 0.098721765 -0.3204905
000060 8b 68 8d bc 4c 8c 89 bd 95 7b e3 bd 51 6b 0f 3e
       -0.017261764 -0.06716213 -0.11107556 0.14005782
000070 30 fa 69 3d 3e 1a 92 bd a3 cc c7 bd e5 aa fe 3e
       0.057123363 -0.071339116 -0.09755828 0.49739757
000080 ec 5b b1 3d 92 2b 46 be 14 29 67 3e 02 5a 8b be
       0.08660111 -0.19352558 0.22574264 -0.27217108
000090 1e 1e cc be 2d 21 a9 be 9e 54 37 bd 78 64 f3 bd
       -0.39866728 -0.33033124 -0.04475843 -0.11884397
0000a0 50 ed 9c bd 89 fe 20 3e 91 02 5d bd 43 17 8c bd
       -0.07662451 0.15722097 -0.053957526 -0.06840374
0000b0 95 be ca 3d 23 ea d0 3d 7b 24 eb be 20 8f fc 3d
       0.09899632 0.10200908 -0.4592627 0.123319864
0000c0 39 12 17 3e 26 38 81 3e 85 90 3c 3e 04 b7 9a 3d
       0.14753045 0.2523815 0.18414505 0.07554439
0000d0 68 d7 57 3e 21 ec ec 3d 8f 97 94 be 14 ba 9c be
       0.21078265 0.115684755 -0.2902188 -0.30610716
0000e0 11 ce 70 be e5 0a 47 3e ac 16 39 bd a1 da 46 3e
       -0.23516108 0.1943775 -0.045187637 0.19419338
0000f0 89 a0 9d bd a8 31 7c 3d 26 1f f1 bd fd 8b b7 3b
       -0.07696635 0.061570793 -0.11773519 0.0056014047
000100 29 8e f0 3d ae 8d 06 3d a4 fb b5 3d 32 61 84 be
       0.11745865 0.03284996 0.08885887 -0.25855404
000110 d0 67 97 be bc dc 3a 3e a6 02 30 be 8a 5c c2 be
       -0.2957139 0.18248266 -0.1718851 -0.37961227
000120 18 91 4c 3e 85 76 39 be 4b f5 0f 3e b5 22 47 bd
       0.19977224 -0.18111618 0.14058416 -0.048617084
000130 cb ed 96 3b 64 0e 74 3d e0 b2 0f 3e 87 d7 f0 3c
       0.004605984 0.059584036 0.14033079 0.029399646
000140 93 6c bc bc 62 2d f9 bd 76 e9 3d bd 12 00 dd bd
       -0.023000991 -0.12166859 -0.046365224 -0.10791029
000150 cb f9 57 bd 57 57 43 be 33 96 49 bd 6a e9 25 bd
       -0.052728456 -0.19076286 -0.049215507 -0.040505804
000160 7c e1 a8 3d ea 81 e8 3c ce 40 67 3e 0a 6c 8f 3d
       0.08246133 0.02838226 0.22583315 0.07003029
000170 a8 22 ee bd a0 ab 61 bd c7 95 60 3e fa 06 b8 3c
       -0.11627704 -0.055095315 0.21932136 0.022464264
000180 48 42 82 3d 83 81 00 bd 56 ba d0 bd a2 bf 70 be
       0.063602984 -0.031373512 -0.10191791 -0.23510602
000190 3d 60 a5 bd 0c ff be bc 95 79 e2 3d 8b d2 22 be
       -0.080749966 -0.023314975 0.11058346 -0.15900628
0001a0 41 78 79 bd ee fb 91 be 5a 34 0f be cb 35 e4 bd
       -0.0609057 -0.2851252 -0.13984814 -0.11143073
0001b0 40 11 8b be 3c 3b 3d be d9 e9 7c be ac 0e 32 3e
       -0.27161598 -0.18479627 -0.24698581 0.1738841
0001c0 da f1 96 bd 44 90 be be 80 32 74 be ca 3d 81 3d
       -0.07370348 -0.3721944 -0.23847389 0.063106135
0001d0 c5 c5 8c be 87 50 e9 bd 26 1f 00 3e 21 8a 32 3d
       -0.27494636 -0.113923125 0.12511882 0.04358876
0001e0 2d 9b 58 3e e8 81 d5 bd 50 b5 cb 3c 2d 9e 16 be
       0.21152945 -0.10425168 0.02486673 -0.14708777
0001f0 70 49 1f bd 6d c4 42 3e 35 cb 4b be 00 12 11 3e
       -0.038888395 0.19020243 -0.19901736 0.14167023
000200 b2 8c 98 be 46 24 fb 3e a7 e1 05 bd 97 54 c1 3e
       -0.29794842 0.49051112 -0.032685902 0.3775985
000210 b4 35 92 be e2 25 ba 3d 6c d1 77 bc dd 95 01 3f
       -0.28556597 0.09089257 -0.015125614 0.506193
000220 1c b7 26 3e 92 a0 44 be 56 9b 7d be c0 0f 9a 3e
       0.16280788 -0.19201878 -0.24766287 0.3009014
000230 d3 b9 b6 3e ed 0b 40 ba 98 54 cc 3e 68 81 fd bd
       0.35688648 -0.0007325996 0.3990829 -0.12378198
000240 ab ab be bd f0 b3 be 3d b2 81 3e be 2e 28 10 be
       -0.09310087 0.09311664 -0.18604162 -0.14077827
000250 82 74 15 bd e4 a6 3b bd 24 41 12 3b 80 86 90 3e
       -0.036488064 -0.045813456 0.002231666 0.28227615
000260 d3 13 b3 3e 33 c0 84 3d eb 84 40 be b1 b6 aa 3d
       0.34976062 0.064819716 -0.18800704 0.08335627
000270 4f 96 f6 3d c0 60 bb bd aa c0 b1 3d 8c 66 5f 3e
       0.12040388 -0.09149313 0.08679326 0.21816462
000280 d9 3b 77 be 5f e7 78 3e a1 17 03 be b2 55 a5 3e
       -0.24143924 0.24307011 -0.12801982 0.32291943
000290 ec 28 9d 3e f2 b8 dd 3d 39 e8 86 be 36 db 6c bd
       0.30695283 0.10826291 -0.26349047 -0.057826243
0002a0 54 11 47 3e 2e b2 ef bd a4 65 3c 3e 85 f7 2e 3d
       0.19440204 -0.11703907 0.18398148 0.04271652
0002b0 2a 73 f5 bd fe 73 a7 3d d0 4c de bb e2 6d 85 be
       -0.119848564 0.08176421 -0.006784059 -0.26060396
0002c0 c4 8d 33 be ba c4 da bd bc f1 28 be fc 7a eb 3d
       -0.17534548 -0.10682054 -0.16498464 0.11498067
0002d0 75 cf a9 bc 70 54 56 be 9b 27 7c 3e 2f 0a 12 3e
       -0.020728806 -0.20930648 0.24624483 0.14261697
0002e0 bc c2 9b bc 7d 3d 8e bd 1e 0b 78 bd 3e 56 90 be
       -0.019013755 -0.06945322 -0.060557477 -0.28190798
0002f0 f1 1b 09 3e 9e e7 06 3d 1c 32 38 3e 91 37 11 3e
       0.13389565 0.03293573 0.17987865 0.14181353
000300 d5 5d 8d 3c e2 7f 2a be d5 66 ff bd d1 e4 52 be
       0.017256657 -0.16650346 -0.124707855 -0.20595099
000310 cf fd 04 3e e7 a6 5f 3d 36 60 07 3e f5 e0 f6 3d
       0.12987445 0.05460253 0.13220295 0.12054626
000320 4f 21 2b 3c fa c1 23 3e cb 50 82 be 7b 14 a0 3d
       0.010444953 0.15991965 -0.25452265 0.07816406
000330 2c 9c 3b be 92 41 6a 3e 63 3e 48 3d 24 d3 09 be
       -0.18321294 0.22876576 0.04888762 -0.1345945
000340 48 28 61 be 6a 6e 81 3e ce 45 8d 3e 90 f0 0e be
       -0.21988022 0.25279552 0.2759232 -0.13958955
000350 83 c1 18 3e 1c eb bd 3e 90 ed c0 bd e9 cc ab 3e
       0.14917569 0.37093437 -0.094203115 0.33554772
000360 c5 05 35 be 25 1a 28 3c f0 81 df 3c 13 f0 88 3d
       -0.17677982 0.01026014 0.027283639 0.066864155
000370 61 4d 8d bd 72 a2 3c bd cd ce ae 3c 49 71 42 be
       -0.068995245 -0.046053357 0.021338845 -0.18988527
000380 27 f3 a0 3e cc 99 61 bd d6 de 99 3e 6a 06 43 3e
       0.3143551 -0.055078313 0.30052823 0.19045416
000390 7f f7 10 be fc d6 6e bc 1f 43 22 bd 50 31 02 bd
       -0.14156912 -0.014577623 -0.039614793 -0.03178531
0003a0 cd 79 10 3e d0 7e 7a bc 8c 96 48 be 5e d5 6a be
       0.14108963 -0.0152890235 -0.19588679 -0.22932956
0003b0 19 1f 7e 3d 58 f6 77 3e 2b cf e9 3d 2f 25 cb 3d
       0.062041376 0.24215066 0.11416467 0.099192016
0003c0 73 ab 88 3e 1d 23 f9 3e a0 c5 f1 3c 9b b6 de bd
       0.26693305 0.48659602 0.02951318 -0.10874673
0003d0 08 a0 9b 3e 82 a4 fe 3d a4 d5 b1 bd d6 6d 72 3c
       0.30395532 0.12433721 -0.08683327 0.014796695
0003e0 19 22 96 3d ae 6e b0 3b 11 bf 84 3e fe 16 dd 3c
       0.07330722 0.005384288 0.25927022 0.026988503
0003f0 01 c3 c3 bd 59 ec c9 bd 0b dd 95 bd 0f 79 fc 3d
       -0.095586784 -0.09859533 -0.07317551 0.123277776

encoder.dcrnn_cells.0.gate.linear.weight f4 [128, 65]
000000 cf a1 3e be 17 a6 04 3e ac 10 74 3d 44 53 07 3d
       -0.18616413 0.12953983 0.059586212 0.033038393
000010 a7 78 24 3e 16 d2 fc 3d ca 99 86 3e eb 94 d9 3e
       0.1606165 0.12344758 0.26289207 0.42496428
000020 bd 7d 6d bb 78 b4 c0 3d 8e ca d0 3e a4 72 2d 3d
       -0.0036238276 0.09409422 0.40779537 0.042345658
000030 28 77 6d 3d a3 bf b0 3e 3f fa 2a bc 8f 3a 59 3b
       0.057974964 0.34521207 -0.01043564 0.0033146476
000040 44 91 15 3e 09 f6 38 bf 22 2e 83 bd de 5d 55 be
       0.14606196 -0.7225042 -0.064052835 -0.20836589
000050 0a 81 15 bd 72 73 b7 3d d3 87 78 3e c5 b9 3a 3e
       -0.036500014 0.08957566 0.24270563 0.18234928
000060 6d 9e 46 3e e7 7d b3 3d 6e 0e 61 3e a3 b5 0d 3e
       0.19396372 0.08764248 0.2197816 0.1383882
000070 85 0a d5 bd 0c dc 9f 3d 6c f0 e5 3e 8c 6d 26 3e
       -0.10402397 0.078056425 0.4490999 0.16252726
000080 8c e4 27 be ef 89 d6 bc 6b 8f 66 3e f2 d5 64 bd
       -0.16395777 -0.026188819 0.22515647 -0.055868097
000090 4b d4 24 be d0 fa de 3d 15 42 1a 3d c8 57 8a 3e
       -0.16096608 0.108876824 0.037660677 0.27020097
0000a0 6d de 68 3e 77 2a 43 3e d4 e7 22 be e0 7a 79 3d
       0.22741099 0.19059168 -0.15908748 0.0609082
0000b0 a8 64 43 3e 57 03 f0 3c fa c6 0d 3e 6b 0a da 3d
       0.19081366 0.029298468 0.13845435 0.10646518
0000c0 ff 8b 9e bd 92 97 87 3d da f2 2f 3e 74 d1 c4 3e
       -0.07741546 0.066207066 0.17182484 0.3844105
0000d0 e9 e6 66 bd 53 1d 8a 3e 5b 6a 52 3e e1 5a 78 3e
       -0.056372557 0.26975498 0.20548384 0.24253418
0000e0 d6 e3 90 3e 1d 6a 63 be 86 54 2e be f4 ba 1c 3e
       0.28298825 -0.22208448 -0.1702443 0.15305692
0000f0 7c 8c 89 3e dc 2d bc 3d 5e a0 86 bd 0c f7 5b 3e
       0.26864994 0.091884345 -0.06573556 0.2148096
000100 e8 43 78 3d f3 3c 84 bd 62 73 65 bd 02 31 24 3e
       0.060611635 -0.06456938 -0.05601824 0.1603432
000110 c4 e0 62 be fa e3 d9 bd 92 32 85 bd dd f6 21 be
       -0.22156054 -0.10639186 -0.06503786 -0.15816827
000120 d6 c1 87 be bc 51 c9 bd 7f 1f cb 3d 9a 97 53 be
       -0.26515073 -0.09830043 0.09918117 -0.206633
000130 94 20 86 3e 17 56 2c 3e e6 06 58 bd e1 2a c5 3b
       0.2619673 0.16829716 -0.052740954 0.0060170745
000140 c4 a4 f7 3c fa 21 75 be 7c ad 76 3c 4c 3f a9 3d
       0.030229934 -0.23938742 0.01505601 0.08264026
000150 6f bf a6 ba 65 06 58 3d 6f 8f 4d bd 2f 42 5b 3d
       -0.0012721847 0.052740473 -0.050185617 0.053529914
000160 47 b2 46 be 13 b0 17 be 0a 7d c0 bc 3c 19 54 be
       -0.19403945 -0.1481326 -0.023497123 -0.20712751
000170 ef 6f 39 3b 91 f7 d7 3c ed c5 29 be 0b 6a 2e be
       0.0028295477 0.026363166 -0.16579409 -0.1703264
000180 f7 52 46 be 9f 07 69 bd a7 d2 a2 3d 8a 12 84 bd
       -0.19367586 -0.056892034 0.07950335 -0.064488485
000190 3d 91 d4 3d 8f 37 a4 3c 42 6f 22 be 96 c4 94 3e
       0.103792645 0.020046024 -0.15862754 0.29056233
0001a0 6a be ea bd ae e2 c9 ba 6d fc 46 be 6c d2 83 3d
       -0.114621 -0.0015402639 -0.1943223 0.06436619
0001b0 02 08 db 3d 48 16 f3 bd 8e 31 69 bd 13 d6 15 be
       0.10694887 -0.11869484 -0.056932025 -0.14632444
0001c0 f1 a7 5c be e7 b4 44 bb 12 16 22 3e a4 91 e8 bd
       -0.2154844 -0.0030015053 0.15828732 -0.11355904
0001d0 9a d5 17 be 3c 8c 74 bd 9b 3d 84 3d 17 26 a3 bd
       -0.14827576 -0.05970405 0.06457063 -0.079662494
0001e0 08 dd 00 be ce e5 86 3d f6 22 40 3e a7 81 14 be
       -0.12584317 0.065868005 0.18763337 -0.14502583
0001f0 3b 62 7b be 03 fa 15 be 35 d3 96 bc f6 0c 4a 3e
       -0.2454919 -0.14646153 -0.018411258 0.19731507
000200 a1 5d d2 3d a9 0f 52 be 24 1a 9e 3e 02 ab 04 be
       0.102717645 -0.20513786 0.3087932 -0.1295586
000210 8b ad 76 bd a9 5a 16 be bf 19 60 3e 20 45 b4 bd
       -0.060224097 -0.14683022 0.21884821 -0.08802247
000220 a4 30 12 bd 34 1d e2 bd 32 ed 59 3e 0a 05 60 3d
       -0.03569092 -0.11040726 0.21281889 0.054692306
000230 10 f2 1e bd df ac 90 3d e2 9a 36 bc 25 ae 81 3c
       -0.038805068 0.070642225 -0.011145325 0.015830109
000240 a9 30 5c 3e 86 f2 8a 3d ac 7b df bd a3 67 1b 3c
       0.21502937 0.06784539 -0.109122604 0.009485158
000250 1c 77 78 3d bb a5 89 3d 60 a3 54 3e 0d 56 a9 3d
       0.060660467 0.06721064 0.20765448 0.08268366
000260 c2 e8 79 bd c6 6b cf bd 19 34 23 3e 1e b1 00 be
       -0.06101299 -0.10127978 0.15937842 -0.12567565
000270 b7 c6 7f bd 13 c9 b5 bc 06 c3 85 be 71 c3 cd bd
       -0.06244537 -0.022190606 -0.26125354 -0.10047043
000280 40 4d 55 be a6 44 08 3e bb 1f 23 3d b3 f6 ea bd
       -0.2083025 0.13307437 0.039825182 -0.114728354
000290 ac ff 22 bd 5d 76 a7 3e 2a 3b 8d 3e dd 29 b5 3d
       -0.03979461 0.32707492 0.275842 0.088458754
0002a0 12 87 68 3e 1e ec 57 3e 87 13 2d 3e fe 77 45 bb
       0.22707775 0.21086165 0.1690198 -0.0030131335
0002b0 b7 7f eb bd 9f 79 c6 bd 92 23 f8 3d 04 22 c8 3b
       -0.11498969 -0.09691166 0.121161595 0.0061075706
0002c0 1c e6 27 3e 39 98 0b bd f9 4e c7 3d f4 89 26 3d
       0.16396374 -0.034080718 0.0973186 0.040658906
0002d0 25 ae 17 3e 22 56 3e bd 63 f0 42 be fe ce 01 be
       0.14812525 -0.04646886 -0.19037013 -0.12676618
0002e0 c4 77 db bd 31 4d 95 bd 45 33 05 3e 26 70 e6 3d
       -0.10716203 -0.07290114 0.13007839 0.11251859
0002f0 ab 30 0a be 09 e4 59 be 47 43 09 be 61 09 9b be
       -0.13495128 -0.21278395 -0.1340457 -0.30280593
000300 55 97 3e be f0 7f 65 3d 5d 0d b7 3d 4d 68 00 bd
       -0.18612416 0.056030214 0.08938096 -0.03134947
000310 90 89 93 be fa 90 eb 3d f7 5a d3 bd 88 4b 26 3d
       -0.2881589 0.115022615 -0.103200845 0.040599376
000320 dc 68 5f be 27 83 05 be 26 22 7b bd f7 f4 04 bd
       -0.21817344 -0.13038312 -0.061311863 -0.03246018
000330 e1 56 62 3e 8e d8 84 be 3a 0a e1 bd 2c 8f 46 bc
       0.22103454 -0.25946468 -0.10988279 -0.012119096
000340 bc d1 32 3d 16 56 3b be 90 da 49 3e 7d 27 3b be
       0.04365705 -0.18294558 0.19712281 -0.18276782
000350 ff 84 97 3d 2c b1 ce 3d 28 67 b6 3e 72 f8 a1 3e
       0.07398414 0.100923866 0.35625577 0.3163486
000360 62 80 a0 3d bd 92 c6 3d c7 7d 11 3e 08 56 35 bd
       0.07836987 0.09695957 0.14208136 -0.0442715
000370 c0 9a 15 bd 32 3d c9 bd 04 28 35 be 18 06 26 be
       -0.036524534 -0.09826125 -0.17691046 -0.16213262
000380 47 02 55 be 01 9e 0c be 28 f7 46 3e dd 9e d7 3e
       -0.2080165 -0.13732149 0.1943022 0.4211339
000390 d3 df ad be 24 5a 4a 3e 79 1f 15 be ae d9 43 3e
       -0.33959827 0.19760948 -0.14562787 0.19126007
0003a0 7b d9 fb bc 07 eb 84 3e 8d e8 28 be d4 51 4b bd
       -0.030743351 0.25960562 -0.16494961 -0.049638584
0003b0 3d a3 86 3c 78 00 6f 3e 15 10 14 3e 3f 9e 03 bd
       0.01643526 0.23340023 0.1445926 -0.032133337
0003c0 f3 0b 8f 3b cd ef 95 be 8f ed 51 3e 90 a7 45 be
       0.004365438 -0.29284516 0.20500778 -0.19302201
0003d0 ef 29 9c bd ae e9 62 be a3 dd 37 be cf d0 5f 3d
       -0.07625186 -0.22159454 -0.17955641 0.054642495
0003e0 90 29 a7 be bb 98 8f 3d a7 b8 77 bd b2 20 1d 3e
       -0.32648897 0.07011553 -0.060478833 0.15344504
0003f0 15 25 b3 3e 13 5c b5 bd a0 33 f8 bd c2 5d 7f be
       0.3498923 -0.088554524 -0.12119222 -0.2493811

encoder.dcrnn_cells.0.gate.linear.bias f4 [128]
000000 95 4b 08 3f a8 fd 94 bc 64 40 12 3e bc f1 0a be
       0.5324033 -0.018187359 0.14282376 -0.13568777
000010 df 28 79 3f 23 50 09 3f aa 40 dc 3e 3f ef cf 3e
       0.9732799 0.53637904 0.43018085 0.40612218
000020 aa 3d 48 3f ae 17 53 3e 22 92 47 3f ae 3d 10 3f
       0.7821909 0.20614502 0.77957356 0.56344116
000030 8d f7 2a 3e 28 89 03 3f 87 82 10 3f f6 16 80 3f
       0.16695996 0.5138116 0.5644917 1.0007007
000040 b4 58 52 3f b6 c4 c5 3e 26 0f 3e 3e 50 6e 2a 3f
       0.821666 0.3862664 0.18560466 0.66574574
000050 05 d0 ae 3e 98 dc 0e 3f a1 65 6c 3f c7 68 ae 3e
       0.3414308 0.5580535 0.92342573 0.34064314
000060 91 d6 83 3c a7 9c f4 3e 3c 14 49 3f 0a cf 53 3f
       0.016093524 0.47775766 0.785465 0.8273779
000070 03 ff e5 3e 22 9e e2 3e 84 da 4e 3f 22 b2 0f be
       0.4492112 0.4426127 0.8080218 -0.14032796
000080 df 49 b7 3e f4 a6 dd 3e 2c 29 7a 3e 08 99 14 3f
       0.35798547 0.43291438 0.24429768 0.5804601
000090 99 d3 cc 3e a9 76 15 3d 6e ab d3 3e 48 6d 0f 3f
       0.40005186 0.036490116 0.41341728 0.56026125
0000a0 31 d3 72 bc db 03 9a bb 13 fb 3f 3e b3 c9 73 3e
       -0.01482086 -0.0047001666 0.18748121 0.23807411
0000b0 dd be 5d 3f 5d e4 22 3f 3a c8 cd 3e 9a ec 7f 3f
       0.8661936 0.63629705 0.40191823 0.999704
0000c0 5d 55 61 3f 61 3b 54 3f 20 15 02 3f fb 82 f8 3e
       0.8802088 0.82903105 0.50813484 0.4853743
0000d0 56 bd d4 3e a4 7f 87 3f 36 f1 b8 3e 62 e5 f0 3e
       0.41550702 1.0585828 0.3612153 0.47050005
0000e0 f5 94 0e 3f d3 4a 2a 3f 48 db 60 3e f9 b4 6b 3f
       0.5569604 0.6652042 0.21958649 0.9207302
0000f0 eb e8 37 3f 2f ae 89 3e af a9 ac 3d 71 4a 7b 3f
       0.7183978 0.26890704 0.08430802 0.98160464
000100 6a c4 c0 3e 6f 27 9d 3e ef cd 12 3f 8c 2c a1 3e
       0.37649852 0.30694148 0.5734548 0.314793
000110 a4 b1 15 3f 15 9a 86 3f 4c 89 5b 3f 82 28 1f 3f
       0.58474183 1.0515772 0.85756373 0.62171185
000120 e1 f6 ee 3e 9b 9f 45 3f 6f bf 94 3f b5 a6 c4 3d
       0.4667273 0.77196664 1.1620921 0.09602109
000130 27 c9 46 3e a1 c4 f9 3e 08 a9 20 bd eb 59 04 3f
       0.19412671 0.48782828 -0.0392237 0.51699704
000140 ea 24 1f 3f 0f 5a 2f 3f cb 6a 5b 3f 10 b4 22 3f
       0.621657 0.68496794 0.8570983 0.63556004
000150 e1 85 28 3d e2 84 8c bd 88 9f 23 3f 36 2b 60 3e
       0.041143302 -0.06861283 0.639153 0.21891484
000160 d6 23 aa 3d e3 52 b9 3e 87 93 45 3f 5f 8a 05 3f
       0.083076164 0.3619605 0.77178234 0.5216426
000170 4e a9 4a be 29 3c 5c 3f bb 82 28 3f 18 33 2d 3f
       -0.19791147 0.860293 0.6582448 0.6765609
000180 d6 d4 66 3f 4f 72 14 3f 1d 7a d4 3d 0d fd 14 3f
       0.9016851 0.5798692 0.10374854 0.58198625
000190 ba 44 ce 3e f3 a0 9b 3e fe ae 12 3f 79 c8 9e 3e
       0.4028681 0.30396232 0.57298267 0.31012323
0001a0 4d 5d 6a 3f f6 55 56 3e b8 4c 51 3f ec 54 6f 3d
       0.91548616 0.20931229 0.8175769 0.058430597
0001b0 e0 40 d9 3e f1 3b 1f 3e 1d ed 03 3f 45 53 83 3f
       0.42432308 0.1555021 0.5153368 1.0259787
0001c0 9e 6f 1c 3f 65 5f 83 3d fb c1 92 3d ed 24 76 3e
       0.61107814 0.064146794 0.07165905 0.24037524
0001d0 de a8 0d 3f 93 7b ef 3e db 48 26 3f 0d 1f ee 3d
       0.55335796 0.46773967 0.6495492 0.11627016
0001e0 82 43 5c 3f e7 a9 4b 3f 24 54 bf 3d 15 a0 17 3f
       0.8604051 0.79556125 0.093422204 0.5922864
0001f0 e8 1c a9 3e b3 4d e9 3e da d1 5e bd ec d5 1c 3f
       0.33029866 0.45567092 -0.05439935 0.6126392

encoder.dcrnn_cells.0.update.weights_pool f4 [2, 65, 64]
000000 df 8a 85 3e fb f4 fa be 69 d0 7b 3e 56 58 83 3e
       0.26082513 -0.4901503 0.24591221 0.25653332
000010 61 a4 2d be c1 f2 27 be 6a 23 51 be 11 af 8f 3e
       -0.16957237 -0.16401197 -0.20423666 0.28063253
000020 55 d9 3f 3e 02 1c 33 be cc 9d 34 3e dc a2 16 3e
       0.1873525 -0.17491153 0.1763832 0.14710563
000030 8f 3b 78 3e a1 25 53 bd d4 80 e3 be 1b 87 20 be
       0.2424147 -0.051549558 -0.44434226 -0.15676539
000040 27 81 0d 3e 8a 54 91 3e 75 50 89 3d 8d 8d 77 3d
       0.13818799 0.2838481 0.06704799 0.060437728
000050 56 98 ad be d6 dd 2c 3e 15 34 f5 3d ea 29 95 3e
       -0.33905286 0.16881499 0.119728245 0.2913354
000060 c3 1a 6c be 8b f3 36 be 0f 35 61 be 27 ee d2 3d
       -0.23057084 -0.17866342 -0.21992896 0.1029933
000070 8c 16 e7 3e 76 61 55 be 6b 0e 84 3e 12 af 14 be
       0.4513439 -0.2083796 0.2579225 -0.14519909
000080 ec 1e 95 3e 2a 15 b9 3e b0 81 9f bd 55 82 57 3e
       0.29125154 0.3614896 -0.07788408 0.21045811
000090 4c ed 3c 3e 61 d1 5d 3e ca 7a 94 bd 3d 83 4e bd
       0.18449897 0.21661903 -0.07249983 -0.050418127
0000a0 86 5c 8f 3e 10 e6 06 3e 13 55 38 3e 94 a8 9b 3e
       0.28000277 0.131737 0.18001203 0.30402052
0000b0 93 0a d2 bd dd 07 37 be 63 05 c8 3e 8c ad 5d 3c
       -0.10255923 -0.17874093 0.3906661 0.013530146
0000c0 24 a9 cd be 4d 27 27 be 41 19 47 be ea 73 a2 be
       -0.40168107 -0.16323586 -0.19443227 -0.3172906
0000d0 0d 4e 8b 3d 45 a2 1c 3e 19 df c6 3e eb 9a 20 bf
       0.068019964 0.15296276 0.38842085 -0.62736386
0000e0 9f 66 3e 3e d5 53 46 3e d8 f2 76 be b8 69 db 3d
       0.18593834 0.19367917 -0.24116075 0.107135236
0000f0 ad 96 39 bf 01 e4 e6 3d 27 64 b2 3e 35 b7 4e bd
       -0.7249554 0.11273957 0.34842035 -0.05046769
000100 c7 19 1a bd e9 8a 06 be 18 c8 dc bd 9f 0a 6f bd
       -0.03762224 -0.13138928 -0.10780352 -0.05835974
000110 61 9b a4 bc 4e 52 ef 3b e7 73 a0 3d e3 21 03 3e
       -0.020093622 0.0073035127 0.078346066 0.12805896
000120 ae 5b 32 bd 8e e5 0d 3d 89 f7 b2 bd c2 2e c2 3b
       -0.043544464 0.03464275 -0.0873862 0.005925984
000130 7d 14 85 bd 9d 73 e7 bc bb 82 87 bd 45 3d a2 3c
       -0.064980485 -0.02825337 -0.06616732 0.019804606
000140 fa b0 10 bd 43 68 9f bd 1d 6d a7 3c 2e 61 9d bc
       -0.035325028 -0.07783558 0.020437771 -0.019211378
000150 39 94 10 bd 68 c4 7c bd c8 cd 00 be 8a 9c 09 bd
       -0.035297606 -0.061710745 -0.125785 -0.033596553
000160 4b 73 40 bd 67 7f ad 3c 56 5a ce bc bb 70 78 bd
       -0.046984952 0.021178914 -0.02518956 -0.060654383
000170 fa c0 ab bd 9b 27 4b 3d 2f 09 2a bd b6 41 16 3d
       -0.08386417 0.049598318 -0.041512664 0.03668376
000180 20 29 82 bc c3 57 49 bd 83 60 a4 bc 94 b0 ef bd
       -0.01588875 -0.04915596 -0.020065552 -0.117036015
000190 4f 18 a1 bd 37 48 b6 bd 90 07 51 3c ac 3a 12 bd
       -0.078659646 -0.08900493 0.012758151 -0.035700485
0001a0 c3 97 b1 bd 18 d1 8e bd ee e9 aa bd b5 cc 9f bd
       -0.086715244 -0.06973475 -0.083454 -0.07802717
0001b0 32 a1 3d bd a5 45 39 3d 56 02 68 bd f3 60 3a bd
       -0.046296306 0.045232434 -0.056642853 -0.045502614
0001c0 1a 01 d9 bd 30 db dd 3d d9 40 06 bd 74 4c 80 bd
       -0.10595913 0.10832822 -0.032776687 -0.06264582
0001d0 d2 b8 11 3c aa a1 56 bd ee 5a 89 bd e3 22 ae bc
       0.008894162 -0.05240027 -0.067067966 -0.02125687
0001e0 8d 4c 8c ba c1 09 82 bd d2 17 e7 bd 8c 5f 1f bd
       -0.0010703966 -0.06349517 -0.1128384 -0.03890948
0001f0 af 6b 70 bd a8 62 4b bd 04 46 e2 bc 81 c4 db bc
       -0.058696445 -0.049654633 -0.027621277 -0.026827099
000200 fc 8a 80 be 9d 21 89 bc 2c 7e a3 3d 1b 7d 46 3e
       -0.25106037 -0.01673966 0.0798305 0.19383661
000210 1d 92 b3 3b 5d 54 f6 bd 49 a6 d4 bd 7c 34 02 be
       0.0054800645 -0.1202781 -0.10383279 -0.12715334
000220 d7 77 01 3e da b0 2c be 3b 7b 31 be 5f c7 72 3d
       0.12643372 -0.16864339 -0.17332165 0.059272166
000230 17 f5 66 3e c2 3e 0d 3e de ae 71 3d 69 8d d8 bd
       0.22554432 0.13793471 0.059004657 -0.10573847
000240 87 e3 9b 3c d1 b5 2d 3e f3 9b 19 bc ae 0c e1 3c
       0.019029392 0.16963889 -0.00937556 0.027471866
000250 fa 94 61 bd 1d bf 56 3d a7 8e e1 3d 67 36 0e 3e
       -0.055073716 0.052428354 0.11013537 0.1388794
000260 13 45 c8 bd 84 c0 b4 bd 89 00 c1 bd a0 b5 9c 3d
       -0.097788 -0.08825782 -0.0942393 0.0765183
000270 30 9e ef 3d ab 8f 5d bd a4 34 a7 3d 48 11 9a 3d
       0.11700094 -0.05409209 0.08164337 0.075228274
000280 9e f7 17 bf 2b ff 15 3e 97 e1 7e bd 26 64 db 3d
       -0.5936221 0.1464812 -0.062226858 0.10712461
000290 c7 ef 13 3e 2c 86 8b 3d a1 f0 9a bb 73 99 3f 3e
       0.14446937 0.06812701 -0.004728392 0.1871088
0002a0 e8 39 f4 3d fb 21 b2 3d 48 38 16 3e 64 cb 07 3e
       0.11925107 0.086978875 0.14669907 0.13261181
0002b0 bf 6e 8b 3c 70 33 20 be 16 04 29 3e 57 e0 06 3e
       0.017020581 -0.15644622 0.16505465 0.13171516
0002c0 f7 57 c8 3e c8 9a 49 3c 28 e9 5d bd 3a c1 52 bd
       0.39129612 0.012304969 -0.054177433 -0.051453806
0002d0 d2 7f 3a bd 2b d1 67 bd 98 ca a2 3d 5a f0 a5 3d
       -0.045532055 -0.056595962 0.07948798 0.08102484
0002e0 2b 62 02 3e 12 a3 af 3d 7c 45 67 3b 58 4b 1a 3e
       0.1273276 0.08576025 0.0035289219 0.15067804
0002f0 e0 16 f4 bd 2c bd 99 bd d8 35 ab bc b2 b9 93 3d
       -0.119184256 -0.07506785 -0.020899698 0.07213153
000300 a5 50 ae 3a fd b6 01 be e9 16 87 bd 0d 3f e1 3d
       0.001329918 -0.1266746 -0.06596167 0.10998354
000310 29 04 ad bd 80 4d 7c 3d e7 98 6b bd 24 33 10 3e
       -0.08448059 0.061597347 -0.057518866 0.14082009
000320 8a 8b 00 3e d5 76 ae bd cd b4 02 3e 21 7a 51 3d
       0.1255323 -0.08518759 0.12764283 0.05114186
000330 de a5 a4 bc 4b fc 60 bd 28 96 4d 3e ea 92 95 3d
       -0.020098623 -0.054928105 0.20076811 0.07303412
000340 f1 0d 8c bd db df f1 3d 97 83 3e 3e bd 48 f0 bb
       -0.068385966 0.11810275 0.18604885 -0.00733289
000350 81 a3 7a bd 53 af 2e bd 1b 5f 50 3d 44 c2 86 bc
       -0.061191086 -0.04264767 0.05087195 -0.016450055
000360 65 ee 1d 3d c8 e3 60 3d d1 49 ac 3a b7 8f 10 bd
       0.03855743 0.05490473 0.0013144558 -0.035293307
000370 bc ca c7 3d c6 96 97 3d e1 78 37 3d b2 b8 d0 bd
       0.097554654 0.074018046 0.044793013 -0.10191478
000380 14 14 98 bd 1f 6b 5f 3e 4f 3e 13 be 15 76 2e 3d
       -0.074257046 0.21818207 -0.14379238 0.04259308
000390 4b 19 da 3d 84 94 46 bc a0 75 d4 3d c1 32 da bc
       0.106493555 -0.01212037 0.10373998 -0.02663553
0003a0 29 ed f1 3c 78 13 53 3d 1e f5 0a 3d 38 74 a8 3d
       0.029532032 0.05153224 0.03392517 0.08225292
0003b0 ea 25 e0 bd c5 08 46 3d f4 d2 5d 3e d6 73 65 bd
       -0.109447315 0.048348207 0.21662503 -0.056018673
0003c0 04 5c 64 bb 0c 9a dc 3d ea 6f 87 3d 86 24 21 be
       -0.0034844885 0.107715696 0.06613143 -0.15736589
0003d0 6d 70 9a 3d 59 c6 e5 3d 76 ec 8e 3c 48 e1 c1 3d
       0.07540975 0.112194724 0.017446738 0.09466797
0003e0 c1 9b 1c 3e d4 da 2b 3e bc 6c b5 bd c7 8a a0 bc
       0.1529379 0.16782695 -0.0885863 -0.019597424
0003f0 41 78 e5 bd 75 51 42 3d 64 73 8e 3c 5a a0 62 3d
       -0.11204577 0.047440965 0.017389007 0.055328704

encoder.dcrnn_cells.0.update.bias_pool f4 [2, 64]
000000 37 cd ac 3d 1c f5 f7 bd 16 4b 55 3e a1 77 94 3e
       0.08437579 -0.12107298 0.20829424 0.2899752
000010 2f 2a 25 3e f2 b0 09 3e 8a ce 95 bd 66 1b 11 3e
       0.16129373 0.13446406 -0.07314785 0.14170608
000020 07 e1 b3 bd e1 01 84 be c4 f1 2e be 74 90 87 3d
       -0.08783155 -0.25782683 -0.17084414 0.06619349
000030 ac 77 58 be 30 ee 71 b9 7c 9c 94 3d 33 74 71 be
       -0.21139401 -0.00023072283 0.072564095 -0.23579483
000040 b9 b4 25 3e 84 38 05 3e 98 95 71 3e 37 d4 50 be
       0.16182221 0.1300984 0.23592222 -0.20393454
000050 61 53 26 be df 4d 14 be 3f bb 7d bd 04 1e 83 3e
       -0.16242744 -0.1448283 -0.06194615 0.25608838
000060 e8 f2 27 3c ef a0 8c 3e da 44 be be cc 1d 5f 3e
       0.010250784 0.27466533 -0.37161905 0.2178871
000070 e1 fe c7 be b2 2f 5e 3e 47 31 97 be af 08 64 be
       -0.39061645 0.21697882 -0.29529783 -0.22268938
000080 dd d5 d1 be b8 30 fe bd 28 86 85 be ae d8 0a 3e
       -0.40983477 -0.12411636 -0.26078916 0.13559219
000090 ae f1 8c 3e 4e 78 8f be ac 92 44 3e d9 9e 22 be
       0.27528137 -0.28021473 0.19196576 -0.15880908
0000a0 9e fb 48 3e 5e 8d 07 be 8a 01 88 bd 88 8c 08 be
       0.19627234 -0.13237521 -0.066409186 -0.13334858
0000b0 07 61 c3 3d 8f 0e 82 be 94 05 0a bd eb 49 c0 3d
       0.09539991 -0.25401732 -0.033696726 0.09389099
0000c0 21 0a 2e bc 84 3b a2 be 54 43 0e 3d 57 24 ce bc
       -0.010622532 -0.31686032 0.034732178 -0.025163813
0000d0 d8 c1 85 be 00 5f f9 bd d8 1d 45 3e 58 5c 7d be
       -0.26124454 -0.12176323 0.19249666 -0.24742258
0000e0 bc 09 a9 3e 9c 22 01 be fc 80 d6 bc 02 aa 8a 3d
       0.3301524 -0.12610859 -0.026184551 0.06770708
0000f0 dd dc b6 be 88 bf 7b be f5 ee 29 3e 90 1b 99 bd
       -0.3571538 -0.24584782 0.16595061 -0.0747596
000100 81 38 fa 3d 72 d2 97 bd cd 87 ae be 86 d3 e8 3d
       0.122178085 -0.07413186 -0.34087983 0.1136847
000110 f8 c2 8f 3e eb 9e 5c 3d c9 02 09 be b1 e0 a7 3e
       0.28078437 0.053862493 -0.13379969 0.32788613
000120 9d 92 7e be ea b5 85 3e 32 79 49 3e 8f f5 22 3d
       -0.24860616 0.26115352 0.19675139 0.039784964
000130 d0 33 ba bd 7f 92 15 be ac fc c3 bd 85 fd 5a be
       -0.09091914 -0.14606665 -0.09569678 -0.21385773
000140 41 e7 4c be e0 a1 68 be f9 ac 06 be 64 51 8a be
       -0.20010091 -0.22718 -0.13151921 -0.2701522
000150 00 9c 44 be 2c fb 28 be 77 1e 5f 3d 0b 46 0f be
       -0.19200134 -0.16502064 0.054472413 -0.13991563
000160 08 4c 4e bd 26 2b 2a be ed a9 2a 3e 67 96 e9 bd
       -0.050365478 -0.16618022 0.16666384 -0.1140564
000170 68 94 47 3e be 39 ad bd 21 07 6f 3e d8 8e 6c be
       0.19490206 -0.08458279 0.23342563 -0.23101366
000180 67 cc 9d bc 54 33 13 3e b4 e6 b2 3e a9 70 11 be
       -0.019262506 0.14375049 0.34941638 -0.14203133
000190 6e dc 3e bd cf 2a 73 bd 48 59 e3 3d f3 ce 76 3e
       -0.046596937 -0.059366997 0.111010134 0.24102382
0001a0 36 d8 2a 3e 40 08 58 3c c1 20 20 3e 4d a1 b7 3c
       0.1668404 0.013185561 0.15637495 0.022415781
0001b0 3d 5a 0c 3e b2 08 73 bc 57 42 04 be 89 04 ab be
       0.13706298 -0.014833616 -0.12915932 -0.33401898
0001c0 7f d8 0e be 3c c2 12 be eb ec 32 3e 8b 0e 8b 3e
       -0.13949774 -0.14331907 0.1747319 0.27159533
0001d0 d3 75 86 3e 57 2c 9a 3e 63 09 21 3e 98 66 a4 3e
       0.26261768 0.30111954 0.15726237 0.32109523
0001e0 6a 94 1c 3e 4f 3a 74 3e fa 09 7a 3e d6 46 50 bd
       0.1529099 0.23850368 0.24417868 -0.050848804
0001f0 41 9b f6 bc cc 76 61 3e c5 4d 8c 3e 15 58 3b 3e
       -0.030103328 0.22017974 0.27403083 0.1829532

encoder.dcrnn_cells.0.update.linear.weight f4 [64, 65]
000000 6c b0 2a 3e 3b 3f 66 3d e6 1b 9b bd 8f 6c a3 bd
       0.16668862 0.056212645 -0.075736806 -0.0797969
000010 32 c9 0a 3d 3f 3f 27 be 98 d0 7a 3c e9 38 2e be
       0.03388328 -0.1633272 0.015308522 -0.17013897
000020 60 90 41 be 36 c7 01 bd 50 83 a3 be 80 c1 50 bc
       -0.18902731 -0.031684123 -0.3193612 -0.0127414465
000030 7f 22 cb bd 0a f8 2f 3e d8 19 ae 3d 17 84 e2 3c
       -0.09918689 0.17184463 0.08501023 0.027650876
000040 bd f7 42 3d 16 6b 03 3e 84 49 b9 bb 28 85 f2 3d
       0.047599543 0.12833819 -0.0056545157 0.11841804
000050 af 9b e4 3d f9 07 5a be d0 e5 0d 3e 8f 07 3f be
       0.11162507 -0.21292104 0.13857198 -0.18655227
000060 31 2c d4 3d 02 a1 9e be 3b 76 21 be bf 39 2c bd
       0.10359991 -0.30982214 -0.15767758 -0.04204726
000070 fc b1 93 3d 34 be f9 3d 47 b9 a5 3c 8a f7 df bc
       0.07211682 0.121944815 0.020229949 -0.027339716
000080 2e fb 39 3e 4c 11 24 be 63 f7 f5 bd 2a cd f4 3b
       0.18162224 -0.16022223 -0.12010076 0.0074707465
000090 ad 06 0b 3e aa 43 53 3d ac 7c 73 3e d3 87 ee 3d
       0.13576765 0.0515782 0.23778027 0.11647
0000a0 9a 79 10 3c 8a 11 d8 bd 8c 71 79 3e 8f 41 82 be
       0.008818055 -0.1055022 0.24359721 -0.25440642
0000b0 c7 8c 6e be 42 33 f7 bd 1c 17 0e 3e 96 50 26 3e
       -0.2329589 -0.120703235 0.13876003 0.16241679
0000c0 d1 19 d8 3d 9d c6 b3 bd 53 42 3c bd 4a 2d aa be
       0.10551799 -0.08778117 -0.04596169 -0.33237678
0000d0 3e c9 a3 3d 6a d1 15 bd c2 64 03 3d fc 21 00 be
       0.07997368 -0.036576666 0.032078512 -0.12512964
0000e0 2d 2d 6a be 0c 68 89 bd 53 fe 50 3e 0e d6 80 be
       -0.22868796 -0.067092985 0.20409517 -0.2516331
0000f0 38 e2 a7 bd 44 f5 80 be e6 3e 17 3e eb 85 7c 3d
       -0.08197445 -0.25187123 0.14770088 0.06165115
000100 83 8c 2a be 0f 8e 9a be 52 ae 56 be 1f 15 91 bd
       -0.16655163 -0.30186507 -0.20964935 -0.07084107
000110 c6 ac 36 3e 4a e9 ae bc eb d3 f9 bd bf 7e a3 bd
       0.17839345 -0.021351475 -0.12198623 -0.07983159
000120 f4 9e 23 bc f2 c8 c6 be 0b 93 a9 3d db cb bd bd
       -0.009986628 -0.38825184 0.08279999 -0.09267398
000130 3f e9 08 3e b6 ad 43 be ac 66 15 3e af 64 43 3d
       0.13370226 -0.19109234 0.14589947 0.04770344
000140 cb aa 4c be 29 b9 4e 3c 63 e7 19 3e f8 c6 2e bc
       -0.19987027 0.012617388 0.15029673 -0.010667555
000150 7f d7 8e bc 63 3f a7 3e df 53 2a 3e 5c a2 cd bd
       -0.01743674 0.32665548 0.16633557 -0.10040733
000160 7c 4f 59 be 83 84 21 be 61 a4 83 bd c8 9a 0d 3e
       -0.21221727 -0.15773205 -0.06427837 0.13828576
000170 4d 92 54 bd c4 cf 74 bd 6c 66 2f 3d 5e 48 a4 bb
       -0.051897336 -0.059768453 0.042822286 -0.0050135097
000180 e8 bb 53 3d 8a 29 5a 3e 42 b6 07 be ee 2f 42 3d
       0.051692873 0.21304908 -0.1325312 0.04740899
000190 98 05 d0 bd d4 38 e1 bc 6e 85 54 be e3 3a e2 3d
       -0.10157317 -0.027492918 -0.20754024 0.11046388
0001a0 c7 3d f7 bd 7e 3d 27 be c0 f8 dd bc 73 22 2e 3e
       -0.1207233 -0.16332051 -0.027096152 0.17005329
0001b0 d5 20 8d 3e 41 0c b4 3b 85 2b 8c be 4e fc e4 3d
       0.2756411 0.005494625 -0.27376953 0.11180936
0001c0 56 2a 0c 3e 9e 05 bc 3d 22 66 ed bd 1a 64 2f be
       0.13688025 0.09180759 -0.11591746 -0.1712803
0001d0 6d 14 2c 3d 0e 71 8f be d4 1e 6c be 24 a3 fd 3d
       0.042011667 -0.2801594 -0.23058635 0.12384632
0001e0 3d 4e bd 3d 73 65 3f be 9b 75 1e 3d 90 7c 19 3c
       0.092434384 -0.18691044 0.038686376 0.009368077
0001f0 89 6f 53 3d ac 1b 74 be 0c ea 01 be 90 f3 29 3e
       0.05162004 -0.23838681 -0.12686938 0.16596818
000200 5a 2e a0 3d 72 d5 bb 3d d0 21 09 3e cd 49 80 be
       0.07821341 0.09171571 0.13391805 -0.25056306
000210 9d 7a bc bd bc fe 87 be 2b 1b 89 3d 34 49 b1 3d
       -0.09203074 -0.26561534 0.06694635 0.086565405
000220 fb 65 08 3d b2 16 52 bc 2f 26 4f be e0 03 48 3e
       0.03330038 -0.012822794 -0.2022941 0.19532728
000230 71 41 5e 3d b9 51 49 be d4 52 d1 bd 24 ba 88 bd
       0.05426163 -0.19660081 -0.10220876 -0.066761285
000240 26 21 3d 3d 7e 13 4a be 9c e5 6c be 90 cf a9 3d
       0.04617419 -0.19733998 -0.23134464 0.082915425
000250 ce 0e 57 3e 8a b2 37 3e 84 0d ba 3d 68 b5 93 3b
       0.21001741 0.17939201 0.09084609 0.0045077093
000260 01 f4 82 bd af 6b 67 3d eb b5 25 3d 9b 64 7a be
       -0.06394196 0.05649918 0.040456694 -0.2445244
000270 17 d6 eb bc 83 f3 a1 bd ee 4c 1c be ea 42 26 be
       -0.02878861 -0.07907774 -0.15263721 -0.16236463
000280 64 86 54 be 1f c2 2d 3e e3 ea 33 3e 99 fc 4d bd
       -0.20754391 0.16968583 0.17570071 -0.050289724
000290 5a cf 06 bd ab 7b 58 3e 9f 95 24 3e 04 04 0d 3e
       -0.03291259 0.21140926 0.16072701 0.13771063
0002a0 15 cf 73 3d 18 d1 35 bd e4 6d b7 bd ed db cc 3c
       0.05952366 -0.04438886 -0.08956507 0.025007213
0002b0 83 32 86 3d 16 0b 3d be ae b0 b7 3d c5 db 8d be
       0.06552603 -0.1846126 0.08969246 -0.27706733
0002c0 8b 68 5a 3d 0a 85 0b 3e fc 93 a9 bd 98 95 aa bd
       0.053322356 0.13624969 -0.08280179 -0.08329314
0002d0 ba c4 79 be 59 5c 95 bd 54 d5 8e bc e9 8a 43 3d
       -0.24391451 -0.072930045 -0.017435707 0.047739897
0002e0 bb 8d 93 3d e1 7c ab 3d 99 c8 b4 bd 8b 83 68 3e
       0.07204767 0.08373428 -0.088273235 0.2270643
0002f0 33 6e 26 be de 8f 41 be 91 ac cd 3c b2 a1 0d be
       -0.16252975 -0.18902537 0.0251067 -0.13831213
000300 02 9c 9b bc ca 57 11 be 52 cc 63 be 37 38 c5 3e
       -0.018995289 -0.14193645 -0.22245911 0.3851945
000310 e1 c7 8b 3d 4a 02 72 bd b5 fe 49 bd 3a 8a 90 bb
       0.06825233 -0.059084214 -0.049315173 -0.004411009
000320 73 a7 41 3e a4 cb 23 be 8d fa 4c 3d 94 20 74 3e
       0.18911533 -0.15995651 0.05004363 0.23840553
000330 c1 58 2a 3e 0f 91 7d be 8e 2f 17 bb 03 b5 d2 bd
       0.1663542 -0.24762367 -0.0023069116 -0.102884315
000340 9e 36 f9 3d b5 05 d9 3c 85 e3 b7 3d 83 49 61 bd
       0.121686205 0.02649198 0.08978943 -0.055001747
000350 4b d0 81 3d 3e 34 aa 3d c9 8c 29 3d 78 ef 7f 3e
       0.06338557 0.08310746 0.04139403 0.24993694
000360 d2 82 aa bc 74 2b 36 be 8d 04 5e 3d 2a 7f 21 bc
       -0.020814333 -0.17790014 0.05420356 -0.009856978
000370 8b 0a 24 3e f5 a7 52 3d b1 5a 36 be 6b fb 56 bd
       0.16019647 0.051429708 -0.17808034 -0.052485865
000380 6f 1b 3d be 47 85 5e be 6e 9b 0f 3e 43 fa d0 bd
       -0.18467496 -0.21730529 0.14024135 -0.10203984
000390 ff 21 1c 3e ef 9c 44 3e 75 34 b6 bd bf e2 67 3d
       0.15247343 0.1920049 -0.08896724 0.056612726
0003a0 ca 26 44 3e 4b a6 58 3e 0e b3 f7 3d db d0 7b 3e
       0.19155422 0.21157186 0.12094699 0.24591391
0003b0 5b 97 33 3e cf a3 3b 3e 02 0e 5d 3e 11 fd 79 bd
       0.17538206 0.18324207 0.21587375 -0.06103236
0003c0 13 ba 4c 3e bd 6d 30 be 8b aa 69 bd 2c bf dd bc
       0.19992857 -0.17229362 -0.057047408 -0.027068697
0003d0 1d 73 4f 3e e2 c7 f3 bc 37 70 a2 bd 8f b9 07 be
       0.20258756 -0.029758397 -0.079315595 -0.13254379
0003e0 09 a8 8a bd db d7 36 be 9c 5e f7 bd 0a 31 56 3e
       -0.067703314 -0.1785578 -0.12078592 0.20917144
0003f0 92 5f a3 3e 13 8a 57 be 0c 37 06 3e aa af 0c 3c
       0.31908852 -0.21048765 0.13106936 0.008586803
