mo/TARGCN/model/model_para/PEMSD8/epoch_4.pth (torch, 597909 bytes, 48 tensors)

node_embeddings f4 [170, 2]
000000 67 4f e2 bc 30 8b 70 be 8c 59 b4 3d e5 ca 17 be
       -0.027625753 -0.23490596 0.08806142 -0.14823492
000010 d7 5d 72 3d e0 a5 d7 bd 9e 63 a2 3c 23 b1 4b be
       0.059171524 -0.10529685 0.019822892 -0.19891791
000020 5c db ba 3d bc 36 26 be 7b 3f 86 3d ed b4 f7 bd
       0.09123871 -0.16231817 0.06555077 -0.12095056
000030 3c 8f 3f 3d f6 c4 31 be 30 36 cb 3d 37 b4 ff bc
       0.04676746 -0.17360291 0.09922445 -0.031213863
000040 29 2d a2 3d f5 21 0b bd 06 95 87 3c ec 60 9a be
       0.0791877 -0.03396793 0.016550552 -0.3015207
000050 ba ba e3 3d 16 13 f8 bd 16 1c 28 3e 29 ec 03 3c
       0.111196 -0.12113015 0.16416964 0.00805191
000060 ca 52 38 3e 64 96 df bc 53 18 f4 3d 53 e0 c0 bd
       0.18000332 -0.027293392 0.11918702 -0.094177864
000070 e3 00 b3 3d 2a bb 0c be 88 9c 9d 3d 69 c3 f1 bd
       0.087404035 -0.13743272 0.076958716 -0.1180485
000080 61 f8 f5 3d 0d 14 52 3a 61 b9 52 3d 90 15 17 be
       0.12010265 0.0008013852 0.051446322 -0.14754319
000090 c4 ef d0 3d 2c f3 c6 bd b0 a2 64 3c 65 36 39 be
       0.10201982 -0.0971435 0.013954803 -0.18087156
0000a0 4e d3 19 3e 97 4a 20 bd 69 fd 85 3d e6 99 c1 bd
       0.15022013 -0.039133634 0.06542475 -0.09453182
0000b0 d4 32 f7 3d c7 8f fc bd 67 72 da 3d c4 b7 be bd
       0.120702416 -0.12332111 0.10666352 -0.09312394
0000c0 9a 3b 5a 3e e4 69 a5 3d fe 8d 09 3e 76 9f 0c bd
       0.21311799 0.08076838 0.13433072 -0.03433176
0000d0 c7 37 f9 3d 7e 92 ad bd b0 79 ad 3d b5 7a f3 bd
       0.12168842 -0.08475207 0.08470476 -0.11888639
0000e0 59 71 bb 3c 80 0a 38 be 9d f7 55 3c ac e8 14 be
       0.022881197 -0.17972755 0.013059524 -0.14541882
0000f0 f6 85 fe 3d 94 be 13 bd 4d 12 60 3d e2 44 b1 bd
       0.12427895 -0.03607042 0.054704953 -0.086557165
000100 9f d3 52 3e 32 3f 2b 3d 23 b8 25 3e 12 5a 88 be
       0.2058854 0.041808315 0.16183524 -0.26631218
000110 72 f7 34 3e fa 1f 34 3d 9b 77 68 bd ec 51 83 be
       0.17672518 0.043975808 -0.05675469 -0.2564844
000120 ed e5 db 3d a5 86 a2 bd e5 73 c5 bc 7c b6 06 be
       0.10737214 -0.07935838 -0.024103114 -0.1315555
000130 ba 12 02 3e d5 95 3d bd 4d 07 15 3e 97 48 65 bd
       0.12702456 -0.04628547 0.14553566 -0.05597743
000140 41 82 de 3c 27 1b 04 be e1 24 7d 3d b9 90 20 be
       0.02716172 -0.12900983 0.06180275 -0.15680207
000150 e7 c7 41 3e 42 94 fa 3c 1a 06 db 3d cb d3 ef bd
       0.18923913 0.030588273 0.10694523 -0.11710318
000160 d5 13 15 3e ec f5 7f bc 90 91 21 3e 2a 29 86 bd
       0.14558347 -0.015622597 0.15778184 -0.0655082
000170 2e 2d f5 3d 9d 90 ca bd 22 94 69 3d 43 13 0b be
       0.11971508 -0.09890864 0.057026036 -0.13581567
000180 0f a2 b6 bc 9a 2d 8f be 40 3f 7a bc 22 05 f0 bd
       -0.022294072 -0.2796448 -0.015273869 -0.11719729
000190 fb 29 46 3e 09 d2 d1 3c 8f 77 36 3d 84 22 f5 bd
       0.19351952 0.025612848 0.044547614 -0.11969474
0001a0 77 ce d9 3d 29 80 1c be 90 7b 91 3d 37 e8 d3 bd
       0.10635083 -0.15283264 0.07103646 -0.10347026
0001b0 4f 11 17 3e 20 66 8b bc 2a d2 a0 3d 2f 28 07 be
       0.14752696 -0.01701647 0.078525856 -0.13198923
0001c0 17 cb 8d 3d fb d4 b6 bd cd 12 59 3e 0f 77 5b 3d
       0.06923502 -0.089273416 0.21198578 0.05358034
0001d0 d3 4a 90 3d 2a 6d 5b bd 97 63 ff 3d 52 3d 94 bc
       0.070455216 -0.053570904 0.12470167 -0.018095646
0001e0 7c 5a 04 3d fd 50 f1 bd c4 4e 13 3d 01 e5 5f be
       0.032312855 -0.117830254 0.03596379 -0.21864702
0001f0 0a 3e dc bc b3 9f 2e be 61 a5 7a bd d5 46 8b be
       -0.026885051 -0.17053108 -0.061192874 -0.27202478
000200 a2 66 3c 3e 76 fc 27 bd 28 ad b2 3d 63 19 92 bd
       0.18398526 -0.04101225 0.08724433 -0.071337484
000210 40 b0 9f 3d 4b 69 8e bd 6c ea 05 3c 23 80 fb bd
       0.07797289 -0.06953677 0.008173566 -0.122802995
000220 17 df ee 3d e6 95 31 3c 95 65 82 3d 93 6d e9 bd
       0.11663645 0.010838961 0.063670315 -0.11397853
000230 14 a9 19 3d bc 9f 2f be 2d d0 4b 3d d0 f8 07 be
       0.03751476 -0.17150778 0.04975908 -0.13278508
000240 52 a2 87 3d 6f fa ab bd 4c 0f 8e 3d f1 3e 10 be
       0.06622757 -0.08397376 0.069365114 -0.1408651
000250 43 ea 24 3e a7 9b 94 bb 73 45 bb 3d 84 af 94 bd
       0.16104989 -0.004535157 0.09144106 -0.072600394
000260 a8 93 30 3d 85 2d 04 be d4 76 fa 3c 83 03 15 be
       0.043109566 -0.1290799 0.03057424 -0.14552121
000270 92 fb db 3d 5f 87 58 bd e9 0e b8 3d 95 5d 96 3c
       0.107413426 -0.052863475 0.08987219 0.01835517
000280 22 76 2d bd a9 1d 9a be 94 28 12 3e 69 7c 92 bd
       -0.04234899 -0.30100754 0.14273292 -0.071526356
000290 d6 27 80 bd a8 49 67 be 75 e4 b9 3d 08 2e f6 bd
       -0.06257598 -0.22586691 0.09076778 -0.120204985
0002a0 3e 2b 82 3d 4a 42 16 be 79 d5 cc 3d 50 2d 12 bd
       0.06355904 -0.14673725 0.10001654 -0.035687745
0002b0 6c 9f 1a 3d 47 18 04 be 03 98 97 3d 7a 56 b0 bc
       0.037749693 -0.12899886 0.07402041 -0.02152561
0002c0 fd b7 ad 3c 64 6d ce bd b6 b6 6c 3d c0 9b c4 bd
       0.021205897 -0.10079458 0.057791434 -0.096000195
0002d0 eb 33 89 3d f8 c1 c7 bd 73 0b 0c 3e c7 94 e2 bc
       0.06699356 -0.097537935 0.13676243 -0.027658833
0002e0 53 f2 18 3e c0 ec 2f bd b5 46 a9 3d 67 10 fb bd
       0.1493619 -0.04295039 0.082654394 -0.12258988
0002f0 b8 14 31 3e 04 47 0a 3d 62 97 9e 3c 11 c4 f3 bd
       0.1729306 0.033759132 0.019359294 -0.11902631
000300 c3 3b a9 bd bb ca 4c be ef e0 79 3d 5f de b4 bd
       -0.08263352 -0.1999921 0.06100553 -0.088314764
000310 ea f4 42 bc 66 2f 0c be 5a ee 04 3d c6 d1 d3 bd
       -0.011899212 -0.13689956 0.032453872 -0.103427455
000320 59 86 a6 3c 15 2b cf bd 71 cc c0 3d bf cb 8b bd
       0.020327734 -0.10115639 0.09413994 -0.06825971
000330 31 67 3c 3e f4 64 2a 3d 8a 5d 38 3e cd 32 0b 3d
       0.1839874 0.041600183 0.18004432 0.033983994
000340 35 94 16 3d 6a df e6 bd 45 29 fa 3d 34 68 db 3c
       0.036762435 -0.112730816 0.12214903 0.026783086
000350 cd d4 a2 3d 19 53 cc bd 93 bf 42 3d 60 88 a0 bd
       0.07950745 -0.09976787 0.04754598 -0.078385115
000360 95 e0 23 3e 5e cb ab bd 6a 59 7f 3c 19 ff 02 be
       0.1600364 -0.083883986 0.015585283 -0.12792625
000370 c6 5c bc bc 24 85 1f be aa a7 e2 3d 1a f8 9f bd
       -0.022993457 -0.15578133 0.11067136 -0.078109935
000380 77 9f e3 3d 86 77 1f 3b 78 11 98 3d c7 86 35 bd
       0.111144 0.0024332716 0.07425207 -0.044317987
000390 6a 28 48 3d 28 54 84 bc bc d5 f8 3d 7e 53 2d bd
       0.048866667 -0.01615341 0.121501416 -0.042315952
0003a0 5d 0e 48 3e ea 6d 84 3d 8d b8 ed 3d 59 2e 5e bd
       0.19536729 0.06466277 0.11607466 -0.05424342
0003b0 c6 89 4a 3d 3a 06 aa bd 95 1a 41 3e 4f 38 3c 3c
       0.049447797 -0.08301969 0.18857796 0.011488034
0003c0 3f 8d e8 3d 34 6a 41 bd 7b 10 a3 3d b8 db 33 be
       0.113550656 -0.047220424 0.07962128 -0.17564285
0003d0 a2 bb c9 3c 61 52 6b be 2b 54 be bc 0b 9d 8f be
       0.024625603 -0.22980644 -0.023233494 -0.28049502
0003e0 78 bf b0 3d 1e bc 04 be 88 fb 5c 3d 96 d6 45 be
       0.0863027 -0.12962386 0.053950816 -0.1932014
0003f0 c6 f1 58 3d a3 a1 2f be 27 8c 2b bc 15 06 59 be
       0.052964948 -0.17151503 -0.010470427 -0.21193726

encoder.dcrnn_cells.0.gate.weights_pool f4 [2, 65, 128]
000000 f9 71 82 be df 07 b8 bd 34 46 66 3e 08 9b 81 3d
       -0.2547758 -0.08985876 0.22487718 0.06328398
000010 a8 fc 9e 3b 8a ce 04 3d 03 0e 25 3e ac 39 8b be
       0.0048518963 0.032423533 0.16118626 -0.27192438
000020 9d bf bb 3d 0a 8d 6a 3d b5 a4 54 bd a3 7b b7 bc
       0.09167407 0.05726341 -0.05191489 -0.022397822
000030 86 06 83 3d 6d 1b d4 bd ae 05 8e 3e 5c 4f 07 3d
       0.063977286 -0.103567936 0.27738708 0.033034667
000040 f8 ba 67 3d 9e 08 a4 3c a2 76 d5 3d 61 b4 93 3d
       0.05657479 0.02002364 0.10423018 0.07212139
000050 d9 28 0b 3e 04 07 52 be b0 18 2c be 0e c3 8e be
       0.13589801 -0.20510489 -0.16806293 -0.2788319
000060 5d 82 32 3e c4 7d dc 3b c1 e7 9e 3d c0 b2 d1 3d
       0.17432542 0.0067288596 0.07759047 0.10239172
000070 86 e7 b7 be 64 3a 2d 3c 4e cf 02 be 8c dd 78 be
       -0.35918826 0.010573003 -0.12774393 -0.24303263
000080 fb ac 8c be bd 20 c3 bd 43 b1 d3 bb f8 c2 f3 3d
       -0.27475724 -0.09527729 -0.00646034 0.11902422
000090 2c 64 c3 3d b1 31 e7 3b 61 4c 21 3d 21 39 36 3e
       0.09540591 0.007055484 0.03937948 0.1779523
0000a0 15 f0 5f be 51 be bd 3c 22 74 2a 3e 05 6d f3 bd
       -0.21868928 0.023162039 0.16645864 -0.11886028
0000b0 e9 6d bf 3d f2 1e f1 3d 3b c2 b5 bd c7 24 b9 bd
       0.093471356 0.117734805 -0.08874937 -0.09040218
0000c0 5d 41 8c bc a5 f6 19 3d 9f 19 0a 3e 4b c0 47 3d
       -0.017121011 0.037588734 0.13486336 0.04876737
0000d0 5d 77 02 be a0 77 69 be 92 ad 02 be 25 fa 17 3d
       -0.12740846 -0.2279954 -0.12761524 0.03710379
0000e0 94 6a 1e bc 55 44 30 bd 52 3f 70 bd 43 d4 08 be
       -0.009668965 -0.043033917 -0.058654137 -0.13362221
0000f0 b0 20 34 3e 66 4c 3e 3c 04 49 4f bd b8 ba 29 be
       0.17590594 0.0116148945 -0.050606743 -0.16575134
000100 56 b9 23 be f8 31 e9 3d 24 60 06 be 4f e2 37 be
       -0.15988669 0.11386484 -0.13122612 -0.17957424
000110 38 58 7c 3e b0 1c 63 be 29 6e 84 be 1a 4d 2e 3e
       0.24643028 -0.22178912 -0.25865296 0.170216
000120 6e 37 20 be a8 5f 89 be bc fd 7f bd d1 10 d1 bd
       -0.15646145 -0.26830792 -0.06249784 -0.102082856
000130 e0 02 97 3d f4 5c c5 3d 3b 61 93 bd e9 9d 8c be
       0.07373595 0.0963687 -0.071962796 -0.27464226
000140 f3 92 1b be a5 0d f3 bd 25 9b 42 be 6a a3 a9 be
       -0.15192775 -0.11867837 -0.19004495 -0.33132488
000150 ca 5d cc bc 98 ce d9 3d c5 bf 17 3e 60 1c 36 3e
       -0.024947066 0.10635108 0.14819248 0.17784262
000160 7f 05 b3 bd b6 73 7e be a3 96 59 be ae 42 48 be
       -0.08741283 -0.24848828 -0.2124887 -0.19556686
000170 15 43 a7 3e 64 55 c4 be 03 78 61 3e ac 34 b7 bd
       0.32668367 -0.38346398 0.22018437 -0.08945593
000180 d0 39 00 be e0 15 7b 3c b7 8e d9 3c 13 39 51 be
       -0.12522054 0.01532504 0.02655731 -0.20431928
000190 93 6b 8e 3d 6f d4 93 be 87 50 7f be 95 e4 c8 3c
       0.06954112 -0.2887301 -0.24933062 0.024523059
0001a0 9e f5 d9 bc bb fe 9c be 59 8a fb 3c 22 f2 5b 3e
       -0.026606377 -0.30663094 0.030705618 0.21479085
0001b0 65 7b 9e bd 10 46 8d be cb d6 47 be 09 e2 42 3e
       -0.077383794 -0.27592516 -0.19515531 0.19031538
0001c0 be 6d 13 3e da c7 4b be c0 83 1c be 97 a9 26 3e
       0.14397332 -0.19900456 -0.15284634 0.16275631
0001d0 3f d8 c3 3d a0 ed 8f bc 64 fa 3f 3c 46 14 fe bd
       0.0956273 -0.017569363 0.011717413 -0.124062106
0001e0 cc 91 04 3d 42 72 8e bd 1c 14 3d 3e 8c 61 aa 3d
       0.032365605 -0.06955387 0.18464702 0.08319387
0001f0 f3 e1 32 3e b6 42 09 be fb 7d 8c 3e bf 56 47 3e
       0.17469005 -0.13404354 0.27439865 0.19466685
000200 cc 47 2b 3e 7c 1a 90 be 99 2e cc bb 13 78 a8 be
       0.16726607 -0.28145206 -0.006231141 -0.3290411
000210 98 58 10 bc 7e 9a 56 3c 65 67 d4 bd 4e 57 85 bd
       -0.008810185 0.013098357 -0.103712834 -0.06510793
000220 b8 cb a4 bd 9a 2b b2 bd cd 35 76 bd 13 14 19 be
       -0.08046669 -0.086997226 -0.060109902 -0.14949064
000230 b5 78 c0 be fe de 02 3e 1e 26 9c be 99 35 66 bc
       -0.37592092 0.12780377 -0.3049783 -0.014050865
000240 75 6c a6 bc 90 93 8c be e2 b9 6c bd bf 2c 2a bd
       -0.020315388 -0.2745633 -0.05779446 -0.04154658
000250 ff 2c 99 be 6b 24 ac 3c 93 89 bf bd 43 6e 39 be
       -0.29917142 0.02101346 -0.09352412 -0.18108468
000260 6f 2d bb be 5b 17 bd bd bc b6 80 bd d8 85 fd bc
       -0.365581 -0.0923297 -0.06284854 -0.03094761
000270 e5 d0 24 be ea 0e b1 bd 59 d5 64 be 8b b6 96 3c
       -0.16095312 -0.08645423 -0.2234701 0.01839759
000280 53 2d 7c 3d be 1f 88 be d5 5b b2 3d 8d 4b 5f be
       0.061566662 -0.26586717 0.08708922 -0.21806164
000290 09 c9 44 be 0e f0 cf bd e7 aa 67 bd 03 2c 4b 3d
       -0.19217314 -0.10153209 -0.05655947 0.04960252
0002a0 d7 24 a0 be d9 ad ac bd 83 8e 4e bd 71 04 b3 be
       -0.31278107 -0.08431596 -0.05042888 -0.34964326
0002b0 78 ce c6 bc a5 50 24 bd 7f 34 be be bb c1 c8 bb
       -0.024268374 -0.04011597 -0.37149426 -0.00612661
0002c0 b3 db 65 3d 80 c0 53 bd 7e 38 3d 3c 0a f4 81 bd
       0.056117725 -0.051697254 0.011549113 -0.06345375
0002d0 2e d4 40 3b 75 69 41 3c bd 91 20 be 07 46 d5 be
       0.0029423344 0.011804928 -0.15680595 -0.4165499
0002e0 fc ea 28 be e2 b4 19 be 62 7b 96 bc 94 d8 59 3d
       -0.1649589 -0.15010408 -0.01836938 0.05318506
0002f0 a3 9a 95 be 48 1f 15 bd 60 fc d3 bd aa 83 92 3d
       -0.2921954 -0.036406785 -0.10350871 0.07154019
000300 d3 e7 11 bc bf 83 84 3d a7 d3 7f bc a4 93 44 bc
       -0.008905369 0.06470441 -0.015614427 -0.011998091
000310 18 28 2f be f6 9d a0 3d 33 08 1d bc ee 77 93 bd
       -0.17105138 0.07842629 -0.009584474 -0.07200609
000320 7c 72 bd 3d 06 16 23 bd f3 a1 e6 3d a7 b2 cf bc
       0.09250352 -0.039815925 0.11261358 -0.025353743
000330 b8 4c ae bb 00 8c 6f bd df 55 59 3d f0 14 91 3d
       -0.005319204 -0.058483124 0.05306041 0.07084072
000340 8c 78 bb 3d e8 15 cb bd fa ab c1 3d 2c 1d 6c 3d
       0.09153852 -0.09916288 0.0945663 0.057645008
000350 d8 fb 12 3d 3f 67 0d bd 96 68 4c bd f1 fb 3e be
       0.03588471 -0.03452229 -0.04990443 -0.18650796
000360 48 7f d0 3c ea fd 15 3d d8 4c b6 3d e7 52 bb 3d
       0.025451317 0.036619104 0.089013755 0.09146672
000370 12 1a 5c bd 31 e7 b9 3d 07 0c 85 bd 50 d9 79 bd
       -0.0537358 0.090772994 -0.06496435 -0.06099826
000380 de 55 8e bd d6 22 90 3d 85 40 38 bd 78 3e 41 bd
       -0.069499716 0.070378944 -0.044983406 -0.047178715
000390 aa d5 01 3d 77 25 1e 3d 15 7b a6 3d e0 78 d0 bc
       0.031697907 0.038609948 0.08128945 -0.025448263
0003a0 8f 92 df bd a5 69 cc bc 52 98 a2 bd 52 a8 2c 3d
       -0.10916626 -0.024952719 -0.07939209 0.04215271
0003b0 f3 df 95 bd 01 a7 c5 3c 08 f0 e1 bc f3 77 c9 3b
       -0.073181055 0.024127485 -0.027580276 0.0061483323
0003c0 d1 98 65 bd 8e a6 c6 bc 68 c2 35 bc 53 86 7e bd
       -0.05605394 -0.024249341 -0.011093713 -0.06213982
0003d0 53 19 1c 3d de 1b 06 be d5 24 0a bd 65 78 bc bc
       0.03811009 -0.13096568 -0.033726532 -0.023006627
0003e0 53 d2 40 3d 0d 45 dd 3c a3 70 a5 bd 3c 96 d6 3c
       0.04707558 0.027010465 -0.080781244 0.026194684
0003f0 b2 e4 4f 3d 2b 8e db bb 6d c2 f5 bc 90 83 de bc
       0.05075521 -0.0067002974 -0.029999936 -0.027162343

encoder.dcrnn_cells.0.gate.bias_pool f4 [2, 128]
000000 c7 6c aa 3e 0f df e4 be 33 44 2f 3e 1f e0 f4 bd
       0.33286116 -0.4470143 0.1711586 -0.1195681
000010 73 a0 c5 3e 73 23 9a 3d f0 62 09 bd 9b 27 f2 bd
       0.38598976 0.07526293 -0.03354162 -0.118239604
000020 7a b6 32 3d b7 e0 db bd 20 9c db 3d a2 ff c3 bd
       0.043631054 -0.1073622 0.10723138 -0.095702425
000030 f3 db bf be f6 4b 8f 3d 6b 85 d5 bc 99 d4 1c bd
       -0.37472495 0.0699691 -0.026064595 -0.038288686
000040 1e f9 46 bd e6 b5 1b be bb 79 83 3d 49 76 11 be
       -0.04857742 -0.15206107 0.064197026 -0.14205278
000050 1e e7 9e bc 78 8d 63 bd b9 03 96 3d ea 14 73 be
       -0.019397315 -0.055554837 0.07324929 -0.23738447
000060 35 2c 35 bd 69 8c 97 bd 4b 98 9d bd b8 ea 18 3e
       -0.044231612 -0.07399828 -0.07695063 0.14933288
000070 d5 8f d9 3d f0 6e 79 bd 54 1f 69 bd eb 9b 02 3f
       0.10623137 -0.060896814 -0.056914642 0.5101916
000080 7c 20 8b 3d e9 47 1b be 9c 25 15 3e 1c e6 4a be
       0.06793305 -0.1516415 0.14565128 -0.19814342
000090 2a 69 a1 be 6f 12 72 be 32 6b 8e bd bc 1d fd bd
       -0.31525546 -0.23639844 -0.0695404 -0.12359187
0000a0 e6 e2 d6 bb 41 7c 3a 3e 3e 31 05 be 14 8f 81 3c
       -0.00655781 0.18211462 -0.13007066 0.015815295
0000b0 94 0a d6 3d 2d 73 ca 3d f8 9f b5 be cb 89 06 3e
       0.10451236 0.09885249 -0.3547361 0.13138501
0000c0 7e 9d 53 3e 27 b0 73 3e 6e 09 3a 3e 33 a7 be 3d
       0.20665547 0.23797666 0.1816766 0.093092345
0000d0 78 76 58 3e 62 96 9b 3d f6 7f 2c be 84 95 80 be
       0.21138942 0.075970426 -0.16845688 -0.2511407
0000e0 cc c2 5c be 2d 18 3f 3e 87 40 8c 3d 6a bb 34 3e
       -0.21558684 0.18661566 0.06848245 0.17649618
0000f0 24 31 9a bc e8 f5 13 3d 35 9e a0 3c 8e 66 10 3d
       -0.01882226 0.036123186 0.019606689 0.035254054
000100 9d e0 c5 3d 84 af 12 3d 90 a7 a9 3d 2e 61 68 be
       0.09661982 0.035811916 0.08283913 -0.22693321
000110 e1 7b 99 be c3 4d 2b 3e 45 ee 1a be 2d 9b 9f be
       -0.29977325 0.16728882 -0.15129955 -0.31173077
000120 01 5e 39 3e 49 a9 23 be 1c 65 ef 3d e8 77 b3 bc
       0.18102266 -0.15982546 0.11689207 -0.021907762
000130 d8 eb b3 3d 01 f1 1d 3d 1c 8b 18 3e ae a5 5e 3d
       0.08785218 0.038559917 0.14896816 0.054357223
000140 a7 3c 0e bd 03 08 01 be b7 ec 36 bd ce 8a dd bd
       -0.03472581 -0.12600712 -0.044659343 -0.108174905
000150 a8 d7 fb bc b4 4a 4e be c3 82 60 bd 3e 2f ee bc
       -0.030742481 -0.20145684 -0.054812204 -0.029075261
000160 ba 00 c2 3d 48 a9 e4 3c ab 3b 37 3e 3a 70 6b 3d
       0.09472795 0.02791275 0.17893855 0.057480074
000170 e2 25 0d be 8b e1 4a bd 9b 43 54 3e 15 89 de bb
       -0.13783982 -0.0495315 0.20728914 -0.006791244
000180 77 bd 01 3d 17 e4 03 bd e5 db c4 bc 57 43 63 be
       0.03167483 -0.032199945 -0.024030635 -0.22193657
000190 7c ae b3 bd ab 7e bd bd 52 12 00 3e 3d aa 2d be
       -0.08773515 -0.092526756 0.12506989 -0.16959472
0001a0 b5 cf 5f bd f2 fb 90 be 64 68 f5 bd 1c ee 05 be
       -0.054641444 -0.2831722 -0.119828016 -0.13079113
0001b0 d7 85 87 be ef e8 21 be 5e dc 71 be 19 3a 1f 3e
       -0.264693 -0.15811513 -0.2361922 0.15549506
0001c0 10 51 0c be ba e0 17 be c9 8c 52 be 3e e2 55 3d
       -0.13702798 -0.1483182 -0.20561518 0.052217714
0001d0 ea 9f 1c be 1a ca e5 bd df 78 14 3e 37 dd 08 3d
       -0.15295377 -0.112201884 0.14499234 0.033414092
0001e0 3f 89 32 3e 6b cb f0 bd 14 33 65 3c 58 bb f1 bd
       0.17435168 -0.11757549 0.013989229 -0.11803311
0001f0 de 8c 66 bd 81 d6 39 3e a4 eb 6a be 06 9a f5 3d
       -0.056286685 0.18148233 -0.22941452 0.11992268
000200 fa cd 7e be 4b 5c 93 3e 07 a8 c0 bd 4d 10 a6 3e
       -0.24883261 0.2878135 -0.09407049 0.32434312
000210 7b a8 40 be 9f 82 d8 3d d6 8c a0 bb 41 cf 9b 3e
       -0.1881427 0.10571789 -0.0048996015 0.3043156
000220 b2 2d 1c 3e 0d 85 37 be b1 d8 80 be 2f d4 89 3e
       0.15251806 -0.17921849 -0.25165322 0.26919696
000230 5d 7f 96 3e d5 76 98 3c 00 47 aa 3e 67 8a ac bd
       0.29394045 0.018611351 0.33257294 -0.08424836
000240 1d dc a5 bd 84 1f 86 3d 05 37 30 be 7e 4d 11 be
       -0.08098624 0.0654898 -0.17208488 -0.14189717
000250 fa 3f 70 bd 1e ef 0d bd 07 9f 08 3d 49 c3 49 3e
       -0.058654763 -0.034651868 0.033354785 0.19703402
000260 c5 3e b0 3e a6 b4 c1 3d e9 3f 40 be 2a 6d a9 3d
       0.3442289 0.09458284 -0.1877438 0.082727745
000270 65 38 24 3e e3 e6 90 bd 90 0e 98 3d 0c b6 46 3e
       0.16037138 -0.07075288 0.074246526 0.19405383
000280 5b ab 27 be ee 7b 66 3e c2 55 26 be b3 4e 93 3e
       -0.1637396 0.22508213 -0.16243652 0.2877098
000290 61 b9 89 3e 1d 34 d1 3d 39 a7 67 be 93 71 17 bd
       0.26899245 0.10215018 -0.22622384 -0.036973547
0002a0 e0 2f 2c 3e d5 b5 fd bd dd ed ee bc db 9e 4d 3c
       0.16815138 -0.12388197 -0.029166156 0.012550081
0002b0 0c 51 bc bd e8 14 e3 3d 76 85 7e bd c3 c0 81 be
       -0.09195146 0.11087972 -0.062138997 -0.25342378
0002c0 34 02 04 be 4c 05 be bc a6 14 22 be e1 29 d6 3d
       -0.12891465 -0.023195885 -0.15828189 0.104572065
0002d0 f3 1d fe 39 e5 58 46 be 28 f3 43 3e fd 7d 3b 3d
       0.0004846897 -0.19369848 0.19135725 0.04577445
0002e0 37 64 ca bc 9c 70 8e bd c4 3c 68 bd 23 10 67 be
       -0.02470599 -0.06955072 -0.056698576 -0.2256475
0002f0 70 64 bb 3d a8 29 1a 3d 47 f4 1f 3e 72 07 21 3e
       0.09150016 0.037637383 0.15620528 0.15725496
000300 e8 70 37 bc 79 59 39 be 83 82 e0 bd 58 b2 70 be
       -0.011196353 -0.18100537 -0.10962393 -0.23505533
000310 9e 50 ce 3d 44 1a 48 3d 76 0f 03 3e 47 27 33 3d
       0.1007397 0.048853174 0.12798867 0.04373863
000320 4b 18 04 3c a9 b8 10 3e 58 58 81 be 93 d8 a6 b8
       0.0080624325 0.14132942 -0.25262713 -7.955837e-05
000330 e1 68 52 be d2 82 5d 3e a2 e9 50 3d a2 7d 0c be
       -0.2054782 0.21631935 0.05100406 -0.137198
000340 c7 d7 65 be c5 0e 83 3e a3 d7 7f 3e bb 4f 16 be
       -0.22445594 0.25597206 0.24984603 -0.14678852
000350 53 88 d8 3d f1 47 b3 3e a3 bc 13 be 48 78 a5 3e
       0.10572877 0.35015824 -0.14427428 0.3231833
000360 1e 3a 38 be 6a aa 07 3b ba 24 0d bd 0d db 85 3d
       -0.1799092 0.002070094 -0.034458853 0.06535921
000370 5d 8c 95 bd 3c 97 46 bd 9e 6c 8f bc cb 8b 49 be
       -0.07302163 -0.048484072 -0.017507847 -0.19682233
000380 de 7c 90 3e 3c de 5c bd 2d 96 68 3e 10 82 3d 3e
       0.28220266 -0.053922877 0.22713538 0.18506646
000390 e1 1b 1d be ec c3 a0 bc 74 77 2a bd c7 b9 01 bd
       -0.15342666 -0.019624673 -0.041617826 -0.03167131
0003a0 bf 0c ad 3d eb 4d 46 bc 4e b1 26 be a6 a4 6f be
       0.08449697 -0.012103538 -0.16278574 -0.23402652
0003b0 6a b4 48 3d 8d 4b 59 3e 9f f2 ce 3d 2c 75 bc 3d
       0.04900018 0.21220227 0.1010487 0.09202036
0003c0 f6 53 7c 3e 32 5d ab 3e 68 63 c0 b8 05 be f9 bd
       0.24641404 0.3346954 -9.173789e-05 -0.121944465
0003d0 3f d3 87 3e 46 bb d8 3d db cd b8 bd 7c 64 59 3d
       0.26528355 0.105825946 -0.09023639 0.053074345
0003e0 75 20 98 3d 3f 96 85 b9 b0 1f 5c 3e 27 d9 d1 bb
       0.07428066 -0.0002547968 0.21496463 -0.0064040604
0003f0 7d 1c d8 bd ae af ef bd af 4c 9b bd 9f fc d7 3d
       -0.10552309 -0.1170343 -0.075829856 0.105462305

encoder.dcrnn_cells.0.gate.linear.weight f4 [128, 65]
000000 10 48 3e be c6 43 cd 3d a6 73 9d 3d 83 50 7a 3c
       -0.18582177 0.100226924 0.07688074 0.015277985
000010 20 2f 03 3e f9 1e e2 3d 7c bf 59 3e f7 4e d4 3e
       0.12810946 0.11041064 0.21264452 0.41466495
000020 10 d5 c2 bb d2 8f a6 3d d3 ff c5 3e 32 9a 28 3d
       -0.005945809 0.081329 0.3867174 0.041162677
000030 6c a2 5c 3d b7 e0 9e 3e b2 6a 34 bc 92 58 31 bc
       0.053865835 0.3103082 -0.011011766 -0.010824339
000040 85 10 b4 3d e7 8c 0f bf 79 96 c0 bd 7d ce 63 be
       0.08792213 -0.56074375 -0.094037004 -0.22246738
000050 8d d4 24 bc 72 06 93 3d c9 20 57 3e fe 25 1c 3e
       -0.010060442 0.07178964 0.210086 0.15248868
000060 a5 19 23 3e a6 d1 9c 3d 2f 54 26 3e 65 7f 03 3e
       0.15927751 0.07657175 0.16243051 0.12841566
000070 e6 0b d8 bd fe c5 5e 3d cf d8 cd 3e b9 57 10 3e
       -0.105491444 0.05438804 0.40204474 0.14095964
000080 b1 e1 4a be d2 35 9b bc 7f 71 4f 3e 1d 36 77 bd
       -0.19812657 -0.018946562 0.20258139 -0.06035434
000090 57 16 3a be 22 a7 a6 3d 39 a7 ba 3c 6d 21 4e 3e
       -0.18172584 0.08137347 0.022784816 0.20129938
0000a0 86 b7 79 3e ec 24 26 3e e5 34 34 be ff 70 4a 3d
       0.24386415 0.16225022 -0.17598303 0.049424168
0000b0 9a a2 32 3e 57 8f 8d 3c 2d 2f b1 3d d3 f8 86 3d
       0.1744484 0.017280264 0.08651576 0.06590428
0000c0 d3 95 cf bd 6d 19 8b 3d 56 3d 07 3e 79 7b b1 3e
       -0.101359986 0.06791959 0.13206992 0.34664515
0000d0 d6 91 5f bd d6 22 51 3e 89 af 19 3e 38 11 5c 3e
       -0.05458244 0.20423445 0.15008368 0.21490943
0000e0 88 ad 8c 3e f1 0d 7b be 77 b6 2e be c7 b3 1b 3e
       0.27476144 -0.24517037 -0.17061792 0.15205298
0000f0 62 22 66 3e a5 8a c1 3d 45 61 88 bd 2f 2a 4a 3e
       0.22474054 0.094502725 -0.06659178 0.19742654
000100 5f 6a da 3c e8 74 96 3b 76 04 48 bd 0d 45 3f 3e
       0.02666205 0.004591573 -0.04883238 0.18678685
000110 d3 87 58 be 1b bb 9b bd 91 ba 7a bd e7 11 07 be
       -0.21145563 -0.07604047 -0.06121308 -0.13190423
000120 fd cf 73 be 4c 50 1d be ab e0 11 3e 0b fd 36 be
       -0.2380981 -0.15362662 0.1424586 -0.17869966
000130 54 9c 84 3e a9 05 b9 3d bd 7d 46 bd ff 71 8a bc
       0.2590052 0.09034283 -0.048459757 -0.01690006
000140 06 9a 3f 3d fe 16 4f be bb df 91 bc dd c9 0b 3e
       0.046777748 -0.20223615 -0.017806878 0.13651223
000150 0a 85 79 bc a8 37 df 3c d7 47 31 bd d4 1a 95 3d
       -0.015229473 0.027248219 -0.043281402 0.07280508
000160 3f b9 30 be 76 14 06 be 72 99 e2 3a c7 d8 35 be
       -0.17258166 -0.13093743 0.0017288162 -0.17758475
000170 73 45 c8 3b 93 cd bc 3c f8 26 33 be f8 f7 06 be
       0.0061117946 0.023047244 -0.17495334 -0.1318053
000180 2e b1 22 be 07 6d c8 3b 5b d6 86 3d ff 48 8c 3a
       -0.15887901 0.0061165127 0.06583854 0.0010702907
000190 6a e1 92 3d 62 9f 31 3d e6 ee 1a be b2 3f 9c 3e
       0.071719006 0.04336489 -0.15130195 0.30517346
0001a0 ff 38 9e bd 3b 77 19 bd 29 b9 32 be 31 70 ca 3d
       -0.07725715 -0.037467223 -0.17453445 0.0988468
0001b0 1d 20 81 3d 9f cc ca bd 34 67 71 bd cb c8 e4 bd
       0.06304953 -0.099023096 -0.058936313 -0.11171111
0001c0 4d 90 39 be 95 92 eb 3c 8b 50 01 3e 8f 44 ab bd
       -0.18121453 0.02875642 0.12628381 -0.08362686
0001d0 3f b4 10 be 13 57 99 bd 50 72 af 3d 76 9e 51 bd
       -0.14131258 -0.07487311 0.08566725 -0.05117651
0001e0 fe 4c cd bd 96 26 6c 3d 26 26 75 3e d4 31 1b be
       -0.10024451 0.057653986 0.23940334 -0.15155727
0001f0 7e bf 78 be e8 7f 07 be b3 43 23 bd 75 2c 48 3e
       -0.24291798 -0.13232386 -0.039859485 0.19548209
000200 84 1a 68 3d 92 35 49 be 76 d5 87 3e 82 4e 0f be
       0.056665912 -0.19649342 0.26530045 -0.13994792
000210 7a af fb 3c 36 d1 10 be 12 b5 52 3e eb 9d c6 bd
       0.030723322 -0.14142308 0.20576885 -0.09698089
000220 b4 6f 9f bd 27 f2 ea bd 4b 2e 1d 3e 8b 51 32 3d
       -0.077849776 -0.11471968 0.1534969 0.043534797
000230 21 0f 52 bd 3e 0e 86 3d 1a cf ff bc 73 42 8d 3c
       -0.05128396 0.06545685 -0.031226683 0.0172436
000240 85 78 73 3e fd 2e 95 3d ba a1 ff bd 56 cf c5 3b
       0.23776443 0.07284353 -0.12482019 0.0060366793
000250 ac 19 6f 3d f9 2c 70 3d 93 0c 39 3e 95 c8 a3 3d
       0.058374092 0.05863664 0.18071203 0.07997242
000260 14 d0 8f bd 18 ce ce bd 55 c8 20 3e 16 34 0f be
       -0.0702211 -0.10097903 0.1570142 -0.13984713
000270 44 db d0 bd 46 74 0d bd 87 9a 88 be 40 7e cf bd
       -0.101980716 -0.034534715 -0.26680395 -0.10131502
000280 75 ba 6a be 9a df ea 3d 53 e0 86 3d 8e 30 12 be
       -0.2292269 0.1146843 0.06585755 -0.14276335
000290 bc 75 56 bd 32 f6 91 3e 3c a9 8a 3e e6 c6 98 3d
       -0.052358374 0.28508145 0.2708224 0.07459812
0002a0 15 f3 5e 3e ee 7f 47 3e eb f4 31 3e 47 34 62 bc
       0.21772416 0.19482395 0.17378585 -0.013806409
0002b0 4b 13 f4 bd 59 2f a6 bd f0 86 de 3d ff e8 1d bc
       -0.11917742 -0.081144996 0.10865581 -0.00963807
0002c0 05 ca 07 3e 07 8a 2e bd 36 0a d4 3d 90 2c 55 3d
       0.13260658 -0.042612102 0.1035351 0.05204445
0002d0 57 65 0d 3e 79 86 73 bd 9a 43 3f be ce 6c 07 be
       0.1380819 -0.059454415 -0.18678132 -0.132251
0002e0 ad 7a ed bd 29 ff 9c bd 00 fc fe 3d 55 df cc 3d
       -0.11595664 -0.076658554 0.12450409 0.10003535
0002f0 53 43 14 be 62 06 58 be ac 9c 13 be 95 7d 99 be
       -0.14478807 -0.21096185 -0.14415234 -0.29978624
000300 ba 44 46 be d6 1d 25 3d 0a 46 e3 3d 8e 35 9d bd
       -0.19362155 0.040311657 0.11097343 -0.0767623
000310 5e f4 52 be 22 f4 a9 bc cc bc 6a bc 85 0f 80 3d
       -0.20601031 -0.020746294 -0.014327239 0.0625296
000320 dd 11 6a be a2 9e 31 be 5f 4c d9 bd fb 8a 83 3c
       -0.22858377 -0.1734567 -0.1061027 0.016057482
000330 41 57 81 3e 5c fd 93 be db fe d4 bd 87 48 cd 3d
       0.25261882 -0.28904235 -0.10400172 0.10023599
000340 09 7f c6 3d 04 be 34 be 53 04 26 3e eb 17 4f be
       0.09692199 -0.1765061 0.16212587 -0.20223968
000350 93 53 b7 3d d2 52 05 3e 69 41 b3 3e ca cb a7 3e
       0.089514874 0.13019875 0.3501084 0.32772666
000360 cb 46 0f 3d fb 29 10 3e 18 73 2a 3e 6e 40 ca ba
       0.034979623 0.14078514 0.16645467 -0.0015430578
000370 9b d2 e9 bd ec 92 06 be e8 3c 63 be 18 16 20 be
       -0.11417123 -0.13141984 -0.22191203 -0.15633428
000380 25 6e 05 be 03 00 23 be 55 ba 64 3e 9b 44 f8 3e
       -0.13030298 -0.15917973 0.22336705 0.48489842
000390 87 3a 80 be 46 a1 4e 3e d5 1b 0f bd 05 26 67 3e
       -0.25044653 0.20178708 -0.034938652 0.22573097
0003a0 ea 74 42 3c 4e 22 98 3e 9a 47 2f be 95 88 4c bd
       0.011868695 0.29713672 -0.17117158 -0.049934942
0003b0 bb cf 3b 3d e2 aa 7f 3e d8 6e 23 3e 7d 50 cb bb
       0.045852404 0.2496753 0.15960252 -0.0062046633
0003c0 ca e2 66 bc 97 32 9d be 11 da 73 3e 60 bc 3e be
       -0.014092157 -0.3070266 0.23813654 -0.18626547
0003d0 c1 a1 0e be 3b 5c 56 be 8a bc 38 be 21 6e 13 3d
       -0.13928892 -0.2093362 -0.18040672 0.0359937
0003e0 93 18 50 be c6 b3 fb 3d d7 ee 89 bc 4f 89 95 3d
       -0.20321874 0.122901484 -0.01683752 0.0730158
0003f0 66 69 b6 3e 22 a8 00 bd 94 cc 27 be d1 34 59 be
       0.35627288 -0.031410344 -0.16386634 -0.21211554

encoder.dcrnn_cells.0.gate.linear.bias f4 [128]
000000 c9 1d fb 3e fe 9a ff 3d bb cf 25 3e 84 ac 82 bc
       0.49046162 0.12480734 0.16192524 -0.015951402
000010 72 91 68 3f ef 00 09 3f f4 83 e7 3e 37 3f d9 3e
       0.9084693 0.5351705 0.4521786 0.42431042
000020 62 4d 53 3f e2 48 66 3e 90 45 42 3f 29 e9 06 3f
       0.8253995 0.2248874 0.75887394 0.52699524
000030 48 8f 44 3e bd 6c fe 3e e9 3c 16 3f ee 14 79 3f
       0.19195282 0.49692336 0.5868669 0.9729756
000040 fe 49 54 3f 1a 4f bf 3e 26 2c 43 3e 7d 28 2d 3f
       0.82925403 0.37365037 0.1905981 0.67639905
000050 fb 16 ac 3e 43 26 0c 3f 64 d1 5f 3f 75 b2 be 3e
       0.33611283 0.5474588 0.8742888 0.37245527
000060 66 cd 0e bd 1c d8 f1 3e 05 a3 48 3f 41 50 52 3f
       -0.034863852 0.4723519 0.7837375 0.8215371
000070 ed 31 dc 3e bc b9 e0 3e 12 ce 52 3f 22 7a 05 be
       0.4300684 0.43891704 0.8234569 -0.13034871
000080 f7 6e a4 3e 75 d9 e3 3e d8 c5 6f 3e 97 f4 24 3f
       0.3211591 0.44501844 0.23415315 0.64435714
000090 f1 99 e7 3e 34 73 43 3d f4 05 c6 3e 15 27 0a 3f
       0.45234635 0.047717288 0.38676417 0.53965884
0000a0 87 3e c6 3c 20 50 c8 3c d2 f7 87 3e 4a ae 83 3e
       0.024199737 0.02445227 0.2655626 0.2571891
0000b0 b9 1d 5b 3f 0e ff 1d 3f 02 ae dc 3e c1 af 7e 3f
       0.8559223 0.6171731 0.43101507 0.9948693
0000c0 01 d7 60 3f 8e 01 4e 3f 68 ab fe 3e 8d 88 fd 3e
       0.8782807 0.8047112 0.49740148 0.49518242
0000d0 9b 34 ce 3e 80 b8 83 3f 9d 6b c1 3e 17 cb f5 3e
       0.4027451 1.029068 0.37777415 0.48006508
0000e0 c7 8a 1e 3f e1 3a 28 3f 08 0f 5c 3e 8c 07 62 3f
       0.6193051 0.6571484 0.21490109 0.88292766
0000f0 39 58 38 3f 9c c9 86 3e c5 83 12 3e aa 86 77 3f
       0.7200962 0.2632569 0.14308079 0.96689856
000100 4d e7 ca 3e 54 52 74 3e 1b 43 17 3f 51 1a a6 3e
       0.39629593 0.2385953 0.5908677 0.32441953
000110 40 30 1b 3f 10 85 86 3f 95 70 5c 3f 47 63 2c 3f
       0.606205 1.0509357 0.86109287 0.67338985
000120 4a 00 ee 3e 54 6b 4a 3f 60 e2 93 3f 48 1f 9d 3d
       0.46484596 0.7907002 1.1553459 0.07671982
000130 ed 3c 4f 3e 66 33 fa 3e 48 ca 8a bc 5d 4c 07 3f
       0.20238085 0.4886734 -0.016942158 0.52850896
000140 9b b7 1f 3f 0d cd 30 3f 00 5e 5f 3f 2c af 24 3f
       0.62389535 0.6906288 0.8725281 0.6432979
000150 73 05 c7 3c 29 b0 3b bd 4a a0 29 3f a6 de 45 3e
       0.02429459 -0.045822296 0.66260207 0.19323215
000160 05 57 b9 3d c6 34 bd 3e e5 f2 47 3f 5b fa 05 3f
       0.09049801 0.36954325 0.78105 0.5233514
000170 a6 62 19 be 34 11 5c 3f 34 c7 2c 3f 99 38 2b 3f
       -0.14979038 0.8596375 0.6749146 0.66883236
000180 d9 7b 66 3f b7 1e 1a 3f 05 16 d7 3d ef e4 18 3f
       0.90032727 0.6020312 0.10502247 0.59724325
000190 c2 46 cb 3e eb d8 93 3e c2 ce 14 3f 7f 23 a2 3e
       0.3970242 0.28876433 0.5812799 0.31667706
0001a0 42 8b 6a 3f ee f3 5d 3e c6 b8 57 3f d4 a3 9a 3d
       0.9161874 0.21675083 0.84266317 0.07550779
0001b0 c2 dc e1 3e ad d3 3a 3e d0 3f 07 3f 5e 01 83 3f
       0.44113737 0.1824481 0.52831745 1.0234792
0001c0 7a 14 19 3f bd 6c 04 3e aa 4a c6 3d 50 fb 76 3e
       0.5979687 0.12932105 0.0968221 0.24119306
0001d0 95 97 1c 3f 54 f1 01 3f 2a de 2e 3f d5 0f 09 3e
       0.61168796 0.5075886 0.68307745 0.13384946
0001e0 a4 a9 59 3f db 7a 4c 3f 6a 47 a8 3d 12 04 1d 3f
       0.85024476 0.7987496 0.08216746 0.61334336
0001f0 4c 4e b6 3e 30 6b f3 3e 2b 13 9e bc e7 58 1b 3f
       0.3560661 0.47542715 -0.01929625 0.6068253

encoder.dcrnn_cells.0.update.weights_pool f4 [2, 65, 64]
000000 21 1c 78 3e 53 4e 97 be 1e c9 72 3e a0 c3 50 3e
       0.2422948 -0.29551944 0.23709533 0.20387125
000010 0b 23 c9 bd 41 ac 1d be 75 a4 55 be de b0 0c 3e
       -0.09821137 -0.15397741 -0.20863517 0.13739344
000020 67 1d 5a 3e 23 35 22 be 1e e2 46 3e 6c a9 55 3d
       0.21300279 -0.15840583 0.19422194 0.052163526
000030 e5 cd 3b 3e a9 5d 33 bd 48 aa 66 be 81 5c 0f be
       0.18340261 -0.043790493 -0.22525895 -0.14000131
000040 01 9e f6 3d ca 77 59 3e 88 82 b2 3d dc 30 5b 3d
       0.120418556 0.21237102 0.08716303 0.053513393
000050 f3 fd 80 be 14 ef 3d 3e 2a 0f 93 3d ad 1f 71 3e
       -0.25193748 0.18548232 0.07180627 0.2354724
000060 0f c2 49 be 95 01 26 be 3e 53 4a be 42 a3 bd 3d
       -0.19702934 -0.16211541 -0.19758317 0.092596546
000070 1d 08 92 3e 21 0b 54 be c6 60 66 3e ee 5b 2d be
       0.28521815 -0.2070737 0.22497854 -0.169296
000080 8b c0 85 3e b0 7d a1 3e f2 8f 70 bd 46 72 3c 3e
       0.2612346 0.31541204 -0.058731027 0.18402967
000090 fe 96 35 3e ac 26 3b 3e 6f 3b 85 bd c2 a9 bf bc
       0.1773338 0.18276471 -0.06505477 -0.023396377
0000a0 00 aa 79 3e 6f 4b ff 3d 26 86 26 3e 3e 47 88 3e
       0.24381256 0.1246556 0.16262111 0.26616853
0000b0 42 36 f2 bd 1e 3c 2d be 36 a0 90 3e 94 2a 7b 3c
       -0.11826755 -0.16917464 0.2824723 0.015329976
0000c0 9b 39 9f be 5b f9 21 be 46 2e 27 be d1 17 a1 be
       -0.31098637 -0.15817778 -0.16326246 -0.31463483
0000d0 d8 a6 d5 bc 13 fb 1e 3e 1d 19 aa 3e e0 3c ae be
       -0.026080534 0.15525465 0.33222285 -0.3403082
0000e0 95 d5 35 3e 26 0d 56 3e a8 1a 07 be 23 ad c7 3d
       0.17757256 0.20903453 -0.13193762 0.0974982
0000f0 3e 92 cf be 6c 4a 1a 3e 25 d0 79 3e 14 8d 0f bd
       -0.4054126 0.15067452 0.24395807 -0.035046652
000100 f2 2b 12 bd 92 3e a4 bd db 9f a6 bd 0e ec 54 bd
       -0.03568644 -0.08019747 -0.08135959 -0.05198293
000110 cd 96 45 bd 6f 25 33 3c 46 69 9a 3d 1b 9a ee 3c
       -0.048239518 0.010934218 0.075396106 0.029126218
000120 1c 48 c4 bc 22 06 1f 3d b6 21 ba bd 3d e1 e3 3b
       -0.023960166 0.038824208 -0.09088461 0.0069543407
000130 e0 6d 5d bd 1f d7 84 bc 2e ee e1 bd 4a d3 b6 3c
       -0.054059863 -0.016215859 -0.11031757 0.022317547
000140 4a 11 20 bd db 57 8a bd 98 47 01 bc 4c 87 11 bd
       -0.039078988 -0.06755038 -0.007890604 -0.03552942
000150 33 a7 81 bc e8 dd 51 bd 27 a6 b5 bd 03 3d b8 bc
       -0.015826797 -0.051237017 -0.08869582 -0.02249003
000160 31 de 72 bd 10 66 b2 3c 62 a2 82 bc e2 2b 72 bd
       -0.05929393 0.021777183 -0.01594657 -0.05912388
000170 3c b4 40 bd a6 aa 28 3d ff b8 17 bd 3e cc 11 3d
       -0.047046885 0.041178368 -0.03704166 0.03559517
000180 aa ac c0 bc e7 21 13 bd e3 35 d8 ba 9f 79 e7 bd
       -0.023519833 -0.035921004 -0.0016495552 -0.11302494
000190 74 da 98 bd 67 c5 a4 bd a2 92 b9 3c 49 4e c9 bc
       -0.074635416 -0.08045464 0.022652928 -0.024573462
0001a0 2d 56 ae bd 8c 1a 85 bd 97 9b df bd 93 84 89 bd
       -0.085125305 -0.06499204 -0.10918348 -0.0671474
0001b0 35 1a 4d bd ea b7 4d 3d d7 9d 61 bd 2a 80 e5 bc
       -0.05007382 0.050224222 -0.05508217 -0.028015215
0001c0 7b 77 88 bd a1 53 bb 3d 71 c9 5c bc 06 76 78 bd
       -0.06663414 0.0914681 -0.013475762 -0.06065943
0001d0 1e 6d 22 3c 17 ed 0f bd 18 70 51 bd 12 65 d9 bd
       0.009913711 -0.035138216 -0.05113229 -0.10614981
0001e0 97 be 3d bb bc 67 77 bd 43 b4 11 bd 07 04 8b bb
       -0.0028952712 -0.060401663 -0.0355723 -0.0042424235
0001f0 a1 ef bc bd ba 7c 66 bd 4c 80 18 bd 8b f6 51 bc
       -0.09225393 -0.056271292 -0.03723173 -0.012815128
000200 ab 30 66 be 12 25 1b be ea 3b e6 3c 7b e2 fa 3d
       -0.22479503 -0.1515086 0.028104741 0.12250229
000210 43 77 ea bc 0e b9 9b bd 09 92 10 bd 53 50 ab 3c
       -0.028621322 -0.07603656 -0.03529552 0.020912325
000220 0a ef 9d 3d f4 56 c5 bd e0 62 2b be c1 35 95 3d
       0.07711609 -0.096357256 -0.16736937 0.07285643
000230 7f 7d 09 3e c8 d6 ea 3d 82 93 af bd 6c fd e3 bc
       0.13426779 0.114667475 -0.08573057 -0.027830802
000240 de 09 5d 3c e5 2f d1 3d 46 db 5c bc c2 d3 54 3c
       0.013491122 0.10214213 -0.013480013 0.01298994
000250 0b 68 db bd 5a 36 94 3b 1f d5 a8 3d c2 fe a4 3d
       -0.10713204 0.004523081 0.082437746 0.08056404
000260 05 89 af bd 79 e2 4a bd 38 48 cc bb 6a 51 62 3d
       -0.08571056 -0.049532387 -0.006234195 0.055253424
000270 aa fe ae 3d b0 b9 ab b9 fd 7c 04 3d 28 d7 5a 3d
       0.08544667 -0.0003275401 0.03234576 0.053427845
000280 c4 ee 02 bf 70 db bf 3d e1 05 2c 3c 07 c5 1d 3d
       -0.5114558 0.09368026 0.0104994485 0.038517978
000290 f2 0e 90 3d b0 5a ea 3c 03 be 02 3d 91 96 3e 3e
       0.070341006 0.028607696 0.03191949 0.18612124
0002a0 ce 85 81 3d 90 c6 5c 3d 92 33 b6 3d 19 6b a1 3d
       0.06324349 0.0539003 0.08896555 0.078817554
0002b0 af a3 53 bb 00 bf 6d bd 86 65 a8 3d eb 0f 16 3e
       -0.0032293608 -0.05804348 0.08222489 0.1465451
0002c0 7f 96 21 3e af f6 d1 3c 43 3f 2d bd 1e 7c c4 3c
       0.15780066 0.025630323 -0.04229666 0.023984965
0002d0 05 bd 99 bc 46 02 83 bd 8e 97 8d 3c 75 64 20 bc
       -0.01876689 -0.06396918 0.017284181 -0.009789576
0002e0 7e bc 9d 3d 5e 27 ab 3c 2b a7 fe bd 2b b6 32 3e
       0.07701968 0.020892795 -0.124342285 0.17452304
0002f0 51 ff 10 be f0 a9 d0 bd c7 3f 83 3d 53 da eb 3d
       -0.14159895 -0.10188663 0.06408649 0.115162514
000300 b2 4a 93 3c 4b 8c bf bd 50 ae 31 3c 2f f5 f1 3d
       0.017979953 -0.09352931 0.010844782 0.11814343
000310 54 6f 0d be c9 e2 7c 3d 1a 78 84 bd d3 ef 0d 3d
       -0.13812 0.061739717 -0.0646822 0.034652542
000320 85 40 1b 3e 54 2d a9 bd 84 2f 01 3e 6b c1 51 3d
       0.15161331 -0.08260599 0.12615782 0.05120985
000330 83 62 aa bc 50 a2 3b bd df d6 ff 3d 99 20 8d 3d
       -0.020798927 -0.04580909 0.12492155 0.06890983
000340 9d 4e 86 bd 5e 67 0d 3e d6 0e 32 3e c5 21 26 bc
       -0.06557963 0.13808963 0.17388472 -0.010139887
000350 cb 6e 40 bd b7 4d 0f bd ca 57 85 3d 4c db 15 bc
       -0.04698066 -0.034986224 0.06510885 -0.009146523
000360 c3 fb ba 3c 44 ab 53 3d b1 3a 76 bb 9e c3 0d bd
       0.022825127 0.051677004 -0.0037571604 -0.034610383
000370 d4 d5 bd 3d b1 22 7b 3d 88 5f 33 3d 1a 04 ce bd
       0.092693 0.06131238 0.043792278 -0.10059376
000380 2c 21 93 bd 2a c1 7b 3e e5 29 d4 bd d3 46 55 3d
       -0.071840614 0.24585405 -0.10359553 0.052069496
000390 48 cb e2 3d bc 25 73 bb 2b 25 df 3d 8f 31 8d bc
       0.11073929 -0.003710135 0.10895761 -0.017235545
0003a0 9a c2 cc 3c 36 05 6a 3d 4c 0d cd 3b f7 ef c6 3d
       0.024995137 0.057133876 0.0062576886 0.097137384
0003b0 8a c5 02 be e1 ed 2b 3d fd aa 49 3e 20 20 13 bd
       -0.12770668 0.041974906 0.19694133 -0.03591931
0003c0 38 9b ea 3b c8 ad 9c 3d 88 88 8f 3d fc d4 1a be
       0.007159617 0.07650334 0.07008463 -0.1512031
0003d0 ab 30 64 bc 54 d0 f7 3d 4b 82 06 3d d6 66 12 3d
       -0.013927619 0.12100282 0.0328391 0.035742603
0003e0 2b a9 15 3e ce 65 34 3e 9a 5c 74 bd dd a0 9f 3c
       0.14615314 0.1761696 -0.059658624 0.019485885
0003f0 5c 6e 31 be d1 67 50 3d 9c c4 02 3d a9 a5 8d 3d
       -0.17327255 0.050880257 0.031925783 0.06916363

encoder.dcrnn_cells.0.update.bias_pool f4 [2, 64]
000000 1b ef c3 3d e1 eb b2 bd 92 5e 4c 3e c5 f7 8f 3e
       0.0956709 -0.087363966 0.1995795 0.2811872
000010 ad 34 25 3e 7e c3 18 3e d8 3a 51 bd 29 90 88 3d
       0.16133375 0.14918324 -0.05108151 0.06668121
000020 3a 11 c2 bd 7a 10 77 be 88 8c 29 be e1 f8 8f 3d
       -0.09475942 -0.24127379 -0.16557515 0.07029892
000030 0b 9a 55 be 5e ae 05 ba 55 8c 1a 3d 28 b7 58 be
       -0.20859544 -0.000509953 0.037731487 -0.21163619
000040 fe 31 1d 3e aa 7d 02 3e 41 27 51 3e c6 99 6d be
       0.15351102 0.1274325 0.2042513 -0.23203191
000050 5f 8d 0d be c4 06 16 be a2 09 34 bd 10 2b 80 3e
       -0.1382346 -0.14651018 -0.0439545 0.25032854
000060 0f e0 73 3c c1 4a 91 3e 3d 4d a8 be c6 10 57 3e
       0.014884963 0.28377345 -0.32871428 0.21002492
000070 56 79 ab be 39 15 6f 3e 95 0f 99 be 6e 25 8b be
       -0.3349101 0.2334794 -0.298947 -0.27176994
000080 82 2b cd be 68 71 05 be 72 80 8a be a1 17 fa 3d
       -0.40072256 -0.13031542 -0.2705112 0.12211538
000090 2d 24 87 3e 21 f2 92 be 7f 5c 61 3e 8e b5 28 be
       0.26394787 -0.28700355 0.2200794 -0.16475508
0000a0 b7 45 44 3e c5 fe 10 be 65 a6 ae bd 80 15 15 be
       0.19167219 -0.14159687 -0.08527831 -0.14558983
0000b0 6c e0 0a 3e 06 83 6f be 5e 9b 0c bd 59 54 d1 3d
       0.13562173 -0.23389825 -0.034327857 0.10221166
0000c0 c2 c4 ea ba 24 24 8c be 03 cf 86 3d 3c f5 a6 bc
       -0.0017911422 -0.27371323 0.06582453 -0.020380609
0000d0 30 fd 59 be 55 5e cd bd 2b d9 42 3e f6 51 80 be
       -0.2128799 -0.10027758 0.19028156 -0.2506253
0000e0 a8 f6 a1 3e d8 ea 02 be 73 86 de 3c 8c 09 d0 3d
       0.31633496 -0.12784898 0.02716372 0.10158071
0000f0 21 5a 90 be 14 8c 83 be c9 d5 fc 3d e5 0a 8c bd
       -0.28193763 -0.2569281 0.12345464 -0.068380155
000100 ba 62 07 3e 64 41 b3 3c b3 12 9d be fa 5c 00 3e
       0.13221255 0.021881767 -0.3067833 0.12535468
000110 85 9a 8f 3e b2 1e 5e 3d 34 b2 17 be 31 9c 87 3e
       0.28047577 0.054228492 -0.14814073 0.26486352
000120 ca bf 52 be 49 b0 7c 3e 36 87 4f 3e 0b e7 8e 3c
       -0.20580974 0.24676622 0.20266423 0.017444154
000130 6e c4 bc bd 22 5b 09 be 8a 45 df bd 93 eb 62 be
       -0.092171535 -0.1341367 -0.109019354 -0.22160177
000140 d3 8b 4e be d1 36 47 be 86 79 e4 bd 22 6a 86 be
       -0.20170526 -0.19454505 -0.11155991 -0.26252848
000150 b3 30 44 be 67 d4 39 be c2 db 2f 3d e1 15 0b be
       -0.19159202 -0.18147431 0.042934187 -0.13582565
000160 f8 38 5c bd 58 9c 25 be d3 eb 01 3e dc 5a ee bd
       -0.053765267 -0.16172922 0.12687616 -0.11638424
000170 9c 6b 22 3e 12 7c bc bd 5a a9 7b 3e ae c7 3a be
       0.15861362 -0.09203352 0.24576321 -0.18240234
000180 8c 14 03 bd 29 6e 24 3e dd 3c a4 3e 34 26 05 be
       -0.032002017 0.16057648 0.32077685 -0.13002855
000190 fd 13 20 bd 55 dd 49 bd ab 02 d7 3d 8b aa 7c 3e
       -0.039081562 -0.049283344 0.10498556 0.24674432
0001a0 fd f2 36 3e f3 54 42 3d eb 47 29 3e 85 f3 42 3d
       0.1786613 0.047444295 0.16531341 0.04759552
0001b0 7a 35 d9 3d 6e c3 b1 bc f7 1d ef bd 38 7e ab be
       0.10605903 -0.021699633 -0.11675637 -0.33494735
0001c0 5d 50 fb bd 82 0c 28 be b2 b2 2c 3e 2b cb 8d 3e
       -0.122711875 -0.16411021 0.16865042 0.27694067
0001d0 17 05 7d 3e a8 f2 a1 3e 0d b8 26 3e 19 ea a9 3e
       0.24708973 0.31630445 0.16281147 0.33186415
0001e0 06 1e 34 3e d7 30 7c 3e 56 5e 89 3e 67 20 7e bd
       0.17589578 0.24628006 0.26829785 -0.06204262
0001f0 56 d4 59 bd 48 a1 63 3e 09 4f 84 3e 3d 50 4c 3e
       -0.053181015 0.22229493 0.2584155 0.19952483

encoder.dcrnn_cells.0.update.linear.weight f4 [64, 65]
000000 1c f2 1f 3e 89 3f 4d 3d c7 53 96 bd 9c b8 a0 bd
       0.15619701 0.05010942 -0.07340198 -0.078477114
000010 7b 33 fd 3c 74 c8 24 be 85 92 de 3c a7 07 25 be
       0.030908337 -0.16092092 0.027169475 -0.161162
000020 03 4e 58 be 31 97 11 bd 88 e2 9e be 90 f1 28 bc
       -0.21123509 -0.035544578 -0.31032205 -0.010311499
000030 81 55 ff bd 25 36 28 3e c4 d3 93 3d 6d 9f 61 3c
       -0.124674805 0.16426904 0.072181255 0.01377092
000040 cb eb 5c 3d 7f 16 d0 3d 19 ac b1 bb 6d e4 01 3e
       0.053935807 0.10160541 -0.005422127 0.12684794
000050 39 d8 9f 3d ea 53 54 be 25 6c 0d 3e a4 e4 41 be
       0.07804913 -0.20735136 0.13810785 -0.18934876
000060 5f 2f cd 3d 21 1e 9d be 74 ba 14 be ca c2 ef bc
       0.10018801 -0.3068705 -0.14524251 -0.029267687
000070 87 e8 0a 3d 58 b1 ea 3d f9 aa 0a 3d b4 48 07 bd
       0.03391316 0.11459607 0.03385446 -0.03302832
000080 68 00 2a 3e 86 10 47 be 85 f1 f1 bd 2c 65 ad bc
       0.16601717 -0.19439897 -0.11813644 -0.021166407
000090 33 b1 08 3e 6b a8 2b 3d 74 09 63 3e 04 0e f3 3d
       0.13348846 0.041908663 0.22171575 0.11867908
0000a0 f9 3c ee 3a e1 ad e4 bd fd a2 78 3e d5 ea 82 be
       0.001817613 -0.11165977 0.24280925 -0.25569788
0000b0 86 d7 76 be 6d 46 f4 bd 80 0c 18 3e cc 82 26 3e
       -0.24105653 -0.11927495 0.14848518 0.16260833
0000c0 76 f4 ae 3d 24 88 3d bd 7f 10 25 bd e8 f2 a7 be
       0.08542721 -0.046272412 -0.040298935 -0.3280251
0000d0 92 87 93 3d fe 6e 4e bd 21 5c f4 3c 28 a5 00 be
       0.07203592 -0.05039882 0.029829087 -0.12563002
0000e0 ac cb 76 be e4 9b 96 bd 3b 4d 55 3e 90 5e 7f be
       -0.24101132 -0.073539525 0.20830242 -0.24938416
0000f0 a4 26 c2 bd 0c d4 84 be a0 7f 1e 3e 31 0d 47 3d
       -0.09480026 -0.2594303 0.15478373 0.048596565
000100 02 14 35 be e0 16 7f be 98 a0 59 be ff ba 70 be
       -0.17683414 -0.2491107 -0.21252668 -0.23508833
000110 61 19 1b 3e e3 62 dc bc 84 50 e0 bd 5a 7e 76 bd
       0.151464 -0.026902622 -0.10952857 -0.060179092
000120 df e7 98 bc df e8 96 be 33 8b 8f 3d c6 52 c7 bd
       -0.018665252 -0.29474542 0.07008972 -0.09732585
000130 bd b1 fa 3d 71 5b 2d be f3 e5 0f 3e 7b de b6 3c
       0.12240932 -0.16929413 0.14052562 0.022322884
000140 79 4b 54 be 89 d4 87 3c af 82 f6 3d 21 65 75 bb
       -0.20731916 0.016580837 0.12036645 -0.003744431
000150 6b 46 b0 3c 74 26 9e 3e a9 9e 04 3e ba 44 9c bd
       0.021517953 0.30888712 0.12951149 -0.07630296
000160 d3 41 54 be c1 b7 1d be cb 4e 7d bd 23 76 1b 3e
       -0.20728235 -0.15402128 -0.06184272 0.15181784
000170 77 eb 72 bd 3f 39 45 bd 1b 2a 2a 3d f8 ab 3a 3c
       -0.059306588 -0.048150297 0.04154406 0.01139354
000180 c9 e0 a3 3d ea 36 30 3e 06 b1 a3 bd a2 3f 87 3d
       0.08001859 0.17208448 -0.07992749 0.06603934
000190 bc b5 9e bd 53 13 88 ba 4f ff 57 be 3b 8b 96 3d
       -0.07749507 -0.0010381736 -0.21093486 0.07350775
0001a0 52 f8 ca bd ea d8 2f be 16 65 8f bc 5b 54 ec 3d
       -0.099106446 -0.1717259 -0.017504256 0.11539527
0001b0 b2 ba 92 3d 50 45 bd bc e5 3c 88 be 1a 69 fe 3d
       0.071645156 -0.02310434 -0.2660896 0.1242239
0001c0 24 90 07 3e fa ac d4 3d 9c 8b 33 be 6a 0d 2b be
       0.13238579 0.10384555 -0.17533726 -0.16704336
0001d0 a7 82 4c 3d 3d f6 94 be 16 5d 4c be 75 b7 13 3e
       0.049929287 -0.29094115 -0.19957384 0.14425452
0001e0 aa 75 cc 3d 56 2c 3f be ac af 6a 3d 0d f7 18 3c
       0.0998338 -0.18669257 0.05729644 0.009336245
0001f0 11 97 51 3d ac 3a 68 be 32 bb 1e be 43 d2 1e 3e
       0.05116946 -0.22678632 -0.15501097 0.15509896
000200 27 cb e7 3d a6 f7 c3 3d 56 0a 03 3e 2f fe 80 be
       0.11318045 0.095687196 0.12796912 -0.25193927
000210 12 a1 df bd 81 b2 7c be ca 21 a0 3d c2 57 b4 3d
       -0.109193936 -0.24677469 0.07818945 0.08805801
000220 50 8a 54 3d 80 ee 92 3b ca a5 6c be 0c 53 58 3e
       0.051889718 0.004483998 -0.23110119 0.2112543
000230 5c e1 86 3d 5c f1 3a be e7 70 00 be 1c 93 69 bd
       0.06585953 -0.18256134 -0.12543069 -0.05702506
000240 a7 ac fe 3c 6a 41 5f be 82 77 5e be 39 f0 9a 3d
       0.031088186 -0.21802297 -0.21725276 0.0756535
000250 6e 12 70 3e 7c c8 39 3e f4 c6 a2 3d bb 70 df bb
       0.2344453 0.18142885 0.079481035 -0.0068188584
000260 17 ad 75 bd 22 8a 2f 3d 30 5a 54 3d 85 3b 84 be
       -0.059979524 0.042856343 0.051843822 -0.2582666
000270 28 f3 5f bc 52 65 8f bd 5d 98 27 be 95 92 14 be
       -0.013668813 -0.07001747 -0.16366716 -0.14509042
000280 24 7c 43 be 9f ee 3a 3e a1 42 33 3e 5a 59 13 bd
       -0.19090325 0.18255089 0.17505886 -0.035973884
000290 66 72 3f 3c 39 9d f3 3d 63 d9 55 3e 60 72 18 3e
       0.01168499 0.11895222 0.20883708 0.1488738
0002a0 16 11 78 3d 70 4f cd bc 8c 02 d9 bd 1e f2 99 3c
       0.06056317 -0.025062293 -0.10596189 0.018792208
0002b0 30 51 9e 3d 47 d0 56 be fb 28 ba 3d 50 55 8c be
       0.07730329 -0.20977889 0.09089848 -0.27408838
0002c0 c9 7e 7c 3d 5c d1 20 3e a5 19 c2 bd 97 e0 cc bd
       0.06164435 0.15704864 -0.094775476 -0.100037746
0002d0 46 ed 74 be dd df 8a bd f8 5a 1a bd a2 b0 25 3d
       -0.23918638 -0.0678098 -0.03768441 0.040451653
0002e0 05 95 b5 3d 95 b2 ea 3d a1 62 ee bd a2 e4 6b 3e
       0.08866314 0.11459843 -0.11639906 0.23036435
0002f0 75 1d 1b be 4a b2 28 be b1 3b 18 3c 20 ad 3e be
       -0.15147956 -0.16474262 0.009291575 -0.1862073
000300 ba 98 a0 bc cb 9b 1f be a2 c3 5d be 36 8b bc 3e
       -0.019604076 -0.15586774 -0.21656659 0.3682496
000310 ce 9a 83 3d 9e 66 c4 bd 63 0f 52 bd 33 42 b8 bc
       0.06426011 -0.09589885 -0.051284205 -0.022492504
000320 c7 28 3d 3e b5 74 21 be bf 38 7e 3d 8b 16 53 3e
       0.18472587 -0.15767176 0.062065836 0.20614068
000330 4c f2 2a 3e 39 aa 78 be 1b 1b 04 3c 8a 2f b4 bd
       0.16693991 -0.24283685 0.008063103 -0.0879813
000340 ac be f5 3d c2 79 96 3c 93 73 94 3d 8f 6b 6d bd
       0.119992584 0.018368606 0.072486065 -0.057963904
000350 c6 65 90 3d 2d 9d 8f 3d c1 01 f7 3c 3e 47 81 3e
       0.07050662 0.07012401 0.030152204 0.25249666
000360 30 1a ff bc 1c cf 3e be fa cf 0f 3d 2c 4b a2 bc
       -0.031140417 -0.18633693 0.03511045 -0.019811235
000370 97 6a 07 3e be da 54 3d cd dd 33 be 0d 16 5e bd
       0.13224255 0.05196642 -0.17565079 -0.054220248
000380 7a 57 37 be 91 d4 5f be a3 63 0c 3e 35 23 05 be
       -0.17904463 -0.21858431 0.13709883 -0.13001712
000390 27 82 2d 3e d5 4d 40 3e 2f 7b e4 bd da 2c 8d 3d
       0.1694418 0.1877969 -0.11156308 0.068933204
0003a0 23 ce 41 3e 55 44 59 3e 69 b3 f5 3d 30 2b 76 3e
       0.18926291 0.21217473 0.119971104 0.24039912
0003b0 be 9a 20 3e a2 43 3a 3e 29 51 4a 3e a5 6f 87 bd
       0.1568403 0.18189862 0.19757523 -0.066130914
0003c0 eb 18 48 3e 43 19 37 be 9c d8 86 bd 71 84 22 bd
       0.19540755 -0.1788073 -0.06584284 -0.039677087
0003d0 27 3a 40 3e 8f 37 12 bd 8e 34 ae bd b4 6a 0b be
       0.18772183 -0.035697516 -0.08506118 -0.13614923
0003e0 84 f2 ac bd 75 ad 36 be a7 27 00 be 50 9a 1b 3e
       -0.08444694 -0.17839606 -0.12515126 0.15195584
0003f0 28 7b 93 3e 97 37 53 be 4c 15 0e 3e db a0 54 ba
       0.28804898 -0.20626675 0.13875312 -0.00081111275
