mo/TARGCN/model/model_para/PEMSD8/epoch_16.pth (torch, 598407 bytes, 48 tensors)

node_embeddings f4 [170, 2]
000000 68 18 56 3d 4a 5c 8e be 0a df 19 3e 8b e5 62 be
       0.05226937 -0.27804786 0.15026489 -0.22157876
000010 0b ee 29 3e 8e 09 b3 bd f8 13 0f 3d 32 23 99 be
       0.16594712 -0.08742057 0.034931153 -0.29909664
000020 3c 58 f8 3d 63 8b 8e be 59 1e 4e 3d 1f 4e 88 be
       0.12126204 -0.2784072 0.05032191 -0.26622102
000030 55 f7 1a 3e d7 72 59 be 0d 92 2a 3e 08 b9 52 bd
       0.15133412 -0.21235214 0.16657276 -0.05144599
000040 cc 25 6d 3e c6 cc 0c 3d 09 8f 19 3e a2 e6 d3 be
       0.2315895 0.034374975 0.1499597 -0.41386896
000050 7c 3d da 3c fc 88 b0 be 26 ac 44 3e b1 28 8b bd
       0.026640646 -0.3447951 0.19206294 -0.06794871
000060 71 a0 80 3e d2 d8 d6 bd fb 28 80 3e 7a 2c 36 be
       0.25122407 -0.10490574 0.25031266 -0.17790404
000070 c3 a2 4d 3e 68 31 62 be ee c4 f0 bb 76 cd 90 be
       0.2008162 -0.2208916 -0.0073476946 -0.28281754
000080 af 9a a8 3e 07 a7 b7 3d 9c 28 58 3d 1b 71 85 be
       0.32930514 0.08967405 0.052773103 -0.26062855
000090 35 ee 82 3e 64 2b 00 be 09 d9 0f bb 36 3e 92 be
       0.25572363 -0.12516552 -0.0021949431 -0.28563088
0000a0 35 a8 86 3e 84 87 d4 bd 7f 91 3a 3e 32 02 a8 bd
       0.26300207 -0.1037741 0.18219565 -0.08203544
0000b0 a9 7b 0c 3e af bc 89 be 5b 5c 3d 3e 4b e1 0c be
       0.13719048 -0.26901767 0.18492262 -0.13757817
0000c0 bf b6 be 3e d9 59 28 3e 29 74 cf 3d 37 b2 50 be
       0.372488 0.16440524 0.10129578 -0.20380484
0000d0 ed 18 04 3e a1 d4 3a be 8e f2 e2 3d 55 02 4a be
       0.12900133 -0.18245174 0.1108142 -0.19727452
0000e0 c6 98 62 3d b6 73 8b be 11 6e ba 3d 07 d4 01 be
       0.055321477 -0.27236718 0.09103025 -0.12678538
0000f0 b5 13 c3 3d e1 75 07 be e7 b3 15 3e c7 97 9d bd
       0.09525243 -0.13228561 0.14619409 -0.07694965
000100 11 23 8a 3e 33 75 95 bc ad 4b 40 3e bb 2f 8c be
       0.2697988 -0.018244362 0.18778868 -0.27380165
000110 90 69 6e 3e f5 ae 19 3d 98 03 03 be d2 04 cc be
       0.23282456 0.037520368 -0.1279434 -0.39847428
000120 84 74 31 3e 4d 6e f7 bd d2 5a 13 3e 99 86 46 bd
       0.17329603 -0.12081585 0.14390114 -0.048468206
000130 d8 9a 44 3e 9e 3d cd bd 63 09 72 3e 31 7a 02 be
       0.19199693 -0.10021518 0.23636393 -0.12741925
000140 39 5c 6c 3d 52 f3 36 be 7c 6b 3d 3e c7 ef 4e be
       0.057705138 -0.17866257 0.18498033 -0.20208655
000150 14 68 84 3e 2d 2c ee bc 6c 54 ee 3d 40 06 67 be
       0.25860655 -0.029073799 0.11637196 -0.22560978
000160 eb a7 6c 3e 6b 41 67 bd ea b9 b3 3d fe 02 73 be
       0.2311093 -0.05645887 0.08775695 -0.2373161
000170 03 60 d8 bd eb 0c dd be 7c b0 06 3e 46 28 1d be
       -0.10565188 -0.43173918 0.13153261 -0.15347394
000180 8a a2 b8 3c eb 54 c9 be 50 15 2b 3e df ec d2 bc
       0.022538442 -0.393226 0.16707349 -0.025747715
000190 7d 28 7c 3e 53 cf 09 bd a2 27 7c 3e a3 a4 09 bd
       0.2462482 -0.033644985 0.24624494 -0.033604275
0001a0 36 e1 88 bd 7e 82 f9 be 03 73 b7 3c f4 32 8f be
       -0.066835806 -0.4873237 0.022393709 -0.27968562
0001b0 99 82 57 3e fc 35 95 bd ac b1 70 3e f3 7a 03 be
       0.21045913 -0.07285687 0.23505276 -0.1283987
0001c0 75 bd 84 3e 45 4b 88 bd fe 04 94 3e 4a 5e b0 bc
       0.25925794 -0.066549815 0.2891006 -0.021529336
0001d0 bd 36 10 3e d7 07 4c bd 6f 33 d8 3d ff d0 ba bd
       0.14083381 -0.049812164 0.10556685 -0.09121894
0001e0 61 36 df bb 0f 13 74 be b3 8e b8 3c 1f 5a c9 be
       -0.0068119024 -0.23835395 0.022528982 -0.3932657
0001f0 b9 72 51 3d d7 41 5f be 4e 51 7e be 37 4c 0c bf
       0.0511348 -0.2180246 -0.24835703 -0.54803795
000200 8e ec 59 3d c4 f5 9a be 20 45 b3 3d 19 2a 00 be
       0.05320411 -0.3026563 0.08753419 -0.12516059
000210 fd dc 8a 3d e6 6a 1f be 08 52 e9 3d 2d 25 9e bd
       0.067804314 -0.15568122 0.11392599 -0.077219345
000220 d0 33 21 3e be e7 ab ba 1b d6 3c 3e 15 59 cd bd
       0.15742421 -0.0013115329 0.1844105 -0.10026757
000230 a5 7b 82 3d 0f 65 8a be ce 06 3e be b7 72 c4 be
       0.063712396 -0.27030227 -0.18557283 -0.3836877
000240 28 5f a9 3d 81 01 e9 bd 7b aa 70 3e 5d 7e 03 be
       0.08270103 -0.1137724 0.23502533 -0.12841173
000250 9c 2b 7c 3e 24 9d 09 bd 40 2a 7c 3e a9 b8 09 bd
       0.2462601 -0.033597127 0.24625492 -0.03362337
000260 84 64 b2 3d 46 b5 11 be f6 b8 63 bd 38 6b 8a be
       0.08710578 -0.14229307 -0.055596314 -0.27034926
000270 ec 27 1c 3d b3 65 61 be 84 71 db 3d a9 dd 3e 3c
       0.03812401 -0.22011451 0.10715011 0.011649528
000280 24 d1 b8 3c a3 55 c9 be 96 c8 70 3e d4 72 03 be
       0.022560664 -0.39323148 0.23514017 -0.12836772
000290 7b dc 83 3c c3 d1 83 be 16 ca 70 3e ad 74 03 be
       0.016096344 -0.25745973 0.2351459 -0.12837477
0002a0 39 be 70 3e 7d 7e 03 be 37 34 80 3e c8 11 6a 3c
       0.23510064 -0.1284122 0.25039837 0.014286466
0002b0 67 1e 94 3c 39 1f 69 be 7a 66 ad bb d6 91 33 be
       0.018080903 -0.22765817 -0.005291757 -0.17536101
0002c0 d8 8f c9 3c 23 f0 3c be 77 96 8c 3e 2b f9 f9 3b
       0.024604723 -0.1845098 0.27458546 0.00762858
0002d0 55 33 7c 3e 28 c2 09 bd 38 30 7c 3e 0f b2 09 bd
       0.24628957 -0.033632427 0.24627769 -0.033617076
0002e0 f4 d9 eb 3d 4e 75 68 be 5e 37 02 3e 1c 48 39 be
       0.11516181 -0.22700998 0.12716433 -0.18093914
0002f0 d4 7e 82 3e d3 c1 20 bc 06 e7 47 3e 7b 5c f7 bc
       0.25487387 -0.009811836 0.19521722 -0.030195465
000300 37 3f 72 3c 59 42 4c be 30 76 91 3e 07 d0 e7 bc
       0.014785579 -0.19947185 0.28410482 -0.028297437
000310 64 92 84 3d 0d 4f 3d be b1 4e 17 bc 42 39 66 be
       0.06473234 -0.18487187 -0.00923507 -0.2248278
000320 de b3 07 3e 52 f2 4a bd 02 15 93 3e 84 01 29 bd
       0.13252208 -0.0495475 0.28726965 -0.04126121
000330 b2 e8 bc 3e 8c 96 31 3e cd 1d be 3e 7c ea 28 3e
       0.36896282 0.17342585 0.3713211 0.16495699
000340 1c e6 61 3e ad c8 65 bd c5 cb 1d 3e d1 e8 67 ba
       0.22060436 -0.056099582 0.15409763 -0.0008846643
000350 85 fe 89 3d 10 5a 3a be 6c a1 f1 3d d8 59 a5 bd
       0.06737999 -0.18198419 0.11798367 -0.08073777
000360 94 82 15 3e b1 30 67 be 80 7b 51 3d 27 47 5f be
       0.14600593 -0.22577168 0.05114317 -0.21804486
000370 57 9f 95 bc 58 53 7f be b4 cf ba 3d fe 7d 63 be
       -0.018264456 -0.24934137 0.091216475 -0.22216031
000380 99 bc 5e 3e 76 6a eb 3c 4e 8e 65 3e 33 b0 7a 3d
       0.21751632 0.028737288 0.22417566 0.061203193
000390 bf d9 00 3e 72 54 28 3d 40 3b 7c 3e c2 b4 09 bd
       0.12583064 0.04109616 0.24631977 -0.03361965
0003a0 29 dc 5a 3e 01 89 9b bb d5 df f2 3c 54 49 67 be
       0.21373047 -0.0047465567 0.029647747 -0.22586566
0003b0 f3 77 40 3d 1a be 13 be 99 7e 52 3e 64 78 a7 bd
       0.046989392 -0.14427987 0.20556106 -0.081772596
0003c0 c0 bb 55 3e 24 27 68 bd e9 6e b8 3c 29 5d c9 be
       0.20872402 -0.056677952 0.022513824 -0.39328888
0003d0 55 d9 b8 3c 03 5b c9 be f9 c2 b8 3c 8b 57 c9 be
       0.02256457 -0.3932725 0.022553908 -0.39324602
0003e0 3b 92 6b 3e ee 1b 12 be f1 ca 59 3d 1d b1 ab be
       0.23005001 -0.14268467 0.053172056 -0.33533564
0003f0 2b 56 10 3d b0 6d aa be d7 16 5d 3d 4b 89 8d be
       0.035238426 -0.3328681 0.05397686 -0.2764381

encoder.dcrnn_cells.0.gate.weights_pool f4 [2, 65, 128]
000000 e8 ad 96 be 8b 9d 26 be 08 e1 85 3e 93 ce eb 3d
       -0.29429555 -0.16271035 0.26148248 0.1151401
000010 c8 5d 0b 3e fa 9e ea bc 6c e7 34 3e 1f c4 36 bf
       0.13609993 -0.028640259 0.17666405 -0.7139301
000020 2a b5 75 3d 60 7b 4d 3d a6 51 b4 bd 3a 99 be be
       0.059987225 0.050166488 -0.08804636 -0.37226278
000030 66 6e 59 3e f1 1e 97 bd 75 4e 8c 3e 1b 58 3d bd
       0.2123352 -0.073789485 0.27403608 -0.046226602
000040 78 00 01 bd 89 9a 87 3d f5 98 8b 3d 3e cb b2 3c
       -0.031494588 0.06621272 0.068162836 0.021825429
000050 c9 f5 6b 3d f4 bb 3a be 9b 2c 79 bd 22 a5 f8 bd
       0.057607446 -0.18235761 -0.060833555 -0.121408716
000060 9a 62 ba bb ab 16 46 bd 7b 97 a0 3d f6 a9 a6 3d
       -0.0056880238 -0.04836146 0.078413926 0.08137886
000070 dc b6 f0 be 77 85 66 bd c4 ff f6 bd 4e b5 95 be
       -0.4701451 -0.056279626 -0.12060502 -0.29239887
000080 f8 14 a0 be a1 9c 95 bd b4 97 45 bd 3f c8 2c 3e
       -0.31265998 -0.07305265 -0.04824038 0.16873263
000090 31 66 b8 3d 1e c7 e2 bd 87 f4 22 3c 9a 2b 58 3e
       0.090038665 -0.11073135 0.009945995 0.21110383
0000a0 76 3f 1c be 1e 1f 94 bb 75 a3 c9 3e 6c 05 02 be
       -0.15258583 -0.004520311 0.3938252 -0.12697381
0000b0 dd 02 d6 3d 90 0d 5b 3d 28 b3 cb 3d 69 39 96 bd
       0.10449765 0.05347973 0.09946281 -0.07335169
0000c0 bd 53 b3 bd b9 d7 51 bd 6c 99 25 3e 51 cd d8 3d
       -0.08756206 -0.05123112 0.16171807 0.10586036
0000d0 cc 7a bc bd 11 dc 5b be 07 2d b5 bc 59 3c 47 bd
       -0.09203109 -0.21470667 -0.022116197 -0.048641536
0000e0 3c 9f 84 bc e5 1b 4f bd 04 fc b1 bd 1b bd 22 be
       -0.01618921 -0.05056371 -0.08690646 -0.1589245
0000f0 0f cd 5e 3e 87 c3 d5 bc c4 6b 40 be 36 db c7 bd
       0.21757911 -0.026094211 -0.1879111 -0.09758608
000100 f0 a1 0f be ab 7b 78 3d a9 cf 46 be 04 d3 ae be
       -0.14026618 0.060664814 -0.19415154 -0.34145367
000110 5a 3b 93 3e 60 42 58 be 22 ff b1 be 65 aa a6 3e
       0.2875622 -0.2111907 -0.34764963 0.32551876
000120 8c 67 01 be c8 87 b2 be 89 ea 62 bd ff 4c 2f be
       -0.12637156 -0.34869218 -0.05539945 -0.17119215
000130 a5 f1 40 be fd 00 e0 3d bd f1 92 bc fc e1 92 be
       -0.1884218 0.109376885 -0.017937535 -0.28688037
000140 60 35 09 be 19 90 0b be bd 54 59 be ed e3 a8 be
       -0.13399267 -0.13629188 -0.21223731 -0.32986394
000150 37 c3 d4 3d ec 72 fe 3d a5 16 32 3e 34 c7 68 bd
       0.10388797 0.12424263 0.1739145 -0.0568306
000160 8a af c5 bc fc a2 85 be e1 2d 07 be a9 43 38 be
       -0.024131555 -0.2610091 -0.13201095 -0.1799456
000170 6b c8 0f 3f 21 ad be be e7 2e 59 3e 90 c0 15 be
       0.5616519 -0.37241462 0.21209298 -0.14624238
000180 5c e6 b2 bd f1 11 6a bc 15 8c e8 3d f3 93 a7 be
       -0.08735344 -0.014286504 0.113548435 -0.32730064
000190 b1 f3 37 3d 29 a1 83 be f8 d4 4a be 83 c6 e5 3c
       0.044910137 -0.25708893 -0.19807804 0.02804876
0001a0 61 7f 0b be 47 a9 ce be 3c d5 53 be 55 f7 5a 3e
       -0.1362281 -0.40363523 -0.20686811 0.21383412
0001b0 c2 7d 3c 3e 1e 75 9e be 64 de a0 be bd f7 5e 3e
       0.18407348 -0.30948728 -0.3141967 0.21774192
0001c0 01 62 43 3e 38 d1 8c bd b8 92 12 be 25 ab 37 3e
       0.19080354 -0.06875843 -0.14313781 0.1793638
0001d0 1a 7f 87 3e 9c 47 2d bd 77 09 85 be 5f ea ff 3d
       0.26464158 -0.04230462 -0.25983784 0.124958746
0001e0 4b 5b 45 bc f4 95 15 bd 25 8e 67 3e 13 98 3b 3e
       -0.012045692 -0.03651996 0.22612818 0.1831973
0001f0 1a 9a 51 3e fe c0 c4 bd bc d0 99 3e 78 58 8b 3e
       0.20468941 -0.09607123 0.30042064 0.27215934
000200 0d 04 2f 3e 9a 42 a3 be 73 67 58 3d c5 50 cb be
       0.17091389 -0.3188675 0.052833032 -0.3971006
000210 72 26 3f bd c0 91 32 3d 44 f4 96 bc 53 cb 8f 3a
       -0.046667524 0.04359603 -0.018427022 0.001097063
000220 48 c6 05 be 24 b9 48 bc e0 f8 22 bd 6c e6 c6 be
       -0.1306392 -0.012251172 -0.039788127 -0.38847673
000230 91 85 86 be df 17 24 3e 53 f3 af be db 86 91 3d
       -0.26273778 0.16024731 -0.3436533 0.071058
000240 63 d3 bb bb 71 52 96 be 4a 12 f8 bd 42 50 48 bd
       -0.0057319864 -0.29359773 -0.12112863 -0.048904665
000250 b4 53 8c be 3b d3 a8 3d 17 e5 27 bd 7b ea 53 be
       -0.2740761 0.08243414 -0.04098996 -0.20694916
000260 29 1d 1a be 98 ac a9 bb 5b a1 69 bc 6f b1 29 3b
       -0.15050186 -0.0051780455 -0.014259662 0.0025893112
000270 eb 88 a4 bd 3b 2a d1 bd ea fc 29 be b5 df a0 3c
       -0.080339275 -0.10213133 -0.16600385 0.019637922
000280 07 71 40 3d 0a 22 91 be 23 10 76 3e 2e a9 40 be
       0.04698279 -0.28346282 0.24029593 -0.18814537
000290 74 80 26 be 72 e8 cc bd 3a 4f 0f 3d 33 8d 54 3d
       -0.16259938 -0.10005273 0.034987666 0.05189247
0002a0 77 13 a9 be a0 3d b0 bd 8d 65 05 3e cd 52 e2 be
       -0.33022663 -0.08605504 0.1302702 -0.44203797
0002b0 8c 8e 7e bd 6c fe 45 3d f1 80 d1 be 7b a5 0b 3e
       -0.062147662 0.04833834 -0.40918687 0.13637345
0002c0 39 43 e0 bb b1 80 73 3d 5b 07 09 3d c7 e6 97 bc
       -0.006843951 0.0594489 0.03345428 -0.01854266
0002d0 7c 3c d5 3d ae 44 e3 3d fa 09 d2 bd 08 f1 99 be
       0.10411927 0.11097084 -0.10255809 -0.30066705
0002e0 24 cd 18 be b9 7b 0a be c5 ad be bd 6c 14 86 3d
       -0.14922005 -0.13523759 -0.09310488 0.06546864
0002f0 0a 23 92 be 7a e6 35 3d c8 79 8b be 24 02 fb 3d
       -0.28542358 0.044409253 -0.2724135 0.12256268
000300 bf d8 ee 3c 23 1c 9d 3d 78 04 a6 bc 0f bf d9 bd
       0.029156087 0.07671382 -0.020265803 -0.10632145
000310 8c ed 0e be e6 52 d3 3d 51 35 40 bc 60 cd 9a bc
       -0.13957804 0.10318546 -0.011731462 -0.018896759
000320 c2 9b 19 3e d9 c9 f0 bc bd 5f fa 3d b5 61 a3 bb
       0.15000823 -0.029393123 0.12225292 -0.004986013
000330 fa 74 1f be 77 8d 01 bd 4b 23 bc 3d 8c e5 93 3d
       -0.15571967 -0.031629052 0.09186419 0.07221517
000340 28 cb fb 3d 53 d5 c6 bd d7 ba 0c 3e 86 af 9d 3d
       0.12294608 -0.09708657 0.13743149 0.07699494
000350 62 f0 9f 3d 6d 0f 96 bc cc d1 82 bd b1 63 8d be
       0.07809521 -0.018317902 -0.06387672 -0.2761512
000360 25 8c 88 3d 8b 35 4b 3d 56 8e 19 3e d8 e5 d1 3d
       0.066673554 0.04961161 0.14995703 0.10248917
000370 49 7a 68 3d 84 aa f5 3d 8c 5f 61 bd fa 9a ab bd
       0.056757245 0.11995414 -0.05502276 -0.08379169
000380 9d cc d3 bb a3 aa 90 3d b0 52 cc bd 75 41 a3 bd
       -0.006463601 0.07063796 -0.09976709 -0.07971469
000390 7c 5a b5 3c 0f 78 00 3e 85 04 b0 3d fa 77 86 bb
       0.022137873 0.12545799 0.08594612 -0.004103658
0003a0 e9 9e 1f be ae 2d 1e bd a9 ad 10 be cc db 84 3d
       -0.15587963 -0.038617782 -0.14128746 0.064872354
0003b0 89 73 13 bd bd 7c c0 3c a4 f5 76 bd 63 0e 08 3d
       -0.035998855 0.02349698 -0.060292855 0.033216845
0003c0 5b cc 1d 3d fb d3 51 bd cb bf 21 bd 67 d7 3a bd
       0.038524967 -0.05122755 -0.03948955 -0.04561558
0003d0 71 17 0c 3d 0f a5 fd bd 54 22 db bd a0 ad 55 3d
       0.034202043 -0.12384998 -0.10699907 0.052167535
0003e0 7a 98 9a 3d 7d de 88 3d 4e d9 62 bb 4c 48 0c bc
       0.07548614 0.06683061 -0.0034614387 -0.008562159
0003f0 fe 85 b5 3d c3 9f bd 3c 89 24 ff 3c fb 54 23 bc
       0.088634476 0.02314747 0.031145351 -0.009968991

encoder.dcrnn_cells.0.gate.bias_pool f4 [2, 128]
000000 78 9f c6 3e e6 51 47 bf f1 87 09 3e 85 05 8e be
       0.3879354 -0.7785934 0.13430764 -0.27738586
000010 86 5a c4 3e 8f 4f a5 3d 79 f4 4e bd 14 2a a6 bd
       0.38350314 0.08071815 -0.050526116 -0.081134945
000020 f9 14 a8 bb c1 36 de bd f0 79 fe 3d 43 8f 2a bc
       -0.0051294533 -0.10850287 0.124256015 -0.010410133
000030 a6 63 c1 be 29 67 b6 3d c5 0c 02 be 7a 74 6a bb
       -0.37771338 0.08906395 -0.12700184 -0.0035774992
000040 e4 aa a7 bd de ab 59 be 12 25 d7 3c 6d dc 2c be
       -0.08186892 -0.21256968 0.026262794 -0.16880961
000050 24 80 3f bd b6 ed 56 bd 8d d4 e1 3d 9d e0 b4 be
       -0.046753064 -0.052472793 0.11026869 -0.35327616
000060 fc 7f 60 3c 53 12 84 bd 8b cf 04 be e1 67 0c 3e
       0.013702389 -0.064488076 -0.12969796 0.13711502
000070 84 c0 96 3d 7b e1 92 bd e9 89 d0 bd 8b aa f1 3e
       0.07360938 -0.07171913 -0.10182554 0.47200426
000080 4f 2c dd 3d 79 22 48 be b1 ca 51 3e 16 18 96 be
       0.10799467 -0.195444 0.20487477 -0.2931525
000090 9f 58 e3 be 32 56 ca be 65 5e f3 bc 78 11 f3 bd
       -0.4440355 -0.39518887 -0.029708097 -0.11868566
0000a0 ab b1 c4 bd 76 c4 13 3e a1 dd 30 bd 6f 10 c1 bd
       -0.096042 0.14430413 -0.04318011 -0.094269626
0000b0 f3 cf a0 3d 8a b3 c8 3d 86 15 fb be 9c 41 03 3e
       0.07852163 0.09799869 -0.4903986 0.12817997
0000c0 cc e8 0a 3e 25 86 7a 3e 26 00 31 3e 95 c9 9b 3d
       0.13565367 0.24465235 0.17285213 0.07606808
0000d0 40 e4 35 3e 1d 3f 08 3e aa 20 a6 be f0 c7 be be
       0.17762852 0.13305326 -0.32446796 -0.37261915
0000e0 5f 60 77 be 5f 4d 41 3e c2 b5 2b bd 31 2f 41 3e
       -0.24157856 0.18877171 -0.041921385 0.18865658
0000f0 ec 6a af bd 3f 22 7b 3d d7 19 39 be 76 03 c9 3c
       -0.085653156 0.061311956 -0.18076263 0.024537783
000100 04 db fd 3d c0 85 9f 3c c8 f5 be 3d 59 26 8f be
       0.123952895 0.019472957 0.09324223 -0.27958944
000110 e5 f6 97 be c7 87 3e 3e f4 d8 38 be 25 b1 c7 be
       -0.29680553 0.18606482 -0.18051511 -0.39002338
000120 64 c4 54 3e 49 2e 48 be bc 4c 1a 3e aa ec 62 bd
       0.20778042 -0.19548906 0.15068334 -0.05540148
000130 be f3 9f bd 9d f4 81 3d ee 0f 04 3e 18 15 84 3c
       -0.07810162 0.063454844 0.12896702 0.01612334
000140 86 41 42 bc 13 d0 fe bd bf 4b 2e bd f5 79 ea bd
       -0.011856442 -0.12442031 -0.042552706 -0.11449043
000150 bb 70 85 bd e2 1c 41 be b8 df 5d bd 32 94 57 bd
       -0.06515642 -0.18858674 -0.054168433 -0.052631564
000160 6c 2a 9a 3d 85 a4 c3 3c 9d 75 76 3e 01 50 a1 3d
       0.075276226 0.02388216 0.24068303 0.07876588
000170 94 d2 a4 bd 84 6c 80 bd cd 75 5a 3e a6 59 e0 3b
       -0.08047977 -0.06270698 0.21334 0.0068466244
000180 95 dc 8a 3d 23 90 00 bd e9 16 20 be 27 bb 78 be
       0.06780354 -0.03138746 -0.1563374 -0.24290143
000190 4f 79 99 bd 8e db dd 3b 0b 0b d5 3d 5b 85 1c be
       -0.07493841 0.0067705577 0.10402497 -0.15285246
0001a0 75 00 9a bd 57 26 99 be e1 a3 f8 bd bb ed e3 bd
       -0.075196184 -0.29912063 -0.121406324 -0.11129328
0001b0 58 99 92 be e9 08 4a be f9 a3 83 be e7 42 3c 3e
       -0.28632617 -0.19729961 -0.2571104 0.18384896
0001c0 af 8f 5a bd 27 64 e6 be 28 39 83 be 0b 50 8f 3d
       -0.053359684 -0.44998285 -0.25629544 0.06997689
0001d0 26 db a5 be 5d fc f2 bd c8 60 e5 3d e6 bb 48 3d
       -0.3239376 -0.11864541 0.112001 0.04900732
0001e0 d6 fc 66 3e b2 da cc bd 80 b1 c4 3c d2 7c 1f be
       0.22557387 -0.1000265 0.02401042 -0.15574959
0001f0 35 90 1b bd 8d b2 3f 3e b2 65 49 be 25 bd 0e 3e
       -0.037979323 0.18720455 -0.196677 0.1393934
000200 ec 09 a4 be 05 ad f8 3e b8 8b bb bc b1 fe c8 3e
       -0.3203882 0.48569503 -0.022893772 0.39256814
000210 97 f2 a5 be 24 79 9d 3d 7a 82 ae bc 55 c5 00 3f
       -0.32411644 0.07689121 -0.02130245 0.50301105
000220 69 1e 23 3e 4c fd 50 be 3e 38 80 be d2 45 81 3e
       0.1592957 -0.20409125 -0.2504291 0.2524858
000230 65 b3 bd 3e 10 a0 fb bb b2 51 d3 3e d8 76 2c be
       0.3705093 -0.007678993 0.41273266 -0.1684221
000240 ea 7f cd bd ca ee d5 3d f6 fb 4c be 16 d1 0d be
       -0.10034163 0.10445936 -0.2001799 -0.13849291
000250 a6 52 4d bd 54 f9 4d bd b3 c9 23 3c e3 6b 9f 3e
       -0.050127648 -0.050286606 0.009996819 0.31137
000260 b2 1a a8 3e 72 3e 29 3d 0a c8 56 be f2 bd b9 3d
       0.32832867 0.041319318 -0.20974746 0.09069432
000270 34 b7 d6 3d 3f aa d3 bd 65 04 ab 3d 05 81 70 3e
       0.10484162 -0.10335206 0.083504476 0.23486717
000280 d3 f5 8a be c2 42 82 3e 4a ca ca bd 6d 4f ad 3e
       -0.27140674 0.25441557 -0.09901865 0.3384966
000290 80 1b a1 3e 28 12 c0 3d a6 c3 92 be 4c 8c 83 bd
       0.31466293 0.09378463 -0.28664893 -0.06423244
0002a0 68 36 55 3e 88 7c f0 bd 17 e4 67 3e cf a1 37 3d
       0.20821536 -0.117425025 0.22645603 0.044832047
0002b0 77 1b 16 be 28 e6 6c 3d 19 c3 3e 3c f4 10 86 be
       -0.14658915 0.05783668 0.011643195 -0.2618481
0002c0 f4 95 51 be 79 b8 3b be 4c 1d 2e be fd 2f e0 3d
       -0.20467359 -0.1833209 -0.17003363 0.10946653
0002d0 53 47 49 bd 19 26 60 be 8a b2 7f 3e 3c f3 30 3e
       -0.049140286 -0.21889533 0.24970451 0.17280287
0002e0 5f c3 9b bc c8 93 9d bd ac 00 92 bd 68 69 95 be
       -0.019014059 -0.07694203 -0.071290344 -0.2918198
0002f0 e5 ac 18 3e 75 a8 fe 3c d7 89 3f 3e 78 17 17 3e
       0.14909704 0.031086186 0.18704925 0.14755046
000300 6f 75 e6 3c 9f 71 17 be de 5e fb bd ba 58 3a be
       0.028132169 -0.14789437 -0.12273954 -0.18197909
000310 ac 3d 10 3e 42 83 49 3d 7b 9f 11 3e a9 3b c5 3d
       0.14086026 0.049197443 0.14220993 0.0963052
000320 9f 4e 68 3c d0 d8 2c 3e 1b fa 83 be 7d 88 18 3e
       0.014178901 0.16879582 -0.25776753 0.14895816
000330 aa ca 1b be 5c 00 6d 3e 82 bf 48 3d 18 76 fe bd
       -0.15214029 0.23144668 0.04901076 -0.12424868
000340 3a 5f 68 be 4a de 81 3e 21 08 98 3e 24 77 0d be
       -0.22692576 0.25364906 0.29693702 -0.1381498
000350 3c 3e 3d 3e 65 5e be 3e 65 c2 8c bd b1 93 ae 3e
       0.18480772 0.37181392 -0.06873015 0.34097055
000360 49 63 33 be 33 a3 75 3c 04 91 30 3d 3d 76 68 3d
       -0.17518343 0.014992523 0.043107048 0.056753386
000370 c6 21 60 bd d6 24 28 bd eb 54 62 3d ea 8f 41 be
       -0.05471971 -0.041050754 0.055256765 -0.18902555
000380 5f c5 a7 3e 9b 61 59 bd f7 83 a9 3e 47 f8 4b 3e
       0.3276777 -0.0530716 0.33108494 0.19918929
000390 0b 1f 0c be 0e 53 17 bc 5a df 29 bd bf bd 10 bd
       -0.13683717 -0.00923611 -0.04147277 -0.035337206
0003a0 23 6a 29 3e 8f dc 12 bc d8 5f 3a be e8 25 69 be
       0.16544394 -0.008963718 -0.18200624 -0.22768366
0003b0 43 70 ae 3d cb 1a 83 3e f6 90 fe 3d 98 33 bd 3d
       0.08517506 0.2560638 0.12429993 0.09238356
0003c0 6b 00 90 3e 55 1c 13 3f a4 02 43 3d 9b 43 de bd
       0.2812532 0.57465106 0.04760994 -0.108527385
0003d0 1f df bc 3e 93 37 07 3e 06 d2 a3 bd 06 54 f2 3b
       0.36888978 0.13204794 -0.07999043 0.0073952703
0003e0 3c aa 9b 3d ad 4b ac 3b 75 60 8e 3e ad 56 34 3d
       0.07600829 0.0052580447 0.27807966 0.044027973
0003f0 45 01 b4 bd ae 3a b5 bd c8 e6 94 bd 00 2e ff 3d
       -0.08789305 -0.08849083 -0.072705805 0.12459946

encoder.dcrnn_cells.0.gate.linear.weight f4 [128, 65]
000000 4b 65 41 be 2e 87 09 3e 59 67 b5 3d 16 22 15 3d
       -0.18886296 0.13430473 0.088576026 0.03640946
000010 bd 2f 2f 3e c3 0a 07 3e 27 f5 8b 3e 7e ac db 3e
       0.17108054 0.13187699 0.27335474 0.4290504
000020 1f ef f7 bb 43 0e c3 3d 61 6f d4 3e e8 30 15 3d
       -0.0075663473 0.095242046 0.41491225 0.036423594
000030 e3 0b 60 3d 7a 84 b6 3e 5b 84 92 3b 61 6c d6 3c
       0.054698836 0.35647947 0.0044713444 0.026174726
000040 69 9a 29 3e c1 87 3a bf 3c 19 6b bd 1d 9b 51 be
       0.16562809 -0.72863394 -0.057397112 -0.20469327
000050 7f fc 16 bd d0 a2 cf 3d c5 6a 80 3e 6f 0a 42 3e
       -0.036861893 0.10138476 0.2508146 0.18949293
000060 d9 da 51 3e ad be c5 3d f5 29 6c 3e 02 a3 11 3e
       0.2049364 0.09655509 0.2306288 0.14222339
000070 5f 68 b8 bd 5a 3f ac 3d 9a c2 ec 3e f5 e1 2c 3e
       -0.09004282 0.08410521 0.4624222 0.16883071
000080 04 c4 1d be a5 49 11 bd d7 4c 6c 3e b6 a3 7c bd
       -0.15406805 -0.035470624 0.23076187 -0.061679564
000090 86 54 1e be 94 e3 f1 3d 13 64 29 3d 16 70 92 3e
       -0.1546193 0.11810985 0.041355204 0.2860114
0000a0 19 4c 70 3e 8a 6f 4b 3e dd 40 1e be d1 34 8f 3d
       0.23466529 0.19866768 -0.15454431 0.06992496
0000b0 56 6d 47 3e 5f 11 1a 3d 52 20 18 3e 83 ef ef 3d
       0.19475302 0.037614223 0.14856079 0.11715605
0000c0 48 12 73 bd 39 81 93 3d 80 49 3e 3e a0 f5 cb 3e
       -0.059343606 0.07202382 0.18582726 0.39835835
0000d0 aa ec 50 bd 0d 14 94 3e 6d 63 5f 3e 1b d0 7e 3e
       -0.05100695 0.28921548 0.21815272 0.24884073
0000e0 55 a8 9a 3e 11 8c 5b be 0b 58 34 be 23 a4 21 3e
       0.30206552 -0.2144015 -0.1761171 0.1578527
0000f0 3b 5f 91 3e 81 b3 c6 3d dc 42 91 bd eb 14 60 3e
       0.28392968 0.097022064 -0.070928305 0.2188298
000100 44 74 aa 3d 5b 0d 7c bd 03 62 3d bd d9 5b 2a 3e
       0.08322957 -0.061536174 -0.04623605 0.166366
000110 af be 55 be 87 da ca bd aa 69 16 bd da c1 28 be
       -0.20873521 -0.09904962 -0.036721863 -0.16480199
000120 1c 35 88 be c8 da 93 bd 46 67 ba 3d 08 03 55 be
       -0.2660302 -0.072194636 0.09101729 -0.20801938
000130 cd 96 85 3e 32 ad 4c 3e fb 56 10 bd 09 92 16 3d
       0.26091614 0.19987944 -0.0352392 0.036760364
000140 c7 d9 2e 3d f5 e3 75 be 57 cc 47 3d 07 f1 96 3d
       0.042688157 -0.2401274 0.048778858 0.07370191
000150 43 a4 6e 3c 95 ca 89 3d bd b1 c6 bc f9 13 82 3d
       0.01456553 0.067280926 -0.024254674 0.06351466
000160 fb ca 43 be c1 56 0f be d3 f2 b5 bc a4 6d 5b be
       -0.191204 -0.13997938 -0.022210514 -0.21428543
000170 94 c4 5d 3c bc b4 55 3d 85 f5 11 be 6a ef 36 be
       0.013535637 0.052174315 -0.14253815 -0.17864767
000180 17 b0 3a be 78 a7 72 bd 82 5e a0 3d fc fa 98 bd
       -0.18231235 -0.059241742 0.07830526 -0.074697465
000190 cd 03 df 3d 37 f4 f5 3c 10 c0 0e be 57 bf 9b 3e
       0.10889397 0.030023677 -0.13940454 0.30419418
0001a0 fa 06 f9 bd 8a 66 db 3c 20 6d 3a be 1b c3 94 3d
       -0.12159534 0.026782293 -0.1820569 0.07263776
0001b0 56 8e 14 3e 29 06 d5 bd 6a 85 dc bc 18 a2 25 be
       0.14507422 -0.104015656 -0.026919086 -0.16175115
0001c0 66 b4 58 be ca fd 99 3c 87 8c 38 3e cb 2e e7 bd
       -0.21162567 0.018797774 0.18022357 -0.11288222
0001d0 64 40 04 be 90 aa 25 bd 7d 66 6d 3d 76 4d a4 bd
       -0.12915188 -0.040445864 0.05795907 -0.08022587
0001e0 0d bb f4 bd 77 88 a8 3d b6 eb 3f 3e f7 90 14 be
       -0.119497396 0.082291536 0.1874226 -0.14508425
0001f0 21 28 77 be 7a 02 05 be bc 8d 6a bc 3a fc 3f 3e
       -0.24136402 -0.12989226 -0.014316019 0.1874856
000200 23 f9 0c 3e 91 72 3a be d1 dc a8 3e 42 82 de bd
       0.13766913 -0.18207766 0.3298097 -0.108646885
000210 bd 01 ac bd 0d 65 0b be d4 19 71 3e 09 8c b7 bd
       -0.08398769 -0.13612767 0.23545009 -0.089622565
000220 1b 73 bf bc b5 02 e2 bd c3 9c 7a 3e 70 44 9a 3d
       -0.023370316 -0.110356726 0.24473862 0.07532585
000230 a8 c5 18 bd a3 c8 ca 3d 4b 04 ed 3c 72 56 0a 3d
       -0.037297875 0.0990155 0.028932711 0.033773847
000240 93 61 4c 3e eb 84 9e 3d 20 92 d6 bd 51 aa df 3c
       0.19959097 0.07740196 -0.1047709 0.027302893
000250 ce 54 8f 3d 7c 7a 82 3d 07 32 5c 3e 44 a5 af 3d
       0.06998597 0.06371018 0.21503459 0.08576444
000260 e8 8b 4f bd 5f e5 c9 bd 69 76 34 3e 01 28 fa bd
       -0.050670534 -0.09858202 0.17623295 -0.122146614
000270 d5 fb 2b bd 1d a5 a1 bc 93 f9 88 be 7d b0 bd bd
       -0.041988213 -0.019732052 -0.2675291 -0.09262178
000280 d1 18 59 be df 88 11 3e 07 c7 3e 3d e6 05 e7 bd
       -0.21200873 0.14212368 0.046576526 -0.11280422
000290 3e b1 f7 bc b4 0e ad 3e f1 bd 95 3e f5 d4 e2 3d
       -0.030235883 0.3380028 0.29246476 0.110757746
0002a0 1c 4d 7e 3e 10 58 6b 3e de 0e 1f 3e ba 05 46 3c
       0.24834102 0.22982812 0.15533015 0.012086326
0002b0 c9 e3 c5 bd 0b b0 ac bd 29 4e 0f 3e e0 40 8f 3b
       -0.09662587 -0.08432015 0.1399466 0.0043717474
0002c0 61 a7 2e 3e fa fc a2 bc 28 71 ac 3d bb c0 0a 3d
       0.17056037 -0.01989602 0.0842002 0.03387521
0002d0 f3 f8 17 3e 49 63 0a bd 18 03 4f be d7 56 de bd
       0.1484106 -0.033786092 -0.20216024 -0.10856407
0002e0 00 32 b1 bd 98 9c 7f bd 40 2e 25 3e 45 c1 fa 3d
       -0.08652115 -0.0624052 0.16130924 0.122438945
0002f0 91 f3 e3 bd c2 13 63 be 58 ea 0c be af 8b 9c be
       -0.11130441 -0.22175506 -0.1376127 -0.3057532
000300 38 96 28 be a1 44 93 3d 42 a0 ae 3d bc 04 9d ba
       -0.16463554 0.07190824 0.085266605 -0.001197956
000310 21 2d 9d be 95 75 21 3e 14 41 f7 bd fe 14 15 3d
       -0.30698493 0.1576751 -0.120729595 0.036396973
000320 74 f9 5e be 2a f0 f5 bd 21 63 5a bd ec 94 62 bd
       -0.21774846 -0.12008698 -0.053317193 -0.055317804
000330 7d 52 5c 3e e6 f5 80 be c2 1f e9 bd ff 5f 1c bd
       0.21515842 -0.25187606 -0.113830104 -0.038177487
000340 8a 7b 12 3d 4c b8 33 be 1b 58 57 3e 65 1f 3a be
       0.035762347 -0.17550772 0.21029703 -0.18176039
000350 c3 97 92 3d fa 5b bd 3d 1f 3b b6 3e dd a7 a3 3e
       0.071578525 0.09246059 0.3559198 0.31964007
000360 7d 14 bf 3d 00 b8 c3 3d 41 4a 07 3e f6 91 50 bd
       0.0933008 0.095565796 0.1321192 -0.05092045
000370 ab 59 3a bc a7 0f c9 bd e7 2e 1b be 84 3b 25 be
       -0.011373918 -0.098174386 -0.1515461 -0.16135985
000380 64 25 60 be 63 91 12 be 65 0e 43 3e 39 0d d2 3e
       -0.21889263 -0.14313273 0.1904846 0.41025713
000390 91 81 b6 be bf 18 4b 3e c4 a0 2d be f0 12 47 3e
       -0.35645726 0.19833659 -0.16955858 0.19440818
0003a0 9e 79 12 bd d2 b6 80 3e f3 b7 3d be 27 fb 18 bd
       -0.035760514 0.2513948 -0.18527202 -0.037348893
0003b0 64 5b 12 3c 07 36 6b 3e f5 09 11 3e 80 61 17 bd
       0.008932922 0.22969829 0.14163955 -0.036958218
0003c0 76 da 19 3c 83 36 9a be 7e f3 44 3e b7 44 44 be
       0.009390464 -0.30119714 0.1923351 -0.19166838
0003d0 86 fd 62 bd 33 94 6a be c4 21 33 be 4e 94 83 3d
       -0.05541756 -0.22908096 -0.1749335 0.06424771
0003e0 b8 47 b6 be ac 57 45 3d 5a a3 92 bd 90 bd 36 3e
       -0.35601592 0.048179314 -0.07160063 0.1784575
0003f0 12 dc b1 3e 98 93 c9 bd 82 f0 ce bd be f9 81 be
       0.34738213 -0.098426044 -0.10104467 -0.2538585

encoder.dcrnn_cells.0.gate.linear.bias f4 [128]
000000 ea eb 0c 3f 72 55 63 bd 35 07 0e 3e aa 64 44 be
       0.55047476 -0.05550141 0.13869937 -0.19179025
000010 0b df 80 3f 1c 3a 0a 3f b3 19 df 3e af 13 ce 3e
       1.0068067 0.5399492 0.43574294 0.40249392
000020 ec 93 44 3f 3c 30 54 3e 27 be 4a 3f 40 ef 1a 3f
       0.7678821 0.20721525 0.791964 0.60521317
000030 3d 07 29 3e 2b 67 05 3f 63 59 08 3f 38 05 82 3f
       0.16506667 0.52110547 0.53261393 1.0157843
000040 86 d6 52 3f a8 4b cc 3e 08 b0 3f 3e 27 6f 29 3f
       0.82358587 0.3990147 0.18719494 0.6618523
000050 d4 a9 b1 3e 3b fa 0f 3f cf f4 6f 3f bb fb a9 3e
       0.3469988 0.56241196 0.93732923 0.33199868
000060 7f a8 3f 3d c5 30 f9 3e 27 af 48 3f e1 90 54 3f
       0.04679155 0.4867002 0.7839226 0.8303357
000070 2c 8b f7 3e 42 63 e4 3e 27 7c 50 3f 0c c5 18 be
       0.48348367 0.44606978 0.8143944 -0.14918917
000080 da 8e c0 3e 57 c2 e0 3e 37 4c 84 3e 3d 5f 12 3f
       0.37608987 0.4389827 0.25839397 0.5717657
000090 aa ea c3 3e 23 8b 1f 3d 05 28 da 3e 66 4f 10 3f
       0.38264972 0.03895105 0.42608657 0.5637115
0000a0 4d 91 fb bc c8 c4 3e bc b2 45 39 3e 38 61 70 3e
       -0.030708933 -0.011643596 0.18092993 0.23474586
0000b0 54 2b 5f 3f 74 c8 26 3f 12 44 cb 3e b3 02 80 3f
       0.8717549 0.6514962 0.3970037 1.0000824
0000c0 e2 4d 62 3f 03 94 55 3f 3d 9d 02 3f cc 4a f9 3e
       0.8840009 0.8342897 0.51021177 0.48689878
0000d0 a1 08 d4 3e 3e c1 89 3f 4d 36 c0 3e ff db f1 3e
       0.41412833 1.0762098 0.37541428 0.47238156
0000e0 d1 9d 08 3f e2 4a 2b 3f 0d c0 6f 3e 4d 7f 6e 3f
       0.5336581 0.6691114 0.23413105 0.93162996
0000f0 eb e3 39 3f fb b4 87 3e 8c 14 86 3d 76 4e 7d 3f
       0.726134 0.26505265 0.06546888 0.98947847
000100 90 33 bd 3e df ae 8c 3e f2 9a 13 3f 5f c9 a0 3e
       0.36953402 0.27477166 0.576583 0.31403634
000110 91 3c 11 3f 16 bb 86 3f 1a 8f 5a 3f f6 06 10 3f
       0.5673304 1.0525844 0.85374606 0.5626062
000120 2a ec ee 3e 9b 36 43 3f 2e 4a 95 3f 3a ee 9a 3d
       0.46664554 0.76255196 1.1663263 0.07564969
000130 60 76 45 3e 68 67 f8 3e cd a8 44 bd 4e 0f 02 3f
       0.19283438 0.48516393 -0.048012543 0.50804603
000140 1f 39 1f 3f 93 77 2f 3f 80 8c 58 3f ae 34 21 3f
       0.62196535 0.6854183 0.84589386 0.6297101
000150 88 9d ba 3c cb 74 95 bd eb 4b 21 3f 2e 76 76 3e
       0.022780195 -0.07297667 0.63006467 0.2406852
000160 48 f4 9f 3d 55 a7 b6 3e 3f 3d 45 3f e9 d3 05 3f
       0.07810265 0.3567454 0.7704658 0.52276474
000170 71 ee 56 be 64 c2 5b 3f 5c 87 25 3f 15 6b 2c 3f
       -0.20989396 0.8584349 0.64659667 0.67350894
000180 72 ac 65 3f 36 a0 11 3f 86 58 a1 3d ed 4c 13 3f
       0.89716256 0.5688509 0.07878213 0.57539254
000190 ce 1b cf 3e 50 41 9f 3e fd e6 11 3f 32 e6 9c 3e
       0.404509 0.31104517 0.56993085 0.30644375
0001a0 5a 56 69 3f e8 fb 4b 3e ec d8 4d 3f e7 a3 59 3d
       0.9114739 0.19920313 0.8040912 0.053134825
0001b0 dd 76 d6 3e 83 cb 12 3e 3e 40 02 3f 47 90 83 3f
       0.4188756 0.14335446 0.50879276 1.0278405
0001c0 24 ec 1c 3f 6c 73 3b 3d ec 2e 76 3d db e8 74 3e
       0.6129782 0.04576437 0.060103342 0.23916952
0001d0 29 d2 05 3f c3 cd e7 3e cb 91 24 3f 8b e5 f5 3d
       0.52273804 0.4527417 0.6428496 0.120066725
0001e0 e7 56 5d 3f 9a 48 4b 3f de 87 be 3d ea 2c 17 3f
       0.8646073 0.79407656 0.09303258 0.5905291
0001f0 01 a9 a4 3e 67 d0 e2 3e 77 10 81 bd 1d 7a 1a 3f
       0.3216019 0.44299623 -0.063019685 0.6034258

encoder.dcrnn_cells.0.update.weights_pool f4 [2, 65, 64]
000000 84 34 89 3e 0f 86 0f bf 76 37 7e 3e 62 f6 8e 3e
       0.2679788 -0.5606393 0.24825844 0.2792235
000010 c6 d2 50 be b6 27 2e be 77 fa 50 be d0 07 a5 3e
       -0.20392904 -0.17007336 -0.20408045 0.32232523
000020 2a cf 40 3e 14 3b 3f be 44 7b 29 3e e4 1b 3d 3e
       0.18829027 -0.1867488 0.16550928 0.1846767
000030 9d 17 89 3e 06 61 53 bd 27 c2 05 bf cb d2 25 be
       0.26775828 -0.0516062 -0.5224938 -0.16193692
000040 8d 56 18 3e 95 99 9f 3e bd d0 4b 3d ae 41 88 3d
       0.14876767 0.3117186 0.049759615 0.066531524
000050 5a bd c2 be 5c 1a 2a 3e 26 b3 1d 3e 0e 21 a2 3e
       -0.3803509 0.16611618 0.15400371 0.31665844
000060 ae 11 7f be 0c 39 43 be e5 4e 72 be 8b 92 e5 3d
       -0.24909088 -0.1906473 -0.23662908 0.112095915
000070 e6 ce 03 3f 49 15 57 be 03 5d 90 3e a4 86 09 be
       0.51487577 -0.21004213 0.28195962 -0.13430268
000080 1b 3a 91 3e 8e 87 c1 3e 3a 92 ab bd 60 65 6d 3e
       0.28364643 0.37798733 -0.083775 0.23183203
000090 9c 59 47 3e 1c 21 78 3e 9f da a6 bd 2a 0f 6d bd
       0.19467777 0.2423138 -0.081471674 -0.05787579
0000a0 60 70 9a 3e b9 69 16 3e e6 29 3a 3e 0a b4 a7 3e
       0.3016386 0.14688767 0.18180045 0.32754546
0000b0 57 1f 05 be de e3 40 be ff 98 db 3e 53 db a1 3c
       -0.13000236 -0.18836924 0.42890164 0.019757902
0000c0 eb 23 d9 be 62 91 31 be db 47 50 be d4 9a a4 be
       -0.42410216 -0.17340615 -0.2033991 -0.32149374
0000d0 c8 b9 bb 3d 5c ab 19 3e 1c de d4 3e 42 a3 43 bf
       0.09166294 0.15006775 0.41575706 -0.76420987
0000e0 99 2a 53 3e a7 40 33 3e 33 f3 8b be 43 49 12 3e
       0.20621718 0.17505132 -0.27333984 0.1428576
0000f0 34 15 5d bf 58 fa b2 3d 9c 13 c7 3e 1c 1b 47 bd
       -0.8636048 0.087391555 0.38882148 -0.048609838
000100 4c 90 28 bd c8 f3 ed bd 19 d4 ec bd 95 68 66 bd
       -0.041153237 -0.11618763 -0.11563892 -0.05625208
000110 0e 18 07 bd 8c 6a 03 3c 51 c8 a1 3d 53 d6 f2 3d
       -0.032981925 0.008021008 0.078995354 0.11857285
000120 70 4c 4e bd 77 c5 fb 3c bb 75 ae bd 45 f5 3c bc
       -0.050365865 0.030733807 -0.08518549 -0.011533086
000130 d9 97 88 bd ca ee f9 bc 5c 52 21 bd 33 f9 c4 3c
       -0.06669588 -0.030509371 -0.039385185 0.024044609
000140 dd 72 04 bd 35 52 99 bd 03 4a 00 3d 0a e3 1b bc
       -0.032336105 -0.07486383 0.031320583 -0.00951458
000150 0e 06 28 bd 14 a0 87 bd 64 43 06 be 93 e3 01 bd
       -0.0410214 -0.06622329 -0.13111645 -0.031711172
000160 2c 19 1c bd 4d 04 a5 3c 83 4f 04 bd 6a 46 75 bd
       -0.038109943 0.020143652 -0.03230239 -0.059881605
000170 12 8f c1 bd be 2d 5d 3d cf 61 05 bd cf d9 22 3d
       -0.094511166 0.0539987 -0.03256398 0.0397585
000180 8c fe ae bc 03 4c 4f bd 2c 94 81 bd 8c 8a ee bd
       -0.021361612 -0.0506096 -0.0632709 -0.116475195
000190 20 73 a2 bd 99 03 c0 bd 1e cd 33 3c 8e 89 21 bd
       -0.079321146 -0.09375686 0.010974197 -0.039437823
0001a0 9a 5d a9 bd 14 ac 8e bd ce 4c a7 bd 9b c3 a2 bd
       -0.08269806 -0.06966415 -0.08168946 -0.07947465
0001b0 21 b6 50 bd 04 bf 35 3d b7 2a 4f bd cf 26 52 bd
       -0.05095494 0.04437162 -0.050577845 -0.051306542
0001c0 27 c0 f4 bd 09 4c f6 3d c6 62 29 bd c9 6f 7f bd
       -0.11950713 0.12026221 -0.041353963 -0.062362466
0001d0 29 17 ee 3c c6 04 62 bd b3 2b 8f bd 93 dd 1c 3d
       0.029063778 -0.055180334 -0.06990757 0.038297247
0001e0 47 58 a4 3b b2 3e 99 bd 34 93 e0 bd 9c 6b 24 bd
       0.0050154063 -0.07482661 -0.10965577 -0.040141687
0001f0 bb 23 f0 bc 7a 53 54 bd 74 fc 7e bd fd d5 07 bd
       -0.029313913 -0.051837422 -0.062252477 -0.03316306
000200 9a 10 83 be e4 ae 19 bd bb 64 bc 3d a4 57 54 3e
       -0.25598603 -0.037520304 0.091989 0.20736557
000210 80 22 be 3b 58 51 0c be c6 54 d8 bd 6a 79 0e be
       0.0058024526 -0.13702905 -0.10563044 -0.13913503
000220 de 19 00 3e 4c c7 2b be c0 e3 43 be a5 8c a4 3d
       0.12509868 -0.16775244 -0.19129848 0.08034638
000230 b3 52 7e 3e d4 84 0c 3e 39 46 3b 3e 50 bf 0c be
       0.24836235 0.13722545 0.18288507 -0.13744855
000240 23 10 c2 3c f7 cf 36 3e 1f e9 3b bd 7b dc 34 3c
       0.023689335 0.1785277 -0.04587662 0.011038895
000250 2a 9e e1 bc c6 e1 2b 3d e3 a3 ba 3d 3e 89 12 3e
       -0.027541239 0.04196336 0.0911329 0.14310166
000260 c1 91 e8 bd ef 2e b9 bd 97 b5 d9 bd 4b df b5 3d
       -0.11355925 -0.09042155 -0.10630339 0.088804804
000270 94 4c 07 3e 68 c9 80 bd 33 b7 8a 3d 04 b7 3a 3d
       0.13212806 -0.06288415 0.06773224 0.045584694
000280 49 5c 13 bf 73 de 1c 3e a1 a6 a7 bd d3 15 e9 3d
       -0.5756269 0.15319233 -0.08186079 0.11381116
000290 f0 51 25 3e 39 56 86 3d 77 2b 64 bc 4b 2a 26 3e
       0.16144538 0.065594144 -0.013926378 0.16227071
0002a0 38 a0 f7 3d f8 15 9a 3d 39 52 2c 3e a2 09 08 3e
       0.12091106 0.075237215 0.1682824 0.13284925
0002b0 8d 1b 9e 3d 53 76 29 be ba 24 3d 3e 56 48 01 3e
       0.07720099 -0.16549043 0.18471041 0.1262525
0002c0 be 57 de 3e de 18 81 bc 16 d0 93 bd 81 52 86 bd
       0.43426317 -0.015758928 -0.072174236 -0.06558705
0002d0 d4 59 a0 bd b8 4a 4c bd 14 6a c1 3d aa e0 12 3e
       -0.07829633 -0.049875945 0.09444061 0.14343515
0002e0 86 6d e8 3d df 42 f2 3d 8f 5a a6 3d ab 91 c1 3c
       0.11349015 0.11829161 0.081227414 0.02362903
0002f0 28 56 cc bd 19 44 a3 bd b9 a9 d0 bd da ad 24 3d
       -0.099773705 -0.07971973 -0.10188622 0.04020486
000300 61 ae 17 bc 31 4f 01 be d5 84 a3 bd ae 8c e1 3d
       -0.009257884 -0.12627865 -0.0798432 0.11013161
000310 f6 90 96 bd f4 e0 81 3d d6 d5 53 bd ac 48 28 3e
       -0.07351868 0.063417345 -0.0517176 0.16433972
000320 f0 b6 e6 3d c9 1a b0 bd a2 c6 04 3e a0 d1 a9 3c
       0.11265361 -0.08598859 0.12966397 0.02072984
000330 e3 2f a1 bc b8 f7 6a bd 9c 7a 8c 3e a5 af a6 3d
       -0.019676154 -0.05736515 0.27437294 0.0813897
000340 64 d3 90 bd 55 0c d9 3d f8 5b 3e 3e 42 7c a4 bb
       -0.070715696 0.10598055 0.18589771 -0.0050196955
000350 24 88 58 bd ae e9 03 bd 07 cd 54 3d ee ee 53 bc
       -0.05286421 -0.032205276 0.05195334 -0.012935383
000360 fb ff 41 3d 16 49 66 3d f5 38 19 3c d6 76 10 bd
       0.047363263 0.056222044 0.0093519585 -0.03526958
000370 8d 71 b7 3d f5 62 a5 3d 48 e2 32 3d a6 52 d5 bd
       0.08957205 0.08075515 0.04367283 -0.104161546
000380 5e ae a4 bd 3f 27 52 3e 6e 5d 29 be 13 b8 19 3d
       -0.080410704 0.20522784 -0.16539547 0.037529062
000390 05 29 de 3d c9 2e c6 bc 64 87 d5 3d 4f ed 01 bd
       0.108476676 -0.02419223 0.10426214 -0.031720456
0003a0 ab 31 15 3d 19 fe 16 3d a0 5e 02 3d 57 8d 8d 3d
       0.03642432 0.03686342 0.031828523 0.06911724
0003b0 23 9f be bd 92 ca 57 3d bd 7b 5f 3e 32 e7 86 bd
       -0.09307697 0.05268342 0.21824546 -0.06587066
0003c0 44 91 43 bb 59 55 f3 3d d4 ce 8d 3d da 4e 21 be
       -0.0029841224 0.11881513 0.06924215 -0.15752736
0003d0 45 f5 c1 3d c0 7a e3 3d df bc 0a 3c cf 37 1c 3e
       0.094706096 0.11107397 0.008467882 0.15255664
0003e0 67 45 21 3e e2 bd 23 3e a3 89 86 bd 1d a1 1b bd
       0.15749131 0.15990403 -0.06569221 -0.037995446
0003f0 b9 a8 9a bd 91 16 2b 3d 39 d6 42 bc 93 e3 58 3d
       -0.075517125 0.041769568 -0.011891895 0.052951407

encoder.dcrnn_cells.0.update.bias_pool f4 [2, 64]
000000 d3 98 9e 3d f1 81 e5 bd ec 04 5c 3e b2 6e 97 3e
       0.07743993 -0.11206425 0.21486253 0.2957664
000010 73 7a 28 3e e8 fd 02 3e 2d 15 b0 bd 8c 8f 1e 3e
       0.1645296 0.1279217 -0.08597789 0.15484446
000020 0a af 92 bd d6 76 89 be 78 28 31 be ac f6 77 3d
       -0.07162292 -0.26848477 -0.17300594 0.06053798
000030 23 1f 56 be 0a df dd 3a 5a ce b0 3d 88 27 7e be
       -0.20910315 0.0016927433 0.086331084 -0.24819767
000040 a2 74 2a 3e d7 8e 0d 3e c1 f4 7f 3e ad 09 42 be
       0.16646054 0.1382402 0.2499571 -0.18949004
000050 81 fc 2e be 41 8a 0f be 2c 62 83 bd f0 14 86 3e
       -0.1708851 -0.14017583 -0.06415209 0.2618785
000060 e1 01 fe 3b 12 e8 89 3e 5c 33 c6 be 75 9e 62 3e
       0.007751689 0.26934868 -0.3871106 0.22130759
000070 1a 67 cc be d5 7f 53 3e 87 e2 90 be 6b aa 57 be
       -0.3992241 0.20654233 -0.28297827 -0.21061103
000080 61 73 d6 be 5b 0b e9 bd b1 a4 85 be 8c 90 13 3e
       -0.41884902 -0.11379119 -0.26102212 0.14410609
000090 87 e6 8f 3e 81 14 8c be 68 f2 39 3e d6 0c 1e be
       0.28105566 -0.27359393 0.18158877 -0.15434584
0000a0 cd b5 4e 3e 89 e0 0a be a1 3e 61 bd 4d 46 01 be
       0.20186539 -0.13562216 -0.05499137 -0.12624474
0000b0 fc 35 9c 3d 4f cd 84 be b0 50 e7 bc ef 92 bb 3d
       0.07627484 -0.25937888 -0.028236717 0.09158885
0000c0 8f 72 d3 bb 20 28 ab be 33 6d dc 3b ec 66 c3 bc
       -0.0064528654 -0.3342905 0.0067268847 -0.023852788
0000d0 d3 d6 81 be 6c 2b 05 be 47 d0 48 3e 1e 37 80 be
       -0.2535921 -0.13004845 0.19610702 -0.2504205
0000e0 c6 47 ae 3e eb 61 fa bd c4 9a 09 bd a0 8b 79 3d
       0.34039134 -0.122257076 -0.03359486 0.060924172
0000f0 e1 8b c5 be 78 54 77 be 5b 26 21 3e 32 5f 96 bd
       -0.38583282 -0.24153316 0.15737288 -0.07342376
000100 48 c4 00 3e 22 ee b9 bd d4 1f b3 be de e4 da 3d
       0.12574875 -0.09078623 -0.3498522 0.10688184
000110 1a dc 8e 3e 4f aa 73 3d f7 cf fc bd 0e a0 ab 3e
       0.279023 0.05948859 -0.12344354 0.3352055
000120 32 e4 91 be 4a 3e 8a 3e 3c 84 47 3e 8d 78 1d 3d
       -0.28494412 0.27000648 0.19484037 0.038445044
000130 ea 5e c6 bd da 15 1b be 05 62 c2 bd 3f da 4e be
       -0.09686072 -0.15145054 -0.09491352 -0.20200442
000140 ad bd 4f be 14 34 75 be 27 0f 14 be 39 79 91 be
       -0.202872 -0.23945647 -0.14458905 -0.28412798
000150 54 57 48 be 80 16 20 be 7f 65 67 3d b2 22 19 be
       -0.19564563 -0.15633583 0.05649328 -0.14954641
000160 a4 46 44 bd 29 35 26 be 1a 45 3b 3e 94 01 ef bd
       -0.04791893 -0.16231216 0.18288079 -0.11670223
000170 f0 2f 4e 3e 18 aa 96 bd a9 0b 6d 3e c3 7c 7e be
       0.20135474 -0.073566616 0.23148979 -0.2485228
000180 1f fb 4d bc 02 8d 07 3e e6 d1 b2 3e d6 6f 1a be
       -0.012572079 0.13237384 0.34925765 -0.15081725
000190 65 09 63 bd 20 55 86 bd d1 42 f9 3d 74 2d 72 3e
       -0.05542888 -0.06559205 0.12170947 0.23650151
0001a0 b9 2a 23 3e a0 87 0e ba 8c e3 16 3e 19 a5 5d 3c
       0.15934266 -0.000543708 0.1473524 0.013528132
0001b0 98 81 17 3e e5 07 1a bc 77 30 11 be 0f a0 a9 be
       0.1479553 -0.009401296 -0.14178644 -0.33129928
0001c0 41 56 19 be 93 4e 0f be e8 c6 3b 3e 7b 66 8a 3e
       -0.1497431 -0.13994817 0.18337595 0.2703131
0001d0 40 e9 8a 3e 96 b1 99 3e a7 82 1c 3e 7f ad 9e 3e
       0.2713108 0.300183 0.15284215 0.30991742
0001e0 1d ce 11 3e 5d d2 5f 3e bb 7b 71 3e 31 ec fe bc
       0.14238782 0.21857591 0.23582356 -0.031118484
0001f0 a0 2b cd bc 4a 54 5d 3e 52 b4 8c 3e 38 bb 37 3e
       -0.025045216 0.21614185 0.27481323 0.17942512

encoder.dcrnn_cells.0.update.linear.weight f4 [64, 65]
000000 c0 d6 2b 3e 46 c4 62 3d b7 c8 b1 bd ec 42 ac bd
       0.1678114 0.055362962 -0.086808614 -0.08411202
000010 23 10 02 3d 06 d3 26 be d1 9c 3a 3c 50 7d 2f be
       0.03175367 -0.16291437 0.011389927 -0.17137647
000020 7b a4 3f be 50 7a 0b bd ed 0b a4 be 91 55 8b bc
       -0.18715088 -0.034052193 -0.3204035 -0.017008575
000030 a5 63 ba bd bd c6 2e 3e e2 ab b7 3d d0 78 ff 3c
       -0.09101037 0.17068 0.08968331 0.031185538
000040 2b a3 38 3d 80 86 0d 3e d2 d7 2c bc 8a cb e6 3d
       0.045077484 0.13820839 -0.010549502 0.11269291
000050 5e c5 fc 3d af bd 5c be 5d 0e 0c 3e a5 bf 40 be
       0.12342332 -0.21556734 0.13677354 -0.18823107
000060 ca a0 d2 3d 66 60 9f be 14 92 25 be b9 d1 3b bd
       0.10284574 -0.31128234 -0.16169006 -0.045854304
000070 ea 7d b9 3d 97 b7 fb 3d 9e 7a 84 3c b6 58 f3 bc
       0.09057219 0.12290876 0.01617175 -0.029705387
000080 ad 63 38 3e 19 91 18 be 27 0d 01 be 5c c5 8f 3c
       0.18006773 -0.148991 -0.12602673 0.017550163
000090 7b 11 07 3e f4 35 57 3d 4c ed 74 3e 87 e0 e9 3d
       0.13190262 0.052541688 0.23918647 0.11419778
0000a0 e5 21 82 3c 84 ff d9 bd 2d a4 74 3e 94 45 83 be
       0.015885303 -0.10644439 0.23890753 -0.2563902
0000b0 cd 75 6e be 6c 87 f2 bd 3e e0 0a 3e 24 84 22 3e
       -0.23287125 -0.11842236 0.13562104 0.1587072
0000c0 ff 18 ea 3d 36 3a d8 bd 76 1b 44 bd be 92 aa be
       0.11430549 -0.10557978 -0.04787775 -0.3331508
0000d0 c4 ac b1 3d 1a 25 18 bd 9b c9 fd 3c 66 d4 03 be
       0.086755306 -0.037144758 0.030979922 -0.12873992
0000e0 8d 1f 68 be 61 19 8f bd 9d 18 4d 3e 5d c3 80 be
       -0.22668286 -0.069872625 0.2002892 -0.2514905
0000f0 3e fe a0 bd 8f 26 7b be 02 fe 10 3e b1 07 87 3d
       -0.07860993 -0.24526428 0.14159396 0.06593264
000100 cb c1 29 be 79 31 9e be aa 47 55 be 44 58 2c 3c
       -0.16577832 -0.3089712 -0.20828119 0.010519091
000110 82 9d 3f 3e b3 f3 fa bc 54 b4 0c be c2 bc bb bd
       0.18712428 -0.030633783 -0.13740665 -0.09166862
000120 7d c8 bb bb ae af e1 be 71 ba 9c 3d 0e 85 bf bd
       -0.005730687 -0.44079345 0.076527484 -0.0935155
000130 9b a8 08 3e 9f f4 69 be 71 de 07 3e 0d da 63 3d
       0.13345568 -0.22847222 0.13268448 0.05562787
000140 74 50 59 be 52 22 8b 3b 3e 1f 22 3e a9 23 83 bc
       -0.21222097 0.0042460347 0.1583223 -0.016008215
000150 af 33 85 bc 8a 15 ab 3e eb 20 35 3e ac 35 ec bd
       -0.016259996 0.3341487 0.17688338 -0.115336746
000160 c2 ad 65 be d4 91 2f be aa d8 86 bd 7e dc 01 3e
       -0.22429565 -0.17145473 -0.06584294 0.12681767
000170 4f f4 38 bd bd 24 87 bd aa a1 37 3d a1 b6 56 bc
       -0.045154866 -0.06598804 0.04483191 -0.013105066
000180 e2 b4 3f 3d 84 f3 5c 3e 39 b5 04 be 4a 4a 2b 3d
       0.046803363 0.21577269 -0.12959756 0.041818894
000190 42 9c a9 bd 11 4a 11 bd c4 ae 6d be 54 09 e5 3d
       -0.08281757 -0.035471026 -0.23211199 0.1118342
0001a0 41 1d 0a be ac e7 20 be b8 b1 38 bd 42 6d 37 3e
       -0.13487722 -0.15713376 -0.04509136 0.17912772
0001b0 6d dd 9d 3e df d5 9b bb eb 81 8c be e6 a7 d2 3d
       0.30832997 -0.00475572 -0.2744287 0.1028593
0001c0 93 c9 01 3e 8a f8 b7 3d 65 72 f4 bd e2 12 36 be
       0.1267455 0.08982952 -0.119358815 -0.1778064
0001d0 cb bf f4 3c ac 98 8c be 67 d3 75 be 7a 06 e7 3d
       0.02987661 -0.2746023 -0.24006425 0.11280532
0001e0 ec c0 b4 3d 3a e6 5a be 20 b0 00 3d cd 45 59 3b
       0.088258594 -0.21376887 0.031417966 0.0033153177
0001f0 17 ef 53 3d 39 1a 7b be f9 42 f7 bd 83 4e 2c 3e
       0.051741686 -0.24521722 -0.12073321 0.16826825
000200 9c 42 9b 3d d9 83 b3 3d a8 56 06 3e fe 3b 81 be
       0.07581064 0.08765382 0.13118994 -0.25241083
000210 54 b5 b0 bd 20 bb 84 be a0 bd 96 3d 22 f6 b0 3d
       -0.086283356 -0.25924015 0.07360387 0.08640696
000220 75 3f aa 3c 93 ae 10 bd 32 16 5c be e2 df 48 3e
       0.020782212 -0.035322737 -0.21492842 0.19616655
000230 8a 38 1c 3d 68 bb 50 be e4 99 cd bd 08 c5 7f bd
       0.038139857 -0.2038399 -0.10039118 -0.062443763
000240 7e 8f 53 3d 3a 74 4f be 54 8b 74 be 9a 8f ad 3d
       0.051650517 -0.2025918 -0.23881274 0.084746554
000250 c6 1e 58 3e ae 8b 39 3e 3e 7a c3 3d e8 24 80 bc
       0.21105489 0.1811969 0.095448 -0.015642598
000260 a4 39 84 bd 62 11 ba 3d 0c ad 3d 3d 88 15 82 be
       -0.064563066 0.09085347 0.04630761 -0.25407052
000270 ad 6e 21 bd 7e 8c c5 bd 55 ed 17 be 56 2c 2a be
       -0.03941219 -0.096459374 -0.14836629 -0.16618475
000280 8d a8 5e be 7e 37 37 3e 4b 29 43 3e 56 da 6f bd
       -0.21743985 0.17892262 0.19058721 -0.05855783
000290 73 01 1c bd 9c 82 74 3e 42 cd 1d 3e 37 74 12 3e
       -0.03808732 0.23877949 0.15410331 0.14302145
0002a0 53 3d 8a 3d bc 4d 5e bd 4d fb a4 bd f1 1f 15 3d
       0.06749978 -0.054273352 -0.08055744 0.036407415
0002b0 f0 8d 89 3d 74 de 20 be 81 70 cc 3d 2f 66 96 be
       0.067165256 -0.15709859 0.09982396 -0.29374835
0002c0 c3 50 3d 3d 1b fd 08 3e 3a 89 93 bd 9f d9 86 bd
       0.0462196 0.13377802 -0.07203908 -0.06584477
0002d0 83 69 81 be ba eb a5 bd 04 2e 2d bc 81 14 39 3d
       -0.25275812 -0.08101602 -0.010570053 0.04518557
0002e0 2a 91 7f 3d e2 2c bb 3d 93 ba af bd b4 51 70 3e
       0.0623943 0.0913942 -0.08580508 0.23468667
0002f0 5d 8d 2c be dd e4 5e be 15 89 10 3d d1 ba 19 be
       -0.16850801 -0.21766992 0.03528698 -0.15012671
000300 7f 4a ab bc 7d 65 00 be e3 e2 64 be dc 65 c7 3e
       -0.020909546 -0.12538715 -0.22352175 0.389449
000310 0e 12 8f 3d 61 fa 82 bd 8a 98 3d bd 0c d3 70 3a
       0.069858655 -0.06395412 -0.04628805 0.0009186722
000320 2b d1 43 3e 91 ec 25 be 8d 6d 2e 3d c5 ad 85 3e
       0.1912276 -0.16203524 0.042584945 0.26109138
000330 35 06 2d 3e 87 02 82 be 5b 3e 8b bb 68 3b c7 bd
       0.16896899 -0.25392553 -0.0042493767 -0.09728128
000340 cf 56 fb 3d 05 22 d9 3c 07 ce b6 3d 12 e7 64 bd
       0.12272417 0.02650548 0.08926015 -0.05588443
000350 2c 84 77 3d 2e b7 ae 3d 81 86 40 3d 0e b3 80 3e
       0.060428783 0.085310325 0.047003273 0.25136608
000360 75 80 d4 bc 99 5a 33 be ae 63 87 3d 49 bc 9f bb
       -0.02594016 -0.17515029 0.06610809 -0.0048747403
000370 28 78 25 3e b0 b0 4f 3d c4 2c 39 be de fb 54 bd
       0.16159117 0.05070561 -0.18083483 -0.05199801
000380 6e 0f 44 be db 44 60 be 98 2e 0e 3e 77 10 d2 bd
       -0.19146511 -0.21901266 0.13884962 -0.10257047
000390 dc ae 18 3e 27 87 3f 3e 0c 48 99 bd 3a 19 30 3d
       0.14910454 0.187039 -0.07484445 0.042992808
0003a0 78 db 45 3e 56 ea 5a 3e 72 eb f3 3d 2a a6 7e 3e
       0.19322002 0.21378455 0.11910142 0.24868074
0003b0 76 34 3e 3e 5e 3b 3f 3e 51 44 7d 3e aa e6 64 bd
       0.185747 0.1867499 0.24733092 -0.05588404
0003c0 64 e4 48 3e 1d 65 30 be 0e f4 5d bd 76 99 c9 bc
       0.19618374 -0.17226072 -0.054187827 -0.024609309
0003d0 7b 90 56 3e 18 dc f7 bc d1 f5 9e bd 76 d4 07 be
       0.20953552 -0.030256316 -0.077617295 -0.13264641
0003e0 61 03 86 bd 53 7b 39 be 95 5c f6 bd a7 b2 77 3e
       -0.06543613 -0.1811345 -0.12029377 0.24189244
0003f0 99 0d aa 3e b9 cd 58 be f8 5d f6 3d de 94 55 3c
       0.332135 -0.21172227 0.12029642 0.013035981
