mo/TARGCN/model/model_para/PEMSD8/epoch_12.pth (torch, 598407 bytes, 48 tensors)

node_embeddings f4 [170, 2]
0	0x3d28767c	0.04112862
1	0xbe8747e3	-0.26422033
2	0x3e095037	0.13409506
3	0xbe4f7cee	-0.202625
4	0x3e170354	0.14747363
5	0xbdb2ae72	-0.08724679
6	0x3ca5cab9	0.020238267
7	0xbe95974a	-0.29216987
8	0x3de27a90	0.11058533
9	0xbe83bb68	-0.25728917
10	0x3d1ce1ef	0.038301405
11	0xbe801173	-0.25013313
12	0x3e03f1f4	0.12885267
13	0xbe4968e7	-0.19668923
14	0x3e1a932d	0.15095206
15	0xbd2def8d	-0.04246478
16	0x3e52f84d	0.20602532
17	0x3d00c9cd	0.031442452
18	0x3dee6498	0.116402805
19	0xbebebbc2	-0.37252623
20	0x3cc62fdb	0.024192741
21	0xbe9f529d	-0.31117716
22	0x3e283a48	0.16428483
23	0xbd7f6276	-0.06234976
24	0x3e64ab51	0.22330977
25	0xbdc63c99	-0.09679527
26	0x3e5d9048	0.2163707
27	0xbe1d042d	-0.15333624
28	0x3e37b1f8	0.17938983
29	0xbe445771	-0.19173981
30	0x3bf55aa1	0.0074876104
31	0xbe86e22b	-0.26344427
32	0x3e8a7bd8	0.2704761
33	0x3d946386	0.07245545
34	0x3d5403c2	0.051761396
35	0xbe7a86fb	-0.24465553
36	0x3e5e7b8a	0.21726814
37	0xbddd9386	-0.108191535
38	0xbc2bd6be	-0.01048821
39	0xbe90a3f7	-0.28250095
40	0x3e63f9ea	0.22263303
41	0xbdc252df	-0.09488463
42	0x3e28541b	0.16438334
43	0xbd9e631d	-0.07733748
44	0x3e0480e3	0.12939791
45	0xbe75fb78	-0.24021709
46	0x3e2e1932	0.17001799
47	0xbe003597	-0.12520443
48	0x3e9b4bbb	0.30331215
49	0x3e1821b8	0.14856613
50	0x3de8a12b	0.11358865
51	0xbe1aab21	-0.15104343
52	0x3de5027c	0.111821145
53	0xbe32a582	-0.17445949
54	0x3dc6a02d	0.0969852
55	0xbe428daf	-0.1899936
56	0x3d595a1a	0.053064443
57	0xbe7e3dac	-0.24828213
58	0x3da67856	0.08128421
59	0xbe003f0a	-0.12524047
60	0x3dbed818	0.0931856
61	0xbdfc6505	-0.123239554
62	0x3e039135	0.12848361
63	0xbd9fc019	-0.078003116
64	0x3e763803	0.24044804
65	0xbc78da36	-0.015188744
66	0x3e3b886c	0.1831376
67	0xbe7c6a4e	-0.24649927
68	0x3e56f20d	0.20990773
69	0x3cf052e0	0.029336393
70	0xbded0abe	-0.115743145
71	0xbec067d1	-0.37579206
72	0x3e1587c3	0.1460257
73	0xbdf63889	-0.12022502
74	0x3e041f97	0.12902676
75	0xbd43d000	-0.047805786
76	0x3e3254fe	0.17415234
77	0xbdb11dbe	-0.08648251
78	0x3e53a0f1	0.20666863
79	0xbde872f8	-0.113500535
80	0x3d6539e0	0.055963397
81	0xbe2443ed	-0.16041537
82	0x3e257b76	0.16160378
83	0xbe34af61	-0.17645027
84	0x3e663e19	0.22484626
85	0xbc8d34e6	-0.017237138
86	0x3ddc6782	0.1076193
87	0xbe52d56d	-0.20589228
88	0x3e476156	0.19470724
89	0xbd437516	-0.047719084
90	0x3d91c7b1	0.07118166
91	0xbe731532	-0.23738554
92	0xbd89fe5d	-0.06737969
93	0xbebd2a7a	-0.3694647
94	0x3e02c3b5	0.12769969
95	0xbe100193	-0.140631
96	0x3c884837	0.016635997
97	0xbeb3a4cf	-0.35086676
98	0x3e193d0e	0.14964697
99	0xbcba0dee	-0.02271172
100	0x3e62e443	0.22157387
101	0xbce77cb4	-0.028257705
102	0x3e62f591	0.22163989
103	0xbce7d91b	-0.028301766
104	0xbd6e8281	-0.058229927
105	0xbee07443	-0.438387
106	0x3cacb201	0.021080973
107	0xbe8733f6	-0.2640683
108	0x3e3f5000	0.18682861
109	0xbd80414c	-0.062624544
110	0x3e518f07	0.20464717
111	0xbdf26e05	-0.11837391
112	0x3e654dcb	0.22392957
113	0xbd60aad7	-0.054850426
114	0x3e7ec0fd	0.24878307
115	0xbc5ae566	-0.013360357
116	0x3df7912a	0.12088235
117	0xbd5fd58b	-0.05464701
118	0x3db99a5b	0.09062644
119	0xbdc5ba85	-0.096547164
120	0x3badd8ea	0.005305399
121	0xbe5c948f	-0.21541046
122	0x3c87d545	0.016581187
123	0xbeb3adc7	-0.3509352
124	0x3d57a8fc	0.05265139
125	0xbe47d31f	-0.1951413
126	0xbe3b9f6d	-0.18322535
127	0xbef46343	-0.4773198
128	0x3d32d6f2	0.04366202
129	0xbe904377	-0.28176472
130	0x3db753d9	0.089515395
131	0xbdeee70b	-0.11665162
132	0x3da329dd	0.07966969
133	0xbe011df7	-0.12609087
134	0x3db4d1ca	0.088290766
135	0xbdbe6d38	-0.092981756
136	0x3e17cec4	0.14824969
137	0xbc5b7e3e	-0.013396798
138	0x3e2b5a65	0.16733702
139	0xbdb7ab6e	-0.089682445
140	0x3d85d6a2	0.065350786
141	0xbe7c6472	-0.24647692
142	0xbda78441	-0.08179522
143	0xbe996e28	-0.29966855
144	0x3da9b71a	0.08286877
145	0xbdcdde52	-0.1005217
146	0x3e519843	0.2046824
147	0xbdf28a79	-0.11842818
148	0x3e630439	0.2216958
149	0xbce7b77c	-0.028285734
150	0x3e62ed67	0.22160874
151	0xbce7b6a0	-0.028285325
152	0x3d94ec1f	0.07271599
153	0xbe1039bd	-0.14084525
154	0xbcf9fabb	-0.030515065
155	0xbe7d1e62	-0.24718621
156	0x3cfba9f5	0.03072069
157	0xbe4e7491	-0.20161654
158	0x3db27f8e	0.087157354
159	0xbbf5dc5b	-0.007503075
160	0x3c88833b	0.016664138
161	0xbeb3a2e9	-0.35085228
162	0x3e519a5a	0.20469037
163	0xbdf27dce	-0.118404016
164	0x3c11e5e9	0.0089049125
165	0xbe7c54a6	-0.24641666
166	0x3e519155	0.20465596
167	0xbdf27c85	-0.118401565
168	0x3e519ec3	0.20470719
169	0xbdf29d18	-0.118463695
170	0x3e621b9d	0.22080846
171	0x3c3eaa02	0.011637213
172	0xbbe785e1	-0.00706552
173	0xbe6ad299	-0.22931899
174	0x3bc3e38a	0.0059780525
175	0xbe1b43e6	-0.1516262
176	0x3d36ed13	0.044659685
177	0xbe134d59	-0.14384975
178	0x3e755591	0.23958422
179	0x3bd2205c	0.006412549
180	0x3e62ef0d	0.22161503
181	0xbce7d26f	-0.028298585
182	0x3e62f5f7	0.2216414
183	0xbce7ae42	-0.028281335
184	0x3dd0415a	0.10168715
185	0xbe5b5e78	-0.21422756
186	0x3e029f5a	0.127561
187	0xbe251abc	-0.1612348
188	0x3e5f18cb	0.21786802
189	0x3aff1146	0.0019460104
190	0x3e37402f	0.17895578
191	0xbd00da87	-0.031458404
192	0x3c80f3c5	0.015741238
193	0xbe389f7d	-0.1802959
194	0x3e71e044	0.23620707
195	0xbcbf3f36	-0.023345571
196	0x3d8a35bd	0.06748531
197	0xbe1e94b9	-0.1548642
198	0xbc05a8b1	-0.008157895
199	0xbe5e877d	-0.21731372
200	0x3dc8c235	0.09802667
201	0xbd87f606	-0.06638722
202	0x3e7c7d85	0.24657257
203	0xbd13e613	-0.036108088
204	0x3e99949c	0.29996192
205	0x3e1fbb8f	0.15598892
206	0x3e9a62dd	0.30153552
207	0x3e1783cb	0.14796369
208	0x3e4b574d	0.19857521
209	0xbd55882d	-0.05213182
210	0x3e04c000	0.12963867
211	0xbbc7d1f0	-0.0060980245
212	0x3d547f87	0.051879432
213	0xbe34f324	-0.17670876
214	0x3dc3e658	0.09565419
215	0xbda249a0	-0.07924199
216	0x3e0bedab	0.13664882
217	0xbe4e5d58	-0.20152795
218	0x3d5778dc	0.052605495
219	0xbe47edfd	-0.19524379
220	0xbc9e9ef6	-0.019362908
221	0xbe743f70	-0.23852324
222	0x3dc7fd1b	0.09765073
223	0xbe3e0131	-0.18555142
224	0x3e49712a	0.19672075
225	0x3cc7cc74	0.024389483
226	0x3e4fa98a	0.20279518
227	0x3d650468	0.055912405
228	0x3dd4b212	0.10385527
229	0x3cba24b0	0.022722572
230	0x3e62f85f	0.22165059
231	0xbce81514	-0.028330363
232	0x3e456bf4	0.19279462
233	0xbc15b427	-0.00913719
234	0x3cca1cbf	0.02467191
235	0xbe588ffe	-0.21148679
236	0x3d509d01	0.05093098
237	0xbe06881c	-0.13137859
238	0x3e37f5ad	0.17964812
239	0xbdab28fd	-0.08357427
240	0x3e3d3644	0.18477732
241	0xbd6b5532	-0.057454295
242	0x3c878bc1	0.016546132
243	0xbeb3b27b	-0.35097107
244	0x3c881d19	0.016615437
245	0xbeb3a836	-0.35089272
246	0x3c881565	0.016611764
247	0xbeb3a812	-0.35089165
248	0x3e4d6fe2	0.20062211
249	0xbe072470	-0.13197494
250	0x3d2815fa	0.041036583
251	0xbea05d4d	-0.31321183
252	0x3d1d4810	0.038398802
253	0xbe9b3b46	-0.3031866
254	0x3d321818	0.04348001
255	0xbe8c71c7	-0.27430555

encoder.dcrnn_cells.0.gate.weights_pool f4 [2, 65, 128]
0	0xbe9011c6	-0.2813856
1	0xbe295dd2	-0.16539696
2	0x3e817c0b	0.2528995
3	0x3dca83ff	0.098884575
4	0x3dabfbdb	0.08397647
5	0xbc1f1cd2	-0.009711461
6	0x3e3296f7	0.17440401
7	0xbf1c80a6	-0.611338
8	0x3d9509c7	0.072772555
9	0x3d61215d	0.05496346
10	0xbd9f2f89	-0.077727385
11	0xbeb66e14	-0.35630858
12	0x3e32af56	0.17449698
13	0xbda0af0e	-0.07845889
14	0x3e932e8e	0.28746456
15	0xbcd6a920	-0.026203692
16	0x3adba8b2	0.0016758649
17	0x3d7a1b25	0.061061043
18	0x3d9fcd88	0.07802874
19	0x3d12440e	0.035709433
20	0x3dd24100	0.10266304
21	0xbe47bdac	-0.19505948
22	0xbdade277	-0.0849046
23	0xbe1bb053	-0.15203981
24	0x3d798f92	0.060927935
25	0xbcf038dd	-0.02932399
26	0x3da39255	0.07986895
27	0x3dac49a5	0.08412484
28	0xbedaf882	-0.4276772
29	0xbd2a151e	-0.041524045
30	0xbdffc8ac	-0.12489447
31	0xbe890450	-0.26761103
32	0xbe9ccb33	-0.3062378
33	0xbd9ccfca	-0.0765682
34	0xbce20a7c	-0.02759289
35	0x3e23be6d	0.1599061
36	0x3da9fc57	0.08300083
37	0xbd9a6f78	-0.07540792
38	0x3c68c286	0.014206534
39	0x3e4a4a8b	0.19754998
40	0xbe3e127c	-0.18561739
41	0x3b2698fa	0.002542077
42	0x3eae557c	0.34049594
43	0xbde9059d	-0.11378024
44	0x3dd1acb1	0.102380164
45	0x3da17c79	0.078850694
46	0x3d83e5b9	0.064403005
47	0xbda94064	-0.08264235
48	0xbda0c248	-0.07849556
49	0xbc42f339	-0.011898809
50	0x3e247413	0.16059904
51	0x3dc3ff85	0.09570221
52	0xbdb9587f	-0.090500824
53	0xbe62ee51	-0.22161223
54	0xbd302832	-0.043007083
55	0xbc9fe518	-0.01951842
56	0xbc4e905c	-0.01260766
57	0xbd385852	-0.045006104
58	0xbda4d149	-0.080477305
59	0xbe184646	-0.14870557
60	0x3e5ead2f	0.21745752
61	0xbc6bab90	-0.014384165
62	0xbe315183	-0.1731625
63	0xbde5b3af	-0.112159126
64	0xbe1280e6	-0.14306983
65	0x3d8e0b5a	0.06935759
66	0xbe35f59e	-0.17769477
67	0xbeaba8ef	-0.33527324
68	0x3e8b71a2	0.27235132
69	0xbe57006e	-0.20996258
70	0xbeaa9e87	-0.33324072
71	0x3eada12a	0.3391202
72	0xbe0c245b	-0.13685744
73	0xbeaa4a73	-0.33259925
74	0xbd6042ab	-0.05475108
75	0xbe158110	-0.14600015
76	0xbdf4c7fa	-0.11952205
77	0x3dd282c9	0.102788515
78	0xbd28c1ac	-0.041200325
79	0xbe90e09a	-0.28296357
80	0xbe0ae50e	-0.1356394
81	0xbe14981c	-0.1451115
82	0xbe610c1e	-0.21977279
83	0xbea99d3c	-0.33127773
84	0x3d9d0f53	0.076689385
85	0x3dfbabbc	0.12288615
86	0x3e261d74	0.16222173
87	0xbbd5c5d2	-0.006523826
88	0xbd1a18ed	-0.037621427
89	0xbe832c0c	-0.25619543
90	0xbe04131f	-0.12897919
91	0xbe3beca9	-0.18351997
92	0x3eebf1bc	0.46082866
93	0xbec034f3	-0.37540397
94	0x3e4d8245	0.20069225
95	0xbe13215e	-0.14368197
96	0xbdc09bc9	-0.09404714
97	0xbc902bc9	-0.017599003
98	0x3dfca29b	0.12335702
99	0xbea60b28	-0.32430387
100	0x3ce8da4b	0.028424403
101	0xbe87ff37	-0.265619
102	0xbe58442a	-0.21119753
103	0x3cd496f5	0.025950888
104	0xbe0ffaad	-0.14060469
105	0xbeca2166	-0.39478606
106	0xbe5e265c	-0.2169432
107	0x3e54a559	0.207662
108	0x3dfac273	0.122441195
109	0xbe991305	-0.29897323
110	0xbe907ff0	-0.2822261
111	0x3e5783c9	0.21046366
112	0x3e3b60a5	0.18298586
113	0xbdb40a84	-0.08791068
114	0xbe12a948	-0.14322388
115	0x3e32535e	0.17414615
116	0x3e49b57a	0.19698134
117	0xbd00b9a8	-0.031427056
118	0xbe59b358	-0.2125982
119	0x3d795468	0.06087151
120	0xbbb26174	-0.005443746
121	0xbd418559	-0.04724631
122	0x3e63b257	0.22236
123	0x3e1055cb	0.14095227
124	0x3e500927	0.20315991
125	0xbddd5076	-0.10806362
126	0x3e96a037	0.2941911
127	0x3e7b6164	0.2454887
128	0x3e363533	0.17793731
129	0xbeac02ad	-0.3359579
130	0x3d1bae20	0.038007855
131	0xbec40a59	-0.38289145
132	0xbd745a2c	-0.059656307
133	0x3cf7c70c	0.03024628
134	0xbd496024	-0.049163952
135	0x3d59e788	0.05319932
136	0xbded5cdb	-0.115899764
137	0xbd1294ee	-0.03578656
138	0xbd4d1e33	-0.05007763
139	0xbeb58113	-0.35450038
140	0xbe969b1c	-0.29415214
141	0x3e1b3d96	0.15160212
142	0xbea3630e	-0.3191151
143	0x3d661351	0.056170765
144	0xbc1a509f	-0.009418636
145	0xbe94e233	-0.29078826
146	0xbdec300c	-0.11532602
147	0xbd4418b9	-0.04787514
148	0xbe8eccaf	-0.27890536
149	0x3d7676ab	0.060171764
150	0xbd4b6f9b	-0.049666982
151	0xbe4b35f4	-0.198448
152	0xbe50c904	-0.20389181
153	0xbca3a56f	-0.019976346
154	0xbd5c108c	-0.053726718
155	0xbc57c7b1	-0.013170169
156	0xbe16d57b	-0.14729874
157	0xbde51b9a	-0.11186905
158	0xbe3e2940	-0.18570423
159	0x3d464d6e	0.048413686
160	0x3d33dfb1	0.0439145
161	0xbe91b9ab	-0.28461966
162	0x3e8198d8	0.25311923
163	0xbe547af5	-0.2075003
164	0xbe34c5d5	-0.17653592
165	0xbdca5a89	-0.098805495
166	0x3b12cef3	0.0022401183
167	0x3d4c8aa6	0.049936913
168	0xbea9ae36	-0.33140725
169	0xbdbc8449	-0.09204919
170	0x3d0f7f88	0.035033733
171	0xbed65e82	-0.4186898
172	0xbd333ff2	-0.043762155
173	0x3d0ec994	0.03486021
174	0xbecd376d	-0.4008135
175	0x3d9e14d6	0.07718818
176	0x3b723c99	0.0036962389
177	0x3d85c35a	0.06531401
178	0x3d3ff3a6	0.04686322
179	0xbd2633d8	-0.040576786
180	0x3dcb9d14	0.0994207
181	0x3da9b996	0.08287351
182	0xbdf2d613	-0.11857238
183	0xbe983d28	-0.2973416
184	0xbe1b4ca7	-0.1516596
185	0xbe0d7f6c	-0.13818139
186	0xbdc74ee5	-0.09731845
187	0x3da154f8	0.07877535
188	0xbe932bb1	-0.2874427
189	0x3cfff0d3	0.031242764
190	0xbe66b13a	-0.22528544
191	0x3dcd10ea	0.10012992
192	0x3cacb402	0.021081928
193	0x3d99db76	0.07512562
194	0xbcb4a4b1	-0.022051187
195	0xbdb57c83	-0.08861639
196	0xbe0fa7e7	-0.14028893
197	0x3dca05b6	0.098643705
198	0xbc4829a0	-0.012216955
199	0xbce14f62	-0.027503673
200	0x3e0b7830	0.13620067
201	0xbcf7b33f	-0.030236838
202	0x3e00d392	0.12580708
203	0xbc03015d	-0.0079959305
204	0xbde72d95	-0.11287991
205	0xbd1e9d05	-0.038723964
206	0x3da27867	0.07933121
207	0x3d8fc3a1	0.07019735
208	0x3df0c7a7	0.11756831
209	0xbdcc62a0	-0.09979749
210	0x3dffc928	0.124895394
211	0x3d99d20f	0.075107686
212	0x3d8e2f8d	0.06942663
213	0xbc9765e0	-0.018481195
214	0xbd634dda	-0.055494167
215	0xbe8157b1	-0.25262216
216	0x3d5dfafe	0.054194443
217	0x3d436e9e	0.047712915
218	0x3e10e564	0.14150006
219	0x3dd258f9	0.102708764
220	0x3bbe9fcb	0.0058173887
221	0x3de710f0	0.112825274
222	0xbd756f06	-0.059920333
223	0xbd8d083b	-0.068863355
224	0xbc8d3015	-0.017234841
225	0x3d85f5ad	0.065409996
226	0xbd8151b5	-0.063144125
227	0xbda25bf1	-0.07927693
228	0x3c9799ef	0.018506018
229	0x3dda9842	0.10673572
230	0x3dabe875	0.08393947
231	0xbc19d13e	-0.009388266
232	0xbe1cb4fd	-0.15303417
233	0xbd099177	-0.03358599
234	0xbe3cfcda	-0.1845583
235	0x3d784160	0.06060922
236	0xbd22070a	-0.039557494
237	0x3cce24c7	0.025164021
238	0xbd4d82b7	-0.050173488
239	0x3ce37b6d	0.027768815
240	0x3cae617b	0.021286717
241	0xbd0c3e3e	-0.034239046
242	0xbd07c009	-0.033142123
243	0xbd4ec27d	-0.050478447
244	0x3abcaa77	0.0014394064
245	0xbdfe6dcf	-0.12423288
246	0xbdbe1c4c	-0.09282741
247	0x3ce75915	0.02824072
248	0x3d8d5dbd	0.06902645
249	0x3d644247	0.05572727
250	0xbc018c32	-0.00790696
251	0xbb9c03ff	-0.0047612186
252	0x3daab2c0	0.08334875
253	0x3ca1fb82	0.019773249
254	0x3cba9c51	0.022779616
255	0xbc404854	-0.011735994

encoder.dcrnn_cells.0.gate.bias_pool f4 [2, 128]
0	0x3ec0e80d	0.3767704
1	0xbf3401e5	-0.7031539
2	0x3e1e078a	0.15432563
3	0xbe65fcdf	-0.22459744
4	0x3ebe0001	0.37109378
5	0x3d9e173b	0.077192746
6	0xbd4125b2	-0.04715509
7	0xbd829b5d	-0.063772894
8	0x3c23e0de	0.010002343
9	0xbddee704	-0.108839065
10	0x3df2bfea	0.11853011
11	0xbe1391b6	-0.14411053
12	0xbec5ffff	-0.38671872
13	0x3da7791d	0.081773974
14	0xbdbc38dd	-0.09190533
15	0xbc1d0a8a	-0.009585032
16	0xbd9d95a9	-0.07694561
17	0xbe5298f8	-0.20566165
18	0x3d19d42b	0.037555855
19	0xbe2990cf	-0.16559146
20	0xbd3b4bc9	-0.04572657
21	0xbd60cbe0	-0.05488193
22	0x3dcc67eb	0.09980758
23	0xbea787bd	-0.32720748
24	0xbc293204	-0.010326866
25	0xbd8aa750	-0.067701936
26	0xbdedf80f	-0.11619579
27	0x3e0eaecb	0.13933866
28	0x3d7a0194	0.06103666
29	0xbd949983	-0.072558425
30	0xbdcfe4ac	-0.101510376
31	0x3efe9e29	0.49730042
32	0x3db7f72f	0.089826934
33	0xbe476d20	-0.19475222
34	0x3e6191a2	0.22028211
35	0xbe8e31ea	-0.27772456
36	0xbed0cdc4	-0.40781987
37	0xbeafe6dc	-0.3435582
38	0xbd30bf49	-0.043151174
39	0xbdf22a89	-0.11824519
40	0xbda7fab6	-0.08202116
41	0x3e1e9b5e	0.15488955
42	0xbd469013	-0.048477244
43	0xbd99a895	-0.075028576
44	0x3dc72838	0.09724468
45	0x3dcb8c05	0.09938816
46	0xbeefce55	-0.46837106
47	0x3e00348f	0.1252005
48	0x3e120173	0.14258365
49	0x3e7fdd72	0.24986818
50	0x3e39eece	0.18157503
51	0x3d9c08eb	0.076188885
52	0x3e4e2f0c	0.20135134
53	0x3df35f64	0.11883429
54	0xbe9a1f86	-0.30102175
55	0xbea56ff1	-0.32311967
56	0xbe72cec4	-0.23711687
57	0x3e476590	0.19472337
58	0xbd433b70	-0.047664106
59	0x3e45ca2e	0.19315407
60	0xbda3d41b	-0.0799944
61	0x3d7ecbb2	0.062205978
62	0xbe07a930	-0.13248134
63	0x3c2f9f12	0.010719078
64	0x3df54fa6	0.11978082
65	0x3d010123	0.031495225
66	0x3db61ea2	0.088925615
67	0xbe865b6f	-0.26241633
68	0xbe96f95d	-0.29487124
69	0x3e3d5313	0.18488722
70	0xbe328e3c	-0.1743707
71	0xbec2f645	-0.38078514
72	0x3e4e1d23	0.20128302
73	0xbe3c67ba	-0.18398944
74	0x3e121bfa	0.14268485
75	0xbd458425	-0.048221726
76	0xbc141d2e	-0.00904016
77	0x3d790da1	0.060804013
78	0x3e0f064f	0.1396725
79	0x3cdc016a	0.026856143
80	0xbcaa2078	-0.020767435
81	0xbdfba950	-0.12288153
82	0xbd3bc74c	-0.04584436
83	0xbddf1718	-0.10893077
84	0xbd58fca8	-0.052975327
85	0xbe42e345	-0.19032009
86	0xbd491027	-0.04908767
87	0xbd3137de	-0.04326617
88	0x3da8c85c	0.082413405
89	0x3ce76659	0.028247045
90	0x3e6e34c3	0.23262314
91	0x3d92dcf8	0.07171053
92	0xbddc89b2	-0.10768451
93	0xbd686d7e	-0.056745045
94	0x3e6031d0	0.21894002
95	0x3ca60952	0.020268116
96	0x3d870e9f	0.065945856
97	0xbd05902d	-0.0326082
98	0xbde24d95	-0.11049954
99	0xbe73ad6e	-0.23796627
100	0xbda67575	-0.08127872
101	0xbc925e2f	-0.017867176
102	0x3ddfa4be	0.10920094
103	0xbe21aa66	-0.15787658
104	0xbd81be5d	-0.06335137
105	0xbe937d1f	-0.28806397
106	0xbe12a598	-0.14320982
107	0xbde60350	-0.112311006
108	0xbe8c1282	-0.2735787
109	0xbe3f2010	-0.18664575
110	0xbe7ef32d	-0.24897452
111	0x3e343b1d	0.17600675
112	0xbd8d2d5b	-0.068934165
113	0xbec3c0a0	-0.382329
114	0xbe7482ae	-0.23877975
115	0x3d84a95f	0.064776175
116	0xbe937c88	-0.28805947
117	0xbdea4954	-0.114397675
118	0x3df9ceb3	0.12197628
119	0x3d448b2b	0.047984283
120	0x3e5a3896	0.21310648
121	0xbdd3cf25	-0.10342244
122	0x3cd1fa16	0.025631946
123	0xbe1739fc	-0.14768213
124	0xbd1cd7eb	-0.038291853
125	0x3e42f7ab	0.1903979
126	0xbe4a376d	-0.19747706
127	0x3e117df3	0.14208202
128	0xbe9aab2e	-0.30208725
129	0x3efbf040	0.49206734
130	0xbcfe0d44	-0.031012185
131	0x3ec20b0a	0.37899047
132	0xbe91dde2	-0.28489596
133	0x3db6c40a	0.0892411
134	0xbc918b15	-0.017766515
135	0x3f0172c7	0.5056576
136	0x3e250bcf	0.16117786
137	0xbe47057c	-0.19435686
138	0xbe7ed1b9	-0.2488469
139	0x3e9a441a	0.30130082
140	0x3eb7dc8a	0.35910445
141	0xbb4b14eb	-0.003098781
142	0x3ecddb57	0.40206406
143	0xbe0597ca	-0.13046184
144	0xbdc1d90b	-0.09465226
145	0x3dc19f8c	0.09454259
146	0xbe409d4d	-0.18810005
147	0xbe0fcebf	-0.14043711
148	0xbd1f299b	-0.038858037
149	0xbd390bc6	-0.045177244
150	0x3b25f8ed	0.0025325373
151	0x3e92b351	0.28652433
152	0x3eb4063a	0.35161
153	0x3d773a4a	0.060358323
154	0xbe430d4c	-0.19048041
155	0x3daee4de	0.08539747
156	0x3ded1ed7	0.11578148
157	0xbdbfb123	-0.09359958
158	0x3daee599	0.08539886
159	0x3e628009	0.22119154
160	0xbe7e27e7	-0.24819909
161	0x3e7ac670	0.2448976
162	0xbdfa3130	-0.12216413
163	0x3ea66d7a	0.325054
164	0x3e9d7631	0.30754235
165	0x3dd638cb	0.10460051
166	0xbe884ac6	-0.26619548
167	0xbd70be9c	-0.05877553
168	0x3e469140	0.19391346
169	0xbdf1a768	-0.11799508
170	0x3e45204e	0.19250605
171	0x3d3341e8	0.043764025
172	0xbe014262	-0.1262298
173	0x3d9ddead	0.07708488
174	0xbb81b02e	-0.00395777
175	0xbe86ea25	-0.26350513
176	0xbe3929aa	-0.180823
177	0xbdf30147	-0.11865478
178	0xbe290217	-0.16504703
179	0x3de64a38	0.11244625
180	0xbcde8071	-0.027160855
181	0xbe573564	-0.2101646
182	0x3e7ca243	0.24671273
183	0x3e185803	0.14877324
184	0xbc94b6be	-0.018153545
185	0xbd9174cb	-0.071023546
186	0xbd83d819	-0.06437702
187	0xbe91c19e	-0.2846803
188	0x3e0bc5d3	0.13649683
189	0x3cfffc1e	0.031248149
190	0x3e3846ae	0.17995712
191	0x3e102aab	0.14078777
192	0x3c9dca0c	0.019261383
193	0xbe27dc0c	-0.16392535
194	0xbe001322	-0.12507299
195	0xbe4f1cdf	-0.20225857
196	0x3e06f0cd	0.13177796
197	0x3d5960b7	0.05307075
198	0x3e09e879	0.13467588
199	0x3dea62f0	0.11444652
200	0x3c3fd204	0.0117077865
201	0x3e255e74	0.16149312
202	0xbe82539c	-0.25454414
203	0x3db9232a	0.0903991
204	0xbe384540	-0.17995167
205	0x3e6b2439	0.22963037
206	0x3d438235	0.047731597
207	0xbe08b9ff	-0.13352202
208	0xbe6269d6	-0.22110686
209	0x3e8124ba	0.25223333
210	0x3e8f0551	0.27933744
211	0xbe0f1fc2	-0.13976958
212	0x3e1e4456	0.15455756
213	0x3ebe1ebc	0.37132823
214	0xbdb90b69	-0.090353794
215	0x3eac6cd3	0.33676776
216	0xbe34f686	-0.17672166
217	0x3c2e1436	0.010624936
218	0x3cddcd52	0.027075443
219	0x3d8546f7	0.06507676
220	0xbd8d5f62	-0.069029585
221	0xbd392cdf	-0.045208808
222	0x3cec55b5	0.028849462
223	0xbe421231	-0.18952252
224	0x3ea22467	0.31668398
225	0xbd60c761	-0.054877643
226	0x3e9d9344	0.30776417
227	0x3e45aa1a	0.1930317
228	0xbe0d9e12	-0.1382983
229	0xbc519777	-0.01279246
230	0xbd23019a	-0.03979645
231	0xbd055588	-0.032552272
232	0x3e161618	0.14656866
233	0xbc68e390	-0.014214411
234	0xbe40998f	-0.18808578
235	0xbe6a4820	-0.22879076
236	0x3d89d291	0.067296155
237	0x3e7a544b	0.24446218
238	0x3dedd127	0.11612158
239	0x3dc951c1	0.098300464
240	0x3e89c721	0.26909736
241	0x3f00b9f0	0.5028372
242	0x3cfe2684	0.031024225
243	0xbddd722f	-0.108127944
244	0x3ea2b8a4	0.31781495
245	0x3e0083a7	0.12550221
246	0xbdb03f6e	-0.08605848
247	0x3c0e45f1	0.0086836675
248	0x3d98c725	0.07459859
249	0x3bbb796a	0.005721261
250	0x3e868913	0.26276454
251	0x3cfb9ca4	0.03071434
252	0xbdc0083e	-0.09376572
253	0xbdc5c2a1	-0.09656263
254	0xbd95dd7e	-0.07317637
255	0x3dffce45	0.12490515

encoder.dcrnn_cells.0.gate.linear.weight f4 [128, 65]
0	0xbe3f193d	-0.18661971
1	0x3e056b72	0.13029268
2	0x3d86901b	0.06570455
3	0x3d08ffc2	0.033447035
4	0x3e266923	0.16251044
5	0x3e00153a	0.12508097
6	0x3e874c66	0.26425475
7	0x3eda010f	0.42578933
8	0xbb8aea0e	-0.0042393273
9	0x3dc0f98d	0.09422598
10	0x3ed17fab	0.40917715
11	0x3d27a968	0.040933043
12	0x3d6a149d	0.057148565
13	0x3eb1c4db	0.347205
14	0xbbefe323	-0.007320778
15	0x3beeaa7b	0.0072835064
16	0x3e195081	0.14972116
17	0xbf38d545	-0.72200423
18	0xbd80a00a	-0.06280525
19	0xbe5528f7	-0.20816408
20	0xbd14bf13	-0.036315035
21	0x3dbbeca4	0.09175995
22	0x3e79ec50	0.24406552
23	0x3e3c0cf9	0.18364324
24	0x3e489396	0.1958755
25	0x3db6dc3e	0.089287266
26	0x3e62575e	0.2210364
27	0x3e0eb267	0.13935243
28	0xbdcec967	-0.10097008
29	0x3da1f9c7	0.07908969
30	0x3ee72095	0.45142046
31	0x3e27dcdf	0.1639285
32	0xbe25addf	-0.16179608
33	0xbcea6db3	-0.028616762
34	0x3e67a2e0	0.22620726
35	0xbd6791b1	-0.056535427
36	0xbe238497	-0.15968548
37	0x3de29d4b	0.110651575
38	0x3d1df596	0.038564287
39	0x3e8bc7c9	0.2730086
40	0x3e6a740b	0.2289583
41	0x3e44c960	0.19217443
42	0xbe21e548	-0.1581012
43	0x3d7fb194	0.06242521
44	0x3e44516c	0.19171685
45	0x3cfc981f	0.030834256
46	0x3e0f84c5	0.14015491
47	0x3dde076c	0.10841259
48	0xbd96c915	-0.07362572
49	0x3d89ce17	0.06728762
50	0x3e328480	0.17433357
51	0x3ec60b84	0.3868066
52	0xbd6289bc	-0.055307135
53	0x3e8bedea	0.27329952
54	0x3e54c039	0.20776452
55	0x3e79aa23	0.24381308
56	0x3e92b489	0.28653362
57	0xbe61eafa	-0.22062293
58	0xbe2fbfe4	-0.17163044
59	0x3e1dc263	0.15406184
60	0x3e8b6168	0.27222753
61	0x3dbde880	0.092728615
62	0xbd890da2	-0.066920534
63	0x3e5c9ab4	0.2154339
64	0x3d859940	0.06523371
65	0xbd860fe4	-0.06546
66	0xbd5929b8	-0.0530183
67	0x3e23e7aa	0.16006342
68	0xbe5eae8d	-0.21746273
69	0xbdd27fde	-0.10278295
70	0xbd797c5f	-0.060909625
71	0xbe245681	-0.16048624
72	0xbe88ff2c	-0.2675718
73	0xbdbba653	-0.09162583
74	0x3dcc0138	0.0996117
75	0xbe558c27	-0.20854245
76	0x3e865b55	0.26241556
77	0x3e3665be	0.17812249
78	0xbd41fac5	-0.047358293
79	0x3c42838b	0.011872183
80	0x3d00cbd2	0.03144438
81	0xbe75a861	-0.23990013
82	0x3cb393ad	0.021921003
83	0x3da975b1	0.08274401
84	0x3b032585	0.0020011377
85	0x3d679224	0.056535855
86	0xbd40a1f2	-0.047029443
87	0x3d62fc8f	0.05541664
88	0xbe43c3b0	-0.19117618
89	0xbe140b48	-0.14457428
90	0xbccf87e4	-0.025333352
91	0xbe56a5d6	-0.20961699
92	0x3b699bfa	0.0035645948
93	0x3d002a82	0.03129054
94	0xbe21a2cd	-0.1578476
95	0xbe3121cd	-0.1729805
96	0xbe417ba5	-0.18894823
97	0xbd5d0557	-0.05396017
98	0x3da48be4	0.080344945
99	0xbd835567	-0.064127736
100	0x3dda89cc	0.10670814
101	0x3cccefb8	0.02501665
102	0xbe1b7edd	-0.15185113
103	0x3e97a8e3	0.29621038
104	0xbded2648	-0.11579567
105	0x3b7215d8	0.003693929
106	0xbe41fa1f	-0.1894307
107	0x3d8c2c82	0.06844427
108	0x3def9401	0.116981514
109	0xbde7bfa3	-0.11315849
110	0xbd598243	-0.053102743
111	0xbe192328	-0.14954817
112	0xbe5a5f91	-0.21325518
113	0x3acef370	0.0015789103
114	0x3e264609	0.16237654
115	0xbde8d0b9	-0.11367936
116	0xbe14de67	-0.14537965
117	0xbd69a366	-0.057040595
118	0x3d86ad62	0.06576039
119	0xbda2518d	-0.07925711
120	0xbdf9f41e	-0.12204765
121	0x3d89831d	0.06714461
122	0x3e42f471	0.1903856
123	0xbe131c71	-0.14366318
124	0xbe7bc6bb	-0.24587528
125	0xbe1073b9	-0.14106645
126	0xbc9e7075	-0.019340733
127	0x3e495feb	0.19665496
128	0x3de55210	0.11197293
129	0xbe4c8fa7	-0.19976674
130	0x3ea0fef2	0.31444508
131	0xbdfebf3c	-0.12438819
132	0xbd79371c	-0.060843572
133	0xbe126222	-0.14295247
134	0x3e657515	0.22407945
135	0xbdb45005	-0.08804325
136	0xbcdda9e9	-0.027058559
137	0xbde1bbff	-0.110221855
138	0x3e5b52a8	0.2141825
139	0x3d7693c8	0.06019953
140	0xbd193190	-0.037400782
141	0x3d9ff0a8	0.078095734
142	0xbc0f082b	-0.008729975
143	0x3ca8a55f	0.020586668
144	0x3e579cf8	0.21055973
145	0x3d8d66d2	0.06904377
146	0xbdd81f04	-0.10552791
147	0x3ba7d18e	0.0051214164
148	0x3d85263b	0.065014325
149	0x3d903983	0.070422195
150	0x3e50efa7	0.2040392
151	0x3daa4356	0.083136246
152	0xbd671b2b	-0.056422394
153	0xbdca4d84	-0.09878066
154	0x3e27a330	0.16370845
155	0xbdfd9d1a	-0.1238348
156	0xbd56595e	-0.05233132
157	0xbcaf8698	-0.021426484
158	0xbe8757c8	-0.2643416
159	0xbdc9cc24	-0.0985339
160	0xbe5268a6	-0.20547733
161	0x3e0b47d3	0.13601618
162	0x3d217fdb	0.039428573
163	0xbde7dd41	-0.11321498
164	0xbd115a22	-0.035486348
165	0x3ea76495	0.32693925
166	0x3e8fc92e	0.28083175
167	0x3dbf6cfa	0.093469575
168	0x3e6d55a4	0.231772
169	0x3e5f0e59	0.21782817
170	0x3e28d604	0.1648789
171	0x3a75be75	0.00093743886
172	0xbde19ce3	-0.11016252
173	0xbdc0ef9e	-0.09420703
174	0x3e000f31	0.12505795
175	0x3bc0b8b8	0.005881395
176	0x3e2d1b54	0.16904956
177	0xbcef3a07	-0.029202474
178	0x3dc0ae74	0.09408274
179	0x3d1eccfb	0.038769703
180	0x3e18f4ee	0.14937183
181	0xbd2c8a9b	-0.042124372
182	0xbe471c13	-0.19444303
183	0xbdf8c327	-0.12146597
184	0xbdcf3297	-0.10117071
185	0xbd8dbc9d	-0.06920741
186	0x3e0c80b2	0.13720968
187	0x3dedeaae	0.11617027
188	0xbe03e666	-0.12880859
189	0xbe5bcb41	-0.21464254
190	0xbe09b0ab	-0.134463
191	0xbe9c5a64	-0.30537713
192	0xbe39420e	-0.18091604
193	0x3d702503	0.058629047
194	0x3db4100b	0.087921225
195	0xbccba9e7	-0.02486129
196	0xbe95af7a	-0.2923544
197	0x3dff7de6	0.12475185
198	0xbddb8b60	-0.10719943
199	0x3d283083	0.04106189
200	0xbe5dfe2b	-0.21678989
201	0xbe0362ef	-0.12830709
202	0xbd6f18d6	-0.058373295
203	0xbd146c65	-0.036236186
204	0x3e618865	0.22024687
205	0xbe83cd70	-0.25742674
206	0xbde3b6b0	-0.11118829
207	0xbc8c8724	-0.017154284
208	0x3d2ecaea	0.042673983
209	0xbe39a839	-0.18130578
210	0x3e4e5aa4	0.20151764
211	0xbe38df08	-0.1805383
212	0x3d996bde	0.07491277
213	0x3dcd3117	0.10019129
214	0x3eb67009	0.3563235
215	0x3ea2c4dc	0.31790817
216	0x3da8fbfe	0.08251189
217	0x3dc5ff5b	0.09667846
218	0x3e0fd194	0.14044791
219	0xbd374846	-0.04474666
220	0xbcfc7328	-0.03081663
221	0xbdc7ecca	-0.09761961
222	0xbe2e2901	-0.17007829
223	0xbe24cb7c	-0.16093248
224	0xbe58ef38	-0.21185005
225	0xbe0c845d	-0.13722368
226	0x3e46a55d	0.19399019
227	0x3ed60a0b	0.41804537
228	0xbeb00e0f	-0.34385726
229	0x3e4ba99d	0.19888921
230	0xbe1a1eb3	-0.15050773
231	0x3e44e660	0.19228506
232	0xbcfcb32d	-0.030847156
233	0x3e8477ba	0.25872594
234	0xbe28cbda	-0.16484013
235	0xbd3f4c42	-0.046703584
236	0x3c8193dc	0.015817575
237	0x3e6f8045	0.23388775
238	0x3e14cf73	0.1453226
239	0xbd03cb48	-0.032176286
240	0x3bcf920d	0.0063345493
241	0xbe965d9e	-0.293683
242	0x3e51084e	0.20413324
243	0xbe446e34	-0.19182664
244	0xbd950a43	-0.07277348
245	0xbe636cb5	-0.22209437
246	0xbe359935	-0.17734225
247	0x3d69a924	0.05704607
248	0xbeaaff33	-0.33397827
249	0x3d8ba8d1	0.068193085
250	0xbd7e2a1c	-0.062051877
251	0x3e24a586	0.16078767
252	0x3eb3a479	0.3508642
253	0xbdbad295	-0.091221966
254	0xbdf044ba	-0.117318586
255	0xbe802648	-0.25029206

encoder.dcrnn_cells.0.gate.linear.bias f4 [128]
0	0x3f091e39	0.5356174
1	0xbce2a879	-0.027668225
2	0x3e11f796	0.14254603
3	0xbe16e1e6	-0.14734611
4	0x3f79791d	0.9745043
5	0x3f093f50	0.5361223
6	0x3edc97b3	0.43084487
7	0x3ecf460b	0.40483126
8	0x3f479479	0.77960926
9	0x3e51ff6c	0.20507592
10	0x3f483f38	0.78221464
11	0x3f11772c	0.56822467
12	0x3e2af9bc	0.16696829
13	0x3f040651	0.5157214
14	0x3f0ee6e7	0.5582108
15	0x3f805e10	1.0028706
16	0x3f5250c3	0.8215448
17	0x3ec77fb2	0.3896461
18	0x3e3d25e0	0.1847148
19	0x3f2a2644	0.6646464
20	0x3eaf40f6	0.3422925
21	0x3f0edf00	0.5580902
22	0x3f6d391b	0.9266526
23	0x3eadadb8	0.339216
24	0x3cbbbd40	0.02291739
25	0x3ef4d412	0.47818047
26	0x3f48c09c	0.784189
27	0x3f53f4e8	0.8279557
28	0x3ee9a9ef	0.45637462
29	0x3ee28068	0.4423859
30	0x3f4ee995	0.8082517
31	0xbe1021bf	-0.14075373
32	0x3eb894b0	0.3605094
33	0x3eddf7be	0.43353075
34	0x3e7f767b	0.2494754
35	0x3f13ad1d	0.57686025
36	0x3ecaf270	0.3963809
37	0x3d19738c	0.03746371
38	0x3ed4bc61	0.41549972
39	0x3f0fb339	0.5613285
40	0xbc92bb47	-0.017911566
41	0xbbc802ef	-0.0061038653
42	0x3e3f85c6	0.18703374
43	0x3e72dedd	0.23717828
44	0x3f5e204e	0.86768043
45	0x3f236bec	0.6383655
46	0x3ecd1b80	0.40060043
47	0x3f801996	1.0007808
48	0x3f61514a	0.8801466
49	0x3f545d79	0.8295513
50	0x3f0206da	0.50791705
51	0x3ef942c6	0.48683757
52	0x3ed46c9d	0.41489115
53	0x3f87e730	1.0617428
54	0x3eb9b77d	0.36272803
55	0x3ef04fd1	0.46935895
56	0x3f0d2681	0.5513688
57	0x3f2a926c	0.6662967
58	0x3e6407ab	0.2226855
59	0x3f6c5336	0.9231447
60	0x3f38430d	0.7197731
61	0x3e893b0c	0.26802862
62	0x3da1cc9a	0.07900353
63	0x3f7c0cc0	0.98456955
64	0x3ec028af	0.3753104
65	0x3e9c7886	0.30560702
66	0x3f131fc5	0.5747035
67	0x3ea181f8	0.3154447
68	0x3f153679	0.58286244
69	0x3f86abaa	1.0521138
70	0x3f5b40a6	0.8564552
71	0x3f1d3459	0.61408
72	0x3eeee782	0.46661
73	0x3f452d3f	0.77022165
74	0x3f94cda4	1.1625257
75	0x3dc46bf1	0.09590901
76	0x3e47338f	0.19453262
77	0x3ef9af34	0.48766482
78	0xbd275679	-0.04085395
79	0x3f03ffbc	0.51562095
80	0x3f1f0e30	0.62131023
81	0x3f2f7d48	0.6855054
82	0x3f5af7a3	0.85534114
83	0x3f226bbb	0.63445634
84	0x3d24ecd2	0.040264912
85	0xbd8ed640	-0.06974459
86	0x3f232abe	0.63737094
87	0x3e67201f	0.22570847
88	0x3da86ba7	0.08223658
89	0x3eb8f46a	0.36123973
90	0x3f466093	0.7749111
91	0x3f058c38	0.5216708
92	0xbe4f0441	-0.20216466
93	0x3f5c2812	0.8599864
94	0x3f281078	0.6565013
95	0x3f2d1705	0.6761325
96	0x3f66dcea	0.9018084
97	0x3f13bac4	0.57706857
98	0x3dcae757	0.09907406
99	0x3f1481fb	0.58010834
100	0x3ecdf989	0.40229443
101	0x3e9c31c0	0.30506706
102	0x3f127f57	0.57225555
103	0x3e9ea9a2	0.30988795
104	0x3f6a706c	0.9157779
105	0x3e547030	0.20745921
106	0x3f4f74b0	0.81037426
107	0x3d7040c7	0.058655526
108	0x3ed9104b	0.42395243
109	0x3e1c7da5	0.15282305
110	0x3f038d3b	0.51387376
111	0x3f836698	1.0265684
112	0x3f1cb5ec	0.6121509
113	0x3d74adfa	0.05973623
114	0x3d905c50	0.07048857
115	0x3e75ed0f	0.24016212
116	0x3f0a686b	0.5406558
117	0x3eedea6e	0.46467918
118	0x3f260919	0.6485763
119	0x3df63601	0.12022019
120	0x3f5c4869	0.8604799
121	0x3f4b9d3f	0.79536813
122	0x3dc0a084	0.09405616
123	0x3f178e7b	0.5920178
124	0x3ea81065	0.32825008
125	0x3ee8678b	0.45391497
126	0xbd68479d	-0.05670892
127	0x3f1c6395	0.6108945

encoder.dcrnn_cells.0.update.weights_pool f4 [2, 65, 64]
0	0x3e861ed5	0.26195398
1	0xbf026085	-0.5092853
2	0x3e7bf8ef	0.2460668
3	0x3e85c5e8	0.26127553
4	0xbe360f8d	-0.1777937
5	0xbe292ea3	-0.16521697
6	0xbe51891a	-0.20462456
7	0x3e965ac8	0.29366136
8	0x3e3f5814	0.18685943
9	0xbe361aab	-0.1778361
10	0x3e31e578	0.17372692
11	0x3e204bd9	0.15653934
12	0x3e7d36bb	0.2472791
13	0xbd4f349c	-0.05058728
14	0xbeee529d	-0.46547404
15	0xbe222246	-0.15833387
16	0x3e0f2d12	0.13982037
17	0x3e94b2fc	0.29042804
18	0x3d86757d	0.06565378
19	0x3d7e47e7	0.06208029
20	0xbeb27cdb	-0.34860882
21	0x3e2b2a20	0.16715288
22	0x3e043fd4	0.12914973
23	0x3e981834	0.29705966
24	0xbe6fe0c0	-0.23425579
25	0xbe39aee9	-0.18133129
26	0xbe64b027	-0.22332822
27	0x3dd75b1b	0.10515424
28	0x3ef055d1	0.46940473
29	0xbe55542b	-0.20832889
30	0x3e8697b1	0.26287606
31	0xbe11e9ca	-0.1424934
32	0x3e93b106	0.28845996
33	0x3ebacec2	0.3648587
34	0xbda2bfa2	-0.07946707
35	0x3e5ba296	0.2144874
36	0x3e3e7a3c	0.18601316
37	0x3e636358	0.22205865
38	0xbd972eb1	-0.073819526
39	0xbd51f9f6	-0.051263772
40	0x3e9167b5	0.28399435
41	0x3e0bd930	0.13657069
42	0x3e36cd37	0.17851721
43	0x3e9e296c	0.30890977
44	0xbdd614d5	-0.10453192
45	0xbe384c0f	-0.17997764
46	0x3ecbcbb6	0.39803857
47	0x3c801413	0.015634572
48	0xbed0f02f	-0.40808246
49	0xbe27fd5d	-0.16405244
50	0xbe49826a	-0.19678655
51	0xbea24d45	-0.31699577
52	0x3d9e7a52	0.077381745
53	0x3e1c500a	0.15264907
54	0x3ec8fe85	0.39256683
55	0xbf295df3	-0.6615898
56	0x3e4273bf	0.18989466
57	0x3e42623a	0.18982783
58	0xbe807831	-0.250917
59	0x3df0f326	0.11765127
60	0xbf42268d	-0.75840074
61	0x3dd9e50b	0.106393896
62	0x3eb7f2e7	0.35927507
63	0xbd463b32	-0.048396297
64	0xbd185841	-0.03719354
65	0xbe096b4b	-0.13419835
66	0xbdde4dcb	-0.108546816
67	0xbd6a7062	-0.057236083
68	0xbcbbb0f5	-0.022911528
69	0x3bf7be92	0.0075605595
70	0x3da09ba5	0.07842187
71	0x3e0460bd	0.12927528
72	0xbd34e28d	-0.04416137
73	0x3d0ac11b	0.033875566
74	0xbdb2a127	-0.087221436
75	0x3bdc1b53	0.0067171245
76	0xbd851762	-0.064986005
77	0xbcedfab6	-0.029050212
78	0xbd8275a0	-0.063700914
79	0x3cabcd80	0.020972013
80	0xbd1187a1	-0.035529736
81	0xbd9c8768	-0.07643014
82	0x3cc92872	0.024555419
83	0xbc92e105	-0.017929563
84	0xbd1acd56	-0.03779348
85	0xbd8191d8	-0.063266456
86	0xbdfc8b93	-0.12331309
87	0xbd07a07f	-0.033112045
88	0xbd3b7d00	-0.045773506
89	0x3cabc23f	0.020966647
90	0xbcd3925d	-0.025826627
91	0xbd77fa6d	-0.06054156
92	0xbdaa0ce4	-0.0830324
93	0x3d51d39e	0.051227205
94	0xbd2432ab	-0.040087383
95	0x3d194aaa	0.03742472
96	0xbc85678c	-0.016284727
97	0xbd48d449	-0.049030576
98	0xbcf65c54	-0.030073322
99	0xbdeef16d	-0.11667142
100	0xbda0dfda	-0.07855196
101	0xbdb7e677	-0.089795046
102	0x3c5f692b	0.013635914
103	0xbd170bc6	-0.036876462
104	0xbdb042a9	-0.086064644
105	0xbd8c7974	-0.06859103
106	0xbda96105	-0.08270458
107	0xbd9eeb15	-0.07759682
108	0xbd388762	-0.045050986
109	0x3d3b3639	0.045706008
110	0xbd6254b9	-0.05525658
111	0xbd3f4e60	-0.046705604
112	0xbde18690	-0.11011994
113	0x3de5eed4	0.112271935
114	0xbd0ba340	-0.034091234
115	0xbd811e58	-0.06304616
116	0x3c8495c6	0.016184699
117	0xbd57a751	-0.0526498
118	0xbd8b07ad	-0.067885734
119	0xbc482ab7	-0.012217215
120	0x39d818f8	0.00041217334
121	0xbd85e20e	-0.06537257
122	0xbdf6714f	-0.12033331
123	0xbd1a23fd	-0.037631977
124	0xbd642068	-0.055694968
125	0xbd4ce22f	-0.050020393
126	0xbd0476f9	-0.032340024
127	0xbcdfc313	-0.027314698
128	0xbe82c00f	-0.25537154
129	0xbc58484f	-0.013200833
130	0x3dabab1d	0.08382247
131	0x3e4bbe8f	0.19896911
132	0x3c9a66e0	0.018847883
133	0xbe02c403	-0.12770085
134	0xbdd90a29	-0.10597641
135	0xbe0c5fb3	-0.13708381
136	0x3e02fb70	0.12791228
137	0xbe2dfec4	-0.16991717
138	0xbe352057	-0.17688118
139	0x3d658ab3	0.056040477
140	0x3e6d98d9	0.23202838
141	0x3e0e56aa	0.13900247
142	0x3dc1cc47	0.09462791
143	0xbdecc4b0	-0.11560953
144	0x3cd0e102	0.025497917
145	0x3e3079f7	0.17234026
146	0xbc4cbd90	-0.012496367
147	0x3cf103e5	0.029420802
148	0xbd3e93f3	-0.046527814
149	0x3d636f6d	0.055526186
150	0x3dd500e1	0.10400558
151	0x3e0f9de4	0.14025074
152	0xbdcdc9fd	-0.10048292
153	0xbdb9b485	-0.090676345
154	0xbdd01c5a	-0.10161658
155	0x3da89970	0.08232391
156	0x3de6c331	0.112676986
157	0xbd755500	-0.059895515
158	0x3da55be9	0.08074171
159	0x3d95dadf	0.07317137
160	0xbf170c4d	-0.59003145
161	0x3e18cdad	0.14922209
162	0xbd961690	-0.07328522
163	0x3de1e316	0.11029641
164	0x3e1a049b	0.1504082
165	0x3d8e7c15	0.069572605
166	0xbc2007c7	-0.009767479
167	0x3e39f8bb	0.1816129
168	0x3df88a9b	0.12135812
169	0x3db14324	0.08655384
170	0x3e1d979a	0.15389863
171	0x3e08271b	0.13296168
172	0x3ce05763	0.02738542
173	0xbe27efce	-0.16400072
174	0x3e2f23df	0.17103527
175	0x3e06b562	0.1315513
176	0x3ecf6c0e	0.40512127
177	0x3ae21127	0.0017247543
178	0xbd7a9f50	-0.06118709
179	0xbd5604e9	-0.052250776
180	0xbd67f874	-0.056633428
181	0xbd66d9f6	-0.056360207
182	0x3daf60ff	0.085634224
183	0x3dce6f98	0.100798786
184	0x3e032c48	0.1280986
185	0x3dbe9843	0.09306385
186	0x3cc39097	0.023872657
187	0x3dfc2f35	0.123136915
188	0xbde9119e	-0.11380313
189	0xbd9c6301	-0.07636071
190	0xbd2da4e2	-0.042393573
191	0x3d861928	0.06547767
192	0xba87f42a	-0.0010372449
193	0xbe051248	-0.12995255
194	0xbd930f0b	-0.071806036
195	0x3de2738e	0.110571966
196	0xbda5b068	-0.080902874
197	0x3d7af868	0.061272055
198	0xbd691355	-0.056903202
199	0x3e187e33	0.14891891
200	0x3df9f210	0.12204373
201	0xbdaf24ad	-0.08551917
202	0x3e022bc0	0.12712002
203	0x3d3c6e9a	0.046003915
204	0xbca151fd	-0.019692415
205	0xbd62308e	-0.055222087
206	0x3e5b90dc	0.21441978
207	0x3d96efd2	0.07369961
208	0xbd8c684a	-0.06855829
209	0x3deb1533	0.11478653
210	0x3e3ef146	0.18646726
211	0xbbe0bd08	-0.006858472
212	0xbd7f41eb	-0.062318724
213	0xbd2f430e	-0.042788558
214	0x3d492774	0.04910989
215	0xbc88c758	-0.016696617
216	0x3d22af18	0.039717764
217	0x3d600535	0.054692466
218	0x3b283490	0.0025666095
219	0xbd0d17c8	-0.034446508
220	0x3dc825c0	0.09772825
221	0x3d9a4baa	0.07533963
222	0x3d3767ec	0.044776842
223	0xbdd09afd	-0.10185812
224	0xbd9a1e9c	-0.075253695
225	0x3e5c5ced	0.21519823
226	0xbe1a36d7	-0.15059982
227	0x3d2b88a2	0.04187835
228	0x3dda7c3b	0.10668226
229	0xbc68479d	-0.01417723
230	0x3dd40304	0.10352138
231	0xbce30505	-0.027712354
232	0x3cfa2dc9	0.03053941
233	0x3d5033d8	0.050830692
234	0x3d0df487	0.034657028
235	0x3da1c340	0.07898569
236	0xbdd6855f	-0.10474657
237	0x3d48389b	0.04888211
238	0x3e5d7e34	0.21630174
239	0xbd6b598b	-0.05745844
240	0xbb8729ed	-0.004124871
241	0x3de12280	0.109929085
242	0x3d86f843	0.06590321
243	0xbe21413b	-0.1574754
244	0x3da86392	0.082221165
245	0x3de39ea1	0.111142404
246	0x3c804936	0.01565991
247	0x3dd4968a	0.103802755
248	0x3e1d5e68	0.15368044
249	0x3e29589e	0.16537711
250	0xbdb3fb92	-0.087882176
251	0xbcad5bae	-0.02116188
252	0xbdd74247	-0.10510688
253	0x3d3c12b6	0.04591628
254	0x3bed28d2	0.007237532
255	0x3d63b90e	0.055596404

encoder.dcrnn_cells.0.update.bias_pool f4 [2, 64]
0	0x3daa8d1b	0.08327695
1	0xbdfbed25	-0.12301091
2	0x3e583028	0.2111212
3	0x3e95948f	0.29214904
4	0x3e2684b6	0.16261563
5	0x3e08951e	0.13338134
6	0xbd9af25c	-0.07565758
7	0x3e14a6a3	0.14516692
8	0xbdaf17df	-0.08549475
9	0xbe852786	-0.26006716
10	0xbe2fe498	-0.17177045
11	0x3d89258a	0.06696613
12	0xbe573546	-0.21016416
13	0x398c750e	0.00026790093
14	0x3d98e287	0.07465082
15	0xbe73ad09	-0.23796476
16	0x3e263c14	0.16233855
17	0x3e076bb8	0.13224685
18	0x3e74c49d	0.23903127
19	0xbe4f51b6	-0.20246014
20	0xbe29e879	-0.16592588
21	0xbe13dbb5	-0.1443928
22	0xbd7c7326	-0.06163325
23	0x3e83c48c	0.2573589
24	0x3c1bed35	0.009517004
25	0x3e8c0d20	0.27353764
26	0xbebf8bc3	-0.37411317
27	0x3e5fe4f0	0.21864676
28	0xbec8519c	-0.39124763
29	0x3e5c9f61	0.21545173
30	0xbe95e450	-0.2927575
31	0xbe5e75b5	-0.21724589
32	0xbed2d218	-0.41175914
33	0xbdf86c6c	-0.12130055
34	0xbe84b3d5	-0.2591845
35	0x3e0d11db	0.13776343
36	0x3e8dac0c	0.27670324
37	0xbe8f1851	-0.2794824
38	0x3e42d2a7	0.1902567
39	0xbe21e51f	-0.15810059
40	0x3e4a5d9a	0.19762269
41	0xbe084bc9	-0.1331016
42	0xbd82d6fb	-0.063886605
43	0xbe075884	-0.1321736
44	0x3dc423d8	0.09577149
45	0xbe82c5d6	-0.25541562
46	0xbd0024f7	-0.031285252
47	0x3dc03957	0.09385937
48	0xbc22bbdb	-0.009932484
49	0xbea3f1f6	-0.3202054
50	0x3d0035f0	0.03130144
51	0xbccc82de	-0.024964746
52	0xbe84e18d	-0.25953332
53	0xbdfda68b	-0.12385281
54	0x3e466dbf	0.19377802
55	0xbe7c956a	-0.24666372
56	0x3ea9f0ce	0.33191532
57	0xbe012723	-0.12612586
58	0xbd000bfa	-0.03126142
59	0x3d89a643	0.06721165
60	0xbebb77ed	-0.36614934
61	0xbe7b5087	-0.24542437
62	0x3e2482c6	0.16065511
63	0xbd9771d9	-0.073947616
64	0x3dfb101d	0.12258933
65	0xbd9eb63b	-0.077496015
66	0xbeb043db	-0.3442677
67	0x3de5219b	0.1118805
68	0x3e8fb16e	0.28065056
69	0x3d5db56c	0.054128096
70	0xbe07368f	-0.13204406
71	0x3ea8b345	0.32949272
72	0xbe828620	-0.25492954
73	0x3e86675c	0.26250732
74	0x3e49377d	0.19650073
75	0x3d20fd77	0.039304223
76	0xbdbd2d9c	-0.09237215
77	0xbe169468	-0.1470505
78	0xbdc4cf24	-0.096098214
79	0xbe5920e0	-0.21203947
80	0xbe4cbde5	-0.19994314
81	0xbe6cb027	-0.23114072
82	0xbe0aa45b	-0.13539259
83	0xbe8b0bad	-0.27157345
84	0xbe44de83	-0.19225506
85	0xbe26963b	-0.16268246
86	0x3d691901	0.05690861
87	0xbe114f0f	-0.14190315
88	0xbd4cdb64	-0.050013915
89	0xbe29de09	-0.16588606
90	0x3e2c82ae	0.16846725
91	0xbde97508	-0.11399275
92	0x3e4779d1	0.19480063
93	0xbdab5ed0	-0.083676934
94	0x3e6ee9e8	0.23331416
95	0xbe6b30b8	-0.22967803
96	0xbc93c380	-0.018037558
97	0x3e1097ed	0.14120455
98	0x3eb37bbb	0.35055336
99	0xbe135633	-0.14388351
100	0xbd4566e2	-0.04819382
101	0xbd75317c	-0.059861645
102	0x3de61a8f	0.112355344
103	0x3e768e61	0.2407775
104	0x3e2985f6	0.16555008
105	0x3c1b678b	0.009485136
106	0x3e1e9947	0.15488158
107	0x3cb07166	0.021538448
108	0x3e0bbaee	0.13645527
109	0xbc6d9fe4	-0.014503453
110	0xbe071b9a	-0.13194123
111	0xbeaac5ec	-0.33354127
112	0xbe1070a3	-0.14105467
113	0xbe12798b	-0.14304177
114	0x3e339a1a	0.17539254
115	0x3e8b1425	0.27163807
116	0x3e872995	0.26398912
117	0x3e99d92a	0.30048496
118	0x3e1fceb4	0.15606195
119	0x3ea221a0	0.3166628
120	0x3e1b6078	0.15173519
121	0x3e710af7	0.23539339
122	0x3e773190	0.2414
123	0xbd3e1df4	-0.046415284
124	0xbcf84f6f	-0.030311314
125	0x3e618bd2	0.22025993
126	0x3e8d2728	0.27568936
127	0x3e3aa977	0.18228708

encoder.dcrnn_cells.0.update.linear.weight f4 [64, 65]
0	0x3e2ae266	0.16687927
1	0x3d67c6e3	0.056586158
2	0xbda3953e	-0.0798745
3	0xbda4df49	-0.08050401
4	0x3d0888b9	0.033333514
5	0xbe27bc00	-0.1638031
6	0x3c6fdd89	0.01464022
7	0xbe2ebea9	-0.17064919
8	0xbe409764	-0.18807751
9	0xbd02b149	-0.031907354
10	0xbea3c5b8	-0.31986785
11	0xbc4dda5a	-0.012564266
12	0xbdc5d32b	-0.09659418
13	0x3e2f8e5b	0.17144148
14	0x3daae1c7	0.08343845
15	0x3ce5662c	0.02800282
16	0x3d401f73	0.046904992
17	0x3e057900	0.13034439
18	0xbbdecd89	-0.006799404
19	0x3df14220	0.117801905
20	0x3dea3396	0.114356205
21	0xbe5afce4	-0.21385533
22	0x3e0da36c	0.13831872
23	0xbe3f7f01	-0.18700792
24	0x3dd38567	0.10328179
25	0xbe9eeb0a	-0.31038696
26	0xbe221fb2	-0.15832403
27	0xbd2fa794	-0.042884424
28	0x3d978c1c	0.073997706
29	0x3df9038f	0.12158882
30	0x3c9cd0ba	0.019142497
31	0xbce44145	-0.027863154
32	0x3e398de5	0.18120535
33	0xbe201ec8	-0.15636742
34	0xbdf88c33	-0.12136116
35	0x3c301f79	0.010749691
36	0x3e0a3c8b	0.13499658
37	0x3d53e58f	0.051732596
38	0x3e73ed62	0.23821023
39	0x3dedd345	0.11612562
40	0x3c0d5c79	0.008628004
41	0xbdd85604	-0.10563281
42	0x3e789c58	0.2427839
43	0xbe8262ae	-0.25465912
44	0xbe6e63b3	-0.2328022
45	0xbdf7a06d	-0.12091146
46	0x3e0d7b43	0.13816552
47	0x3e259807	0.16171275
48	0x3dd705cb	0.10499152
49	0xbdbdd510	-0.09269154
50	0xbd3e921a	-0.046526052
51	0xbeaa4d42	-0.33262068
52	0x3da49c35	0.080376066
53	0xbd1666e5	-0.03671922
54	0x3d0383d2	0.032108136
55	0xbe00e73c	-0.12588209
56	0xbe69f0aa	-0.22845712
57	0xbd8a85ae	-0.067637786
58	0x3e511de2	0.20421556
59	0xbe813250	-0.25233698
60	0xbda736ce	-0.0816475
61	0xbe809164	-0.25110924
62	0x3e173ca3	0.14769225
63	0x3d812394	0.06305614
64	0xbe2b228d	-0.16712399
65	0xbe9bbf80	-0.3041954
66	0xbe56e3a3	-0.20985274
67	0xbd559510	-0.05214411
68	0x3e3807ce	0.17971727
69	0xbcc4ad3f	-0.024008391
70	0xbe012b3a	-0.12614146
71	0xbdac6c4a	-0.08419092
72	0xbc2bbdf4	-0.0104823
73	0xbecbd1ff	-0.39808652
74	0x3da5c448	0.08094078
75	0xbdbf7924	-0.093492776
76	0x3e075ce2	0.13219026
77	0xbe49a924	-0.19693428
78	0x3e11789a	0.14206162
79	0x3d4c42a3	0.049868237
80	0xbe4ecd15	-0.2019542
81	0x3c22c816	0.0099353995
82	0x3e1d3f67	0.15356217
83	0xbc4ce952	-0.0125068
84	0xbca2a59b	-0.019854357
85	0x3ea938e9	0.33051232
86	0x3e2e2034	0.17004472
87	0xbdd6bdef	-0.10485446
88	0xbe5e5b88	-0.21714604
89	0xbe24e292	-0.16102055
90	0xbd858e39	-0.065212674
91	0x3e09e0b7	0.13464628
92	0xbd5a7a1f	-0.05333912
93	0xbd7492b1	-0.05971021
94	0x3d19e280	0.037569523
95	0xbc03c374	-0.008042205
96	0x3d4b2021	0.049591187
97	0x3e5c45af	0.21510957
98	0xbe06f836	-0.13180622
99	0x3d36d738	0.044638842
100	0xbdcb8091	-0.099366315
101	0xbcf4f8c7	-0.029903783
102	0xbe5aea37	-0.21378408
103	0x3de39317	0.111120395
104	0xbe00b87a	-0.12570372
105	0xbe24dd06	-0.16099939
106	0xbd01a558	-0.031651825
107	0x3e3012ed	0.1719472
108	0x3e8e1ada	0.2775486
109	0x3b0de879	0.0021653457
110	0xbe8c86bd	-0.27446547
111	0x3de02704	0.10944942
112	0x3e092877	0.13394342
113	0x3dbcc877	0.09217923
114	0xbdf1e855	-0.11811892
115	0xbe31bb05	-0.17356499
116	0x3d1d65e3	0.038427245
117	0xbe8ddcb6	-0.27707452
118	0xbe6cb272	-0.23114946
119	0x3df5cd4c	0.12002048
120	0x3db9ce53	0.09072556
121	0xbe4169f1	-0.1888807
122	0x3d13afa6	0.036056183
123	0x3be94cd3	0.007119754
124	0x3d596d0b	0.053082507
125	0xbe7751d4	-0.24152309
126	0xbdfaaf74	-0.12240496
127	0x3e29f8f0	0.16598868
128	0x3d987f1c	0.07446119
129	0x3db8d2e9	0.09024603
130	0x3e0836b0	0.13302112
131	0xbe802111	-0.25025228
132	0xbdb860e7	-0.09002858
133	0xbe874f19	-0.26427534
134	0x3d8cbeaf	0.068723075
135	0x3db05ec8	0.08611828
136	0x3d01363a	0.031545855
137	0xbc85266b	-0.01625367
138	0xbe547ba0	-0.20750284
139	0x3e474e12	0.19463375
140	0x3d556e99	0.052107427
141	0xbe4b580b	-0.19857804
142	0xbdd29944	-0.10283139
143	0xbd868100	-0.065675735
144	0x3d4114a8	0.04713884
145	0xbe4bb166	-0.19891891
146	0xbe6d02c2	-0.23145583
147	0x3da8156f	0.08207213
148	0x3e59ee9d	0.2128243
149	0x3e37703a	0.17913905
150	0x3db95596	0.09049527
151	0x3ac6c76d	0.0015165635
152	0xbd8230ef	-0.063569896
153	0x3d85dc33	0.0653614
154	0x3d2b612d	0.04184072
155	0xbe7be499	-0.24598922
156	0xbcf6e8f2	-0.030140374
157	0xbdabc7e0	-0.083877325
158	0xbe1ba736	-0.15200505
159	0xbe268f71	-0.16265656
160	0xbe54e181	-0.20789148
161	0x3e2ec0b2	0.17065695
162	0x3e391442	0.18074134
163	0xbd58e1af	-0.052949604
164	0xbd0863ba	-0.03329823
165	0x3e59e18a	0.21277443
166	0x3e2232a1	0.15839626
167	0x3e0c612b	0.13708942
168	0x3d7687ed	0.060188223
169	0xbd398da2	-0.045301087
170	0xbdb53966	-0.088488385
171	0x3cdd4a0f	0.027012853
172	0x3d854351	0.0650698
173	0xbe3948de	-0.18094203
174	0x3db81232	0.089878455
175	0xbe8ed9ea	-0.2790063
176	0x3d58f6ce	0.052969746
177	0x3e0bb9ef	0.13645147
178	0xbda3b532	-0.07993545
179	0xbda3e378	-0.080023706
180	0xbe7a6eda	-0.24456349
181	0xbd98a8c9	-0.07454068
182	0xbc8374f4	-0.016046979
183	0x3d4efc5a	0.05053363
184	0x3d9188d3	0.07106175
185	0x3daec5b5	0.085338034
186	0xbdb1ea80	-0.086873055
187	0x3e699c01	0.22813417
188	0xbe2840a2	-0.16430905
189	0xbe456577	-0.19276987
190	0x3cd969b7	0.026539667
191	0xbe0db380	-0.13838005
192	0xbca8d698	-0.020610139
193	0xbe102b75	-0.14079078
194	0xbe639c84	-0.22227675
195	0x3ec4dfc8	0.38451982
196	0x3d8ccf43	0.068754695
197	0xbd6c311b	-0.057664018
198	0xbd477e03	-0.04870416
199	0xbb3193a0	-0.0027096048
200	0x3e42ce3b	0.19023983
201	0xbe23c627	-0.15993558
202	0x3d49c8d3	0.049263787
203	0x3e77ac9d	0.2418694
204	0x3e2a29ec	0.16617554
205	0xbe7e0661	-0.24807121
206	0xbb536ad7	-0.0032259726
207	0xbdd49ece	-0.10381852
208	0x3dfa2179	0.12213416
209	0x3cdd60c2	0.027023677
210	0x3db87887	0.09007364
211	0xbd5e7120	-0.054307103
212	0x3d7dccc2	0.06196285
213	0x3dadf97e	0.084948525
214	0x3d2edb44	0.042689577
215	0x3e7f4fa6	0.24932727
216	0xbca7a7ba	-0.02046572
217	0xbe34edb2	-0.17668799
218	0x3d6d20ee	0.057892732
219	0xbc0a3bfb	-0.008437152
220	0x3e2645dc	0.16237587
221	0x3d540de5	0.051771063
222	0xbe372433	-0.17884903
223	0xbd565a1b	-0.052332025
224	0xbe3dc7dd	-0.18533273
225	0xbe5dc1a0	-0.21655893
226	0x3e0fe1f7	0.14051042
227	0xbdceb8a3	-0.100938104
228	0x3e19ea4d	0.15030785
229	0x3e45461e	0.19265029
230	0xbdb43d4e	-0.088007554
231	0x3d5b465a	0.05353389
232	0x3e445444	0.1917277
233	0x3e57bdcb	0.21068494
234	0x3df8264e	0.12116681
235	0x3e7c4145	0.24634273
236	0x3e36582b	0.17807071
237	0x3e3ae877	0.18252741
238	0x3e6211e5	0.22077139
239	0xbd7908d0	-0.06079942
240	0x3e4d2d19	0.20036735
241	0xbe2f913e	-0.17145249
242	0xbd656b44	-0.0560105
243	0xbcd1e798	-0.025623128
244	0x3e521cb0	0.20518756
245	0xbced7e28	-0.02899082
246	0xbda14e6b	-0.07876285
247	0xbe07442d	-0.13209601
248	0xbd865910	-0.06559956
249	0xbe36afb3	-0.17840461
250	0xbdf60b5b	-0.12013885
251	0x3e5f5a9b	0.21811907
252	0x3ea53c0d	0.32272378
253	0xbe58552a	-0.21126238
254	0x3e05a21d	0.13050123
255	0x3c1a08c4	0.009401504

encoder.dcrnn_cells.0.update.linear.bias f4 [64]
0	0x3eeeb3e7	0.4662163
1	0x3ebb75ce	0.36613315
2	0x3f0fa9ac	0.56118274
3	0x3f3fb8d8	0.74891424
4	0x3f0fda56	0.5619253
5	0x3dc068d9	0.09394998
6	0x3c5abd82	0.013350846
7	0x3f1708fb	0.5899808
8	0x3e7c1d09	0.24620451
9	0x3e4ba0f0	0.19885612
10	0x3ee1bcd5	0.4408938
11	0x3f212333	0.62944335
12	0x3f406948	0.75160646
13	0x3ef16fe9	0.47155693
14	0x3f6a9c2c	0.9164455
15	0x3f259f38	0.64696074
16	0x3db7c3fd	0.08972929
17	0x3e6c4b32	0.2307556
18	0x3e84a97f	0.25910565
19	0x3e61bfe4	0.22045857
20	0x3f568648	0.83798647
21	0x3f030c24	0.511904
22	0x3ebcbbf5	0.3686215
23	0x3f594fe3	0.8488752
24	0x3ebf97f9	0.37420633
25	0x3d932e5b	0.07186576
26	0x3effde22	0.4997416
27	0x3e8c4f15	0.27404085
28	0x3f4856b1	0.7825728
29	0x3d79ccdb	0.06098638
30	0x3f00b368	0.5027375
31	0x3e2168c1	0.15762617
32	0x3e8748a4	0.26422608
33	0x3e8c9296	0.27455586
34	0x3e76dede	0.24108455
35	0x3ea502f5	0.3222882
36	0x3f0ed493	0.5579311
37	0x3ed163f7	0.4089658
38	0x3ea704f0	0.32620955
39	0x3f1a0c3b	0.6017491
40	0x3f41b654	0.75668836
41	0x3eba30ce	0.3636536
42	0x3f41b3dd	0.75665075
43	0x3f0a80fa	0.5410305
44	0x3f3c1d20	0.7348194
45	0x3dd3df68	0.10345346
46	0x3f703213	0.9382641
47	0x3f15fbde	0.58587444
48	0x3e0267c2	0.12734893
49	0x3f2f9001	0.6857911
50	0x3f6775e8	0.90414286
51	0x3ed23903	0.4105912
52	0x3eba43af	0.36379763
53	0x3f5ae7ef	0.8551015
54	0x3f1a0a99	0.6017242
55	0x3f538070	0.82617855
56	0x3eab466d	0.33452168
57	0x3ecab75c	0.39593017
58	0x3e1aa2da	0.15101185
59	0x3f5d20e8	0.86378336
60	0x3e8072c0	0.25087547
61	0x3e7cdaa1	0.24692775
62	0x3f3edcd9	0.74555737
63	0x3f5daa9c	0.86588454
